trained_models/trained_cost_functional_no_control.pth (torch, 506274 bytes, 27 tensors)

input_layer.0.weight f4 [100, 2]
0	0x3bfd39fb	0.007727859
1	0x3ef32dc1	0.47495845
2	0x3e220a6c	0.15824288
3	0xbdbad55a	-0.09122725
4	0x3e7e738d	0.24848767
5	0xbde1db95	-0.1102821
6	0xbe6795c7	-0.2261573
7	0xbe8cb1f0	-0.27479506
8	0xbf174b20	-0.59099007
9	0xbf01d2f1	-0.50712496
10	0xbebf8df9	-0.37413004
11	0x3e98725d	0.29774752
12	0xbf0267f5	-0.50939876
13	0xbced9a1d	-0.029004151
14	0x3c9c3eff	0.019073008
15	0xbd44f00c	-0.04808049
16	0xbec21a00	-0.3791046
17	0x3e6f2088	0.23352253
18	0x3e81ebf1	0.25375322
19	0x3eb0b4f8	0.34513068
20	0x3f1187c8	0.5684781
21	0xbed3ef0d	-0.4139332
22	0xbd664d45	-0.056226034
23	0x3eb26927	0.3484585
24	0x3dc2fdd3	0.095210694
25	0xbe58d9c5	-0.21176822
26	0x3e5adf67	0.21374284
27	0x3ef8a89c	0.4856614
28	0x3ddadcbb	0.10686632
29	0xbb0b1f5c	-0.0021228408
30	0xbee3cd3a	-0.44492513
31	0xbe2c0af5	-0.16801055
32	0xbe833df0	-0.25633192
33	0xbef0214f	-0.46900412
34	0x3ee34718	0.44390178
35	0xbd9f46c8	-0.07777172
36	0x3e05e6a7	0.13076268
37	0x3dc8a71c	0.097974986
38	0x3e2dd41b	0.16975443
39	0xbdc377b6	-0.095443174
40	0x3ecf7675	0.40520063
41	0x3cc46a93	0.0239766
42	0xbebd1b2d	-0.36934796
43	0x3d8e0287	0.06934076
44	0xbd862374	-0.06549731
45	0x3e21cb94	0.15800315
46	0xbe90d0fa	-0.28284436
47	0xbe92d08e	-0.2867474
48	0xbde688a5	-0.112565316
49	0xbead465b	-0.3384274
50	0x3e660987	0.22464572
51	0xbdd37da3	-0.10326698
52	0xbf18bd9d	-0.59664327
53	0xbf034681	-0.51279455
54	0x3ed69e02	0.41917425
55	0xbd41914a	-0.0472577
56	0xbf07984a	-0.5296675
57	0xbeb11fda	-0.34594613
58	0x3e433fc7	0.19067298
59	0xbe309601	-0.17244722
60	0x3f00bd51	0.50288874
61	0xbdc134a8	-0.094338715
62	0xbef66ef1	-0.48131517
63	0xbd0ab538	-0.03386423
64	0x3eaa1b11	0.33223775
65	0x3e430b21	0.19047214
66	0x3c2ef415	0.010678311
67	0x3dac0e8e	0.084012136
68	0x3f080c04	0.53143334
69	0x3db82f2f	0.089933746
70	0xbe2974a2	-0.16548398
71	0xbeea9ff9	-0.45825174
72	0xbcaf4368	-0.021394446
73	0xbecda889	-0.40167645
74	0x3ec02dc8	0.37534928
75	0xbecb54b4	-0.3971306
76	0x3f08de65	0.5346435
77	0xbd85b67c	-0.06528947
78	0x3e8c7639	0.27433947
79	0x3e16b76f	0.14718412
80	0x3eeb3fb0	0.45947027
81	0xbeaf4294	-0.34230483
82	0xbe8b9ecb	-0.27269587
83	0xbee0c90a	-0.4390338
84	0xbdab3608	-0.08359915
85	0xbe47c726	-0.19509563
86	0xbdece98f	-0.11567985
87	0xbd700e73	-0.05860753
88	0xbee9eabb	-0.45686898
89	0xbf152f46	-0.5827526
90	0x3f199983	0.59999865
91	0xbf0b90ab	-0.5451762
92	0x3edc094f	0.42975852
93	0xbe122677	-0.14272486
94	0xbec94bac	-0.39315546
95	0xbd68def3	-0.056853246
96	0xbd9840bd	-0.07434223
97	0xbe8257dd	-0.2545766
98	0xbe8c2093	-0.27368602
99	0xbe020a76	-0.12699303
100	0x3db17fee	0.08666979
101	0xbea671a4	-0.32508576
102	0xbeebe9fb	-0.4607695
103	0xbec0b0e1	-0.37634948
104	0x3e770d94	0.24126273
105	0x3dc105f5	0.09424964
106	0xbdb35fb4	-0.08758488
107	0xbdfd2f4d	-0.123625375
108	0x3e0d0f22	0.13775304
109	0xbeaffb05	-0.343712
110	0xbee1c8c6	-0.4409849
111	0x3dec79d5	0.11546675
112	0xbe5b73e7	-0.21430932
113	0x3e21787d	0.15768619
114	0xbe153952	-0.14572647
115	0x3d85e963	0.065386556
116	0x3c47bffb	0.012191768
117	0x3e0522ed	0.13001604
118	0xbdf81ebc	-0.12115237
119	0xbda60d57	-0.08108013
120	0xbee80558	-0.45316577
121	0x3e6563f4	0.2240141
122	0x3f18f750	0.5975237
123	0x3ecdc462	0.4018889
124	0xbe7d4839	-0.24734582
125	0x3d1b02c7	0.037844446
126	0xbe01c7dc	-0.12673897
127	0x3db998b3	0.09062328
128	0xbe68eb2f	-0.22745965
129	0xbd5bc2a1	-0.05365241
130	0x3ee6a81d	0.45050135
131	0xbeb267aa	-0.34844714
132	0xbdb848d6	-0.08998267
133	0xbe0861c7	-0.13318549
134	0xbd641549	-0.05568436
135	0x3e79df08	0.24401486
136	0x3df1ae5a	0.11800833
137	0x3dec9874	0.115525156
138	0x3ed298ca	0.41132194
139	0xbeb82549	-0.35965946
140	0xbe7bea01	-0.24600984
141	0x3e54b927	0.20773755
142	0x3ced1134	0.028938867
143	0xbde8e3fe	-0.11371611
144	0xbe918b74	-0.28426707
145	0xbdf4d5fb	-0.11954876
146	0x3cfafc87	0.030637993
147	0x3eebe061	0.46069625
148	0xbe17a890	-0.14810395
149	0xbd6fcc70	-0.058544576
150	0x3ea04779	0.3130453
151	0xbe17f387	-0.14838992
152	0xbedfa21f	-0.43678376
153	0x3f06024f	0.5234727
154	0x3ee29ce2	0.44260317
155	0x3eb797e9	0.35858086
156	0xbf0d31f5	-0.55154353
157	0x3ef990b3	0.4874321
158	0x3e55364b	0.20821492
159	0xbd8a54a7	-0.067544274
160	0x3ef32281	0.47487262
161	0x3ef925a0	0.48661518
162	0x3e804fed	0.2506098
163	0x3baa4db1	0.00519725
164	0xbe05a1ae	-0.13049957
165	0x3d7e8452	0.06213791
166	0x3df4a13e	0.11944817
167	0xbc22d193	-0.009937662
168	0xbdeea8c1	-0.11653281
169	0x3e91482c	0.28375375
170	0x3dc10485	0.0942469
171	0x3e9535c2	0.29142576
172	0x3eb4240f	0.3518376
173	0xbe48aff8	-0.19598377
174	0x3ef15202	0.4713288
175	0x3cffb77f	0.031215427
176	0xbe579dc7	-0.21056281
177	0x3c8a0fb4	0.016853191
178	0x3dbef0ad	0.09323249
179	0x3ebeadd8	0.37242007
180	0x3e3629ff	0.17789458
181	0xbdc6a52b	-0.09699472
182	0x3dc3125b	0.095249854
183	0x3daa1f6e	0.08306776
184	0xbd4e4e68	-0.050367743
185	0x3d939b2f	0.07207333
186	0xbedc704c	-0.43054426
187	0xbeeeff9d	-0.46679392
188	0x3f087a1d	0.5331133
189	0x3ef4e52c	0.47831094
190	0xbd796d5e	-0.060895316
191	0xbd29e634	-0.041479304
192	0x3ee8b89c	0.45453346
193	0x3ee75e3e	0.4518909
194	0xbe1d42ac	-0.15357465
195	0x3ec2782e	0.37982315
196	0xbd1225d2	-0.0356806
197	0xbe7bfb73	-0.24607639
198	0xbe347e3f	-0.17626284
199	0xbe1faf7b	-0.15594284

input_layer.0.bias f4 [100]
0	0xbdf16542	-0.117868915
1	0xbf1323c8	-0.5747647
2	0xbf366af0	-0.71256924
3	0x3e5deeec	0.21673173
4	0x3eba482b	0.36383185
5	0xbf1f95a9	-0.6233774
6	0x3ea5dca3	0.32394895
7	0xbd049711	-0.03237063
8	0xbf178289	-0.59183556
9	0xbf407b0c	-0.75187755
10	0x3f2b2b29	0.6686273
11	0x3eb7e440	0.35916328
12	0x3f145039	0.5793491
13	0xbcb4572c	-0.022014223
14	0xbe0e0c4f	-0.13871883
15	0x3f3ff6cb	0.7498595
16	0x3ecc6e70	0.39928007
17	0x3e741380	0.23835564
18	0xbeb7778d	-0.35833398
19	0xbe1b5808	-0.151703
20	0x3f0ff635	0.5623506
21	0x3f0b616f	0.54445547
22	0xbdfac9de	-0.12245534
23	0x3e1830fc	0.14862436
24	0x3df843dc	0.12122318
25	0x3f1df3af	0.61699957
26	0xbce7e81c	-0.02830892
27	0xbe3725b6	-0.1788548
28	0xbe5b3e8a	-0.21410576
29	0x3f180f8f	0.5939874
30	0x3ef53283	0.478901
31	0x3cf81e71	0.030287953
32	0xbf3ab141	-0.7292672
33	0x3dc54216	0.096317455
34	0x3f2a8b79	0.6661907
35	0x3ed6459e	0.4184999
36	0x3ef15014	0.47131407
37	0x3f07585e	0.5286921
38	0xbf23556e	-0.6380223
39	0x3f2e12b2	0.67997277
40	0xbefa019e	-0.4882936
41	0x3eaf089a	0.3418625
42	0x3eee0b45	0.46492973
43	0xbe7c9074	-0.2466448
44	0x3edd4622	0.4321757
45	0x3f265505	0.6497348
46	0x3ed69883	0.41913232
47	0x3f15e3c1	0.5855065
48	0xbe037818	-0.12838781
49	0x3ee9246f	0.4553561
50	0xbf2c3ae9	-0.6727739
51	0x3ed77b1a	0.42086107
52	0x3ec35471	0.3815036
53	0x3ea18a07	0.3155062
54	0x3f368849	0.71301705
55	0x3e3dee6b	0.1854798
56	0xbf2d38d1	-0.6766482
57	0xbe79dab9	-0.24399842
58	0x3e89181a	0.267762
59	0xbe974fe3	-0.29553136
60	0x3ee60ae0	0.44930172
61	0x3eac93b8	0.3370645
62	0x3f30d1f8	0.69070387
63	0xbd327a39	-0.04357359
64	0x3ddd8d2c	0.10817942
65	0xbf4bd431	-0.79620653
66	0xbf100e95	-0.5627225
67	0x3ea69da8	0.32542157
68	0xbec0b97a	-0.37641507
69	0x3e820a25	0.25398365
70	0xbf1461e6	-0.5796188
71	0x3e10f8e6	0.14157447
72	0xbed283db	-0.41116223
73	0xbef2e2d5	-0.47438684
74	0xbed777a8	-0.42083478
75	0xbea2f454	-0.31827033
76	0x3f2d9bd3	0.67815894
77	0xbc9e7617	-0.019343419
78	0xbe949727	-0.2902157
79	0xbf1ea2f8	-0.6196742
80	0x3f372dab	0.7155406
81	0x3f131db2	0.57467186
82	0x3f29a267	0.6626343
83	0x3e0d9534	0.13826448
84	0xbf314063	-0.6923887
85	0x3f54b77c	0.83092475
86	0xbedf8153	-0.43653354
87	0x3deb2305	0.11481289
88	0x3eee6ec0	0.4656887
89	0x3f1f343a	0.62189066
90	0xbe70f873	-0.23532276
91	0xbdc6652c	-0.09687266
92	0xbd9dbae7	-0.077016644
93	0x3e30a5ae	0.17250702
94	0xbed562ac	-0.41676843
95	0x3e0faad3	0.14030008
96	0xbdadb2e6	-0.08481388
97	0x3dfcb79f	0.123397104
98	0xbf265cec	-0.6498554
99	0xbee5eeb6	-0.44908684

DGM1.gate_Z.0.weight f4 [100, 102]
0	0x3d6d0540	0.057866335
1	0x3d723aef	0.059138235
2	0xbdc0b719	-0.09409923
3	0xbdd696a9	-0.10477955
4	0xbdd2d55e	-0.10294603
5	0xbce45618	-0.027873084
6	0x3c1d0542	0.009583773
7	0x3da8596b	0.0822018
8	0x3d41006b	0.04711954
9	0xbce478f9	-0.027889716
10	0xbcd05d35	-0.02543507
11	0x3caf3db2	0.021391723
12	0x3d87f097	0.06637686
13	0xbd882922	-0.066484705
14	0xbcb7e7fe	-0.02244949
15	0x3d9f2f05	0.0777264
16	0x3d9ed2b4	0.07755032
17	0xbd2a5df7	-0.041593518
18	0xbd0de470	-0.034641683
19	0x3d101149	0.035172734
20	0x3cc32a99	0.023824023
21	0x3cd4e7cc	0.025989436
22	0x3d88d83e	0.0668187
23	0x3dd124b0	0.10212076
24	0x3d2ba5cc	0.041906163
25	0xbd677b77	-0.05651423
26	0x3d836dda	0.06417437
27	0x3c931249	0.017953055
28	0x3d99ad0c	0.07503709
29	0xbdb53e1a	-0.088497356
30	0x3d9f593a	0.077806905
31	0x3b1099a6	0.0022064238
32	0xbc3a1943	-0.011358562
33	0x3d2ec27a	0.042665936
34	0xbdaae780	-0.08344936
35	0x3d93f080	0.07223606
36	0x3dafb111	0.085786946
37	0xbd405917	-0.046959963
38	0x3d8beb23	0.06831958
39	0x3dbf4d8a	0.09340961
40	0xbd817bbe	-0.0632243
41	0x3d52fe31	0.051511947
42	0x3d491f58	0.049102157
43	0xbd2f3669	-0.0427765
44	0x3d7ecfba	0.062209822
45	0xbd46a667	-0.048498537
46	0x3c99185b	0.018688371
47	0xbd787c21	-0.060665254
48	0xbd75c413	-0.060001444
49	0xbdc61a0b	-0.09672936
50	0x3c0116ce	0.007878972
51	0x3cfc1279	0.030770527
52	0xbd74ddf2	-0.059781976
53	0xbd1e80c3	-0.038697015
54	0x3d976500	0.07392311
55	0xbd530b3b	-0.051524382
56	0x3db4e6d7	0.08833092
57	0xbcda5eb8	-0.026656494
58	0x3cf94147	0.030426634
59	0x3dbcc4f6	0.09217255
60	0x3cbfbd18	0.023405597
61	0x3dc13a97	0.09435003
62	0xbdc1f002	-0.09469606
63	0xbd544009	-0.05181888
64	0xbd4e80b6	-0.050415717
65	0x3d698a43	0.057016622
66	0xbcf425bb	-0.029803148
67	0xbbc85e22	-0.006114737
68	0x3d46ba4f	0.04851752
69	0xbd202234	-0.03909512
70	0xbcda8cc7	-0.026678456
71	0x3d30999d	0.043115247
72	0x3db17f83	0.08666899
73	0xbcbde068	-0.023178294
74	0xbd843397	-0.064551525
75	0x3d1b97d9	0.03798661
76	0x3ca0d1b5	0.019631246
77	0xbd8e7a5c	-0.06956932
78	0xbd065d29	-0.03280369
79	0x3ad440b6	0.0016193602
80	0x3d63368d	0.055471946
81	0xbc63a24a	-0.013893673
82	0xbd9ec589	-0.077525206
83	0xbd1c9f7d	-0.038238037
84	0x3cec0e3a	0.028815378
85	0x3c9c6397	0.019090457
86	0xbd172059	-0.036896084
87	0xbd02269f	-0.031775113
88	0x3da9124c	0.08255443
89	0x3cb0b3c7	0.0215701
90	0x3dab50bc	0.08365008
91	0x3ccf3546	0.025293957
92	0x3caa5165	0.020790765
93	0xbd5f1cec	-0.05447094
94	0x3db655a4	0.089030534
95	0x3ce70c4e	0.02820411
96	0x3b0b73f6	0.0021278835
97	0xbdc4611f	-0.09588837
98	0xbca3b95d	-0.019985849
99	0xbd723316	-0.05913075
100	0x3d6cb090	0.05778557
101	0xbd8c4cde	-0.06850599
102	0x3c894469	0.016756253
103	0x3daf95df	0.085735075
104	0xbcb4cc91	-0.022070201
105	0xbd062961	-0.032754306
106	0x3c7f34ea	0.015576581
107	0xbd79c760	-0.060981154
108	0xbc976360	-0.018480003
109	0xbdaa0b16	-0.08302896
110	0x3d990a4f	0.07472669
111	0x3d9f0d14	0.07766166
112	0x3d2e4f60	0.042556167
113	0x3d3fde98	0.04684314
114	0x3ca3e495	0.020006457
115	0xbd478f1b	-0.04872046
116	0xbcb02ac4	-0.021504767
117	0xbd542829	-0.051796112
118	0x3dbba986	0.091631934
119	0xbd3867ea	-0.045020975
120	0x3d8f6695	0.07001988
121	0x3c980fe9	0.018562274
122	0x3bc40e31	0.005983137
123	0xbd1c464e	-0.038152985
124	0xbd43fd6e	-0.04784911
125	0x3dc0d7d1	0.09416164
126	0xbb2f0a45	-0.0026709002
127	0x3b4acbe1	0.0030944275
128	0x3d95a2e9	0.07306463
129	0xbcd3301f	-0.025779782
130	0x3be2a325	0.006916421
131	0x3cfe894a	0.031071324
132	0xbc62a4f2	-0.013833271
133	0x3c939142	0.0180136
134	0x3d7aa19f	0.06118929
135	0x3d2591d0	0.04042226
136	0x3c8f8684	0.017520197
137	0x3d8aa2c6	0.06769328
138	0x3cc76cad	0.024343813
139	0x3d507ba2	0.050899155
140	0xbd14639c	-0.036227807
141	0x3d83c7af	0.06434571
142	0x3d13e117	0.036103334
143	0xbc40daf1	-0.01177095
144	0x3d10c58a	0.035344638
145	0x3d96650d	0.07343493
146	0x3d297dda	0.041379787
147	0x3c7c4b29	0.015398779
148	0xbdba0c1d	-0.09084342
149	0xbcd7b497	-0.02633123
150	0x3d23d54a	0.03999833
151	0x3d5dd595	0.054158766
152	0xbd19c093	-0.03753717
153	0x3d9e177e	0.077193245
154	0xbc4c11cd	-0.012455416
155	0x3d6e9aeb	0.05825321
156	0x3b03518b	0.0020037617
157	0xbd90abe5	-0.07064036
158	0x3c40f187	0.011776335
159	0xbd8b7bda	-0.06810732
160	0xbdb547bb	-0.08851572
161	0xbce9012f	-0.028442947
162	0xbd89b425	-0.06723813
163	0x3cb97a71	0.022641392
164	0xbc8fb6da	-0.017543245
165	0x3da6f345	0.08151869
166	0xbcbd5420	-0.023111403
167	0x3d61aed8	0.055098385
168	0xbbde914e	-0.006792224
169	0xbcaba316	-0.020951789
170	0x3d518577	0.051152673
171	0xbd3edcd9	-0.046597335
172	0xbdbcdb81	-0.092215545
173	0xbd88d2d7	-0.066808395
174	0x3ce53c45	0.02798284
175	0x3d6e5179	0.058183167
176	0x3d5306cd	0.051520158
177	0x3d05ee68	0.032698065
178	0x3d9022e2	0.07037903
179	0xbdac3b05	-0.084096946
180	0x3d48704b	0.048935216
181	0xbd9686e9	-0.07349951
182	0x3d801c42	0.0625539
183	0xbc118c8b	-0.008883606
184	0x3d9400d9	0.07226724
185	0x3dbf032e	0.09326778
186	0xbda75839	-0.08171124
187	0xbd5d6c03	-0.054058086
188	0x3c507dc5	0.012725298
189	0x3d8a49ab	0.06752332
190	0x3d9733c0	0.073829174
191	0x3c2eeabd	0.010676083
192	0xbd365974	-0.044518903
193	0xbda9fa36	-0.08299677
194	0xbd33ccb5	-0.043896396
195	0x3d8f6b70	0.07002914
196	0xbd96adf4	-0.07357398
197	0x3d5d50dd	0.054032195
198	0xbd3dd2e8	-0.046343714
199	0xbdf56222	-0.11981608
200	0x3c28226a	0.010262111
201	0x3d18f094	0.03733881
202	0x3d4879a8	0.048944145
203	0x3db1301e	0.08651756
204	0xbcd982cf	-0.026551632
205	0xbc989659	-0.018626379
206	0x3d58cf09	0.05293182
207	0x3d6cfbfc	0.0578575
208	0x3dde3475	0.10849849
209	0x3d9a23ce	0.075263605
210	0x3d931326	0.07181387
211	0xbd993af9	-0.07481951
212	0x3db08742	0.086195484
213	0x3d6fdd71	0.058560792
214	0xbdb5f1d9	-0.088840194
215	0x3c4d4df1	0.01253079
216	0xbc8f0e18	-0.017462775
217	0xbc2297f2	-0.009923922
218	0x3d02ac97	0.031902876
219	0xbc777164	-0.015102718
220	0x3ddb5c23	0.10710933
221	0x3d74d3cc	0.059772298
222	0xbd21bee7	-0.0394887
223	0xbd212db2	-0.03935022
224	0xbd89bb10	-0.067251325
225	0x3cad532a	0.02115782
226	0xbcddfddc	-0.027098589
227	0xbd460804	-0.048347488
228	0x3d7deef0	0.061995447
229	0xbc97bc45	-0.018522391
230	0xbc608935	-0.013704588
231	0x3d234204	0.03985788
232	0x3d8e92fe	0.0696163
233	0x3dba48fb	0.09095951
234	0xbd6dfa0c	-0.05809979
235	0xbd76b2e9	-0.060229216
236	0x3d350006	0.044189475
237	0x3d472330	0.04861754
238	0x3dbe6cdb	0.09298106
239	0xbd961d86	-0.0732985
240	0xbd0cd41e	-0.03438198
241	0x3d8ce69a	0.06879921
242	0x3d05ffd5	0.032714684
243	0xbd588de8	-0.052869707
244	0xbd10f8b5	-0.035393436
245	0x3da27a11	0.079334386
246	0xbcd13393	-0.025537288
247	0xbd912738	-0.070875585
248	0xbd6b5a6e	-0.057459287
249	0x3c8c3209	0.017113702
250	0x3d6040ab	0.054749172
251	0xbb4537c8	-0.0030093063
252	0xbd67d79d	-0.05660211
253	0x3cab300a	0.02089693
254	0xbd69a938	-0.057046145
255	0xbcaa4206	-0.020783436

DGM1.gate_Z.0.bias f4 [100]
0	0xbd352629	-0.044225845
1	0x3d17a950	0.037026703
2	0xbc8dc9d1	-0.017308148
3	0xbdef9691	-0.1169864
4	0x3acfb19d	0.001584578
5	0x3dafbb0c	0.08580598
6	0xbd0579d6	-0.032586895
7	0x3d2ab462	0.041675933
8	0x3d8523a1	0.06500936
9	0x3be358c7	0.0069380733
10	0xbd829f97	-0.063780956
11	0xbd88bb24	-0.06676319
12	0xbc1d0d5f	-0.009585707
13	0xbcc0622b	-0.02348431
14	0xbd4701fc	-0.048585877
15	0x3dcce3da	0.10004397
16	0x3dafe41f	0.085884325
17	0x3c69b66a	0.014264682
18	0x3d894c6a	0.06704028
19	0xbd959fc7	-0.07305866
20	0xbd4ed98f	-0.05050045
21	0xbdd85dff	-0.10564803
22	0xbccff09a	-0.025383282
23	0xbd3b40be	-0.04571604
24	0xbd3b02a0	-0.0456568
25	0x3d459192	0.04823453
26	0xbd864a04	-0.06557086
27	0x3c962541	0.01832831
28	0x3d987e8d	0.07446013
29	0xbc9d6d8d	-0.019217277
30	0xbce2683c	-0.027637593
31	0x3db5ca75	0.08876506
32	0x3be90b41	0.0071119373
33	0x3d1e96b6	0.038717948
34	0x3c26ff91	0.010192768
35	0x396ea84f	0.00022760149
36	0x3d66ccd5	0.056347687
37	0x3d40645f	0.04697072
38	0xbb2b41b7	-0.0026131698
39	0x3cd76067	0.026291085
40	0xbd73ec5a	-0.059551574
41	0x3a967a8c	0.0011480614
42	0x3d526a0b	0.05137066
43	0x3da444ef	0.080209605
44	0xbd235f49	-0.039885793
45	0xbd966ead	-0.073453285
46	0x3d0ff04b	0.03514127
47	0xbd9b08ed	-0.07570062
48	0xbcad4db2	-0.021155212
49	0x3d98ab98	0.07454604
50	0x3bbb6886	0.0057192473
51	0xbd35d68e	-0.04439407
52	0xbcc936c1	-0.024562242
53	0x3dbccf54	0.09219232
54	0x3d451b2c	0.048121616
55	0xbd6d6214	-0.057954863
56	0x3d0bc29f	0.034121152
57	0xbc9b89cb	-0.018986603
58	0x3c81b6de	0.015834268
59	0xbd2cfd51	-0.04223377
60	0xbadc9b9b	-0.0016831042
61	0xbd100050	-0.035156548
62	0x3d21158c	0.03932719
63	0x3ca6769d	0.020320231
64	0xbd9280d7	-0.071534805
65	0xbb908354	-0.004410187
66	0x3d88148f	0.06644546
67	0xbdd21e85	-0.102597274
68	0x3d2c235c	0.04202591
69	0xbc2fc0cd	-0.01072712
70	0x3d17af47	0.037032392
71	0xbc97fd7a	-0.018553484
72	0x3d3e25dc	0.046422824
73	0xbb54fbdb	-0.003249875
74	0xbd292525	-0.04129519
75	0x3cdbee2b	0.026846966
76	0x3c0719d6	0.008245906
77	0x3cb55af8	0.022138104
78	0x3daae0f9	0.083436914
79	0x3c7d9756	0.015477976
80	0xbdb08ff1	-0.08621205
81	0x3c2d09a2	0.010561379
82	0xbbd1ccaf	-0.006402574
83	0x3dd7f50a	0.10544784
84	0xbd68bbc1	-0.05681968
85	0xbdadfeda	-0.08495875
86	0x3d27b608	0.040945083
87	0x3d6d43a7	0.057925846
88	0xbcea848b	-0.028627655
89	0x3d8de247	0.069279246
90	0xbcd2cca6	-0.02573235
91	0x3bb3abfc	0.0054831486
92	0xbd071872	-0.032982297
93	0xbd8d3239	-0.06894345
94	0xbbea6f4a	-0.00715438
95	0xbd9c3faf	-0.07629334
96	0x3c784390	0.015152827
97	0xbc97ca00	-0.018528938
98	0x3d16de4c	0.036833093
99	0xbcf05130	-0.029335588

DGM1.gate_G.0.weight f4 [100, 102]
0	0xbcd20dd6	-0.025641363
1	0x3d103b5f	0.03521287
2	0xbd0b388c	-0.033989474
3	0x3cee3495	0.029077807
4	0xbd6a685e	-0.05722844
5	0xbd4dfc8d	-0.05028968
6	0xbd814d4f	-0.063135736
7	0xbd9400dd	-0.07226727
8	0x3d2388c4	0.03992535
9	0x3d4e3a79	0.050348733
10	0xbdb53760	-0.088484526
11	0x3d881c30	0.06646001
12	0xbcbc668e	-0.02299812
13	0xbd57118b	-0.052506965
14	0x3db0eca6	0.08638887
15	0xbd8e2dfb	-0.06942364
16	0x3d89b664	0.067242414
17	0x3dc27c8a	0.0949641
18	0x3c8d78a9	0.01726945
19	0xbd9fdd44	-0.07805875
20	0xbdc8facd	-0.098134615
21	0xbdb56d7d	-0.08858774
22	0xba8a14d6	-0.0010534774
23	0x3d3cf78d	0.04613452
24	0x3da02de6	0.078212544
25	0x3cb60f85	0.022224197
26	0x3c507fd6	0.012725791
27	0x3dca116f	0.098666064
28	0x3c9483f8	0.018129334
29	0x3cb8ba60	0.022549808
30	0x3cc56d0c	0.02409985
31	0x3dc09284	0.09402946
32	0x3da6e5e9	0.08149321
33	0x3dbbdbc9	0.0917278
34	0xbd9bc36d	-0.07605634
35	0x3e091948	0.1338855
36	0x3db1ce18	0.086818874
37	0x3b909757	0.0044125724
38	0x3dd10fcc	0.10208091
39	0x3cf2297e	0.0295608
40	0x3dad844d	0.084725
41	0x3c3f0795	0.011659523
42	0x3db22d3c	0.08700034
43	0x3d54141f	0.051777
44	0xbd8b640d	-0.068061925
45	0xbdd09844	-0.10185292
46	0x3d49e39f	0.049289342
47	0xbca84564	-0.0205409
48	0xbcc557c9	-0.02408971
49	0x3dc2ac74	0.09505549
50	0xbca74b06	-0.020421516
51	0x3d99c878	0.075089395
52	0xbe19987c	-0.14999574
53	0x3d7e495f	0.06208169
54	0xbd65a940	-0.056069613
55	0xbc383212	-0.011242406
56	0x3d95aa27	0.073078446
57	0xbd8392f0	-0.064245105
58	0xbda4af19	-0.0804121
59	0xbd8f1e9a	-0.06988259
60	0x3dfe8768	0.124281704
61	0x3d60d1a5	0.054887433
62	0x3c102531	0.00879793
63	0xbd8fb005	-0.07015995
64	0x3de142f6	0.109991
65	0xbcb2ba6a	-0.021817405
66	0x3da1a0c8	0.07891995
67	0xbd67fa8e	-0.056635432
68	0xbd5a8ff2	-0.053359933
69	0x3ca0cd3f	0.019629119
70	0x3d1a523d	0.037676085
71	0x3d7c63d4	0.06161864
72	0xbda43949	-0.08018739
73	0xbd999f81	-0.07501126
74	0x3cb54584	0.022127874
75	0x3d944e50	0.072414994
76	0x3d335e36	0.04379102
77	0x3c3ebcfa	0.011641735
78	0x3db4ea65	0.0883377
79	0xbdc0f5fd	-0.094219185
80	0xbcf12a7f	-0.029439209
81	0xbe11c95e	-0.14236972
82	0x3dca118f	0.0986663
83	0xbba03aa6	-0.004889804
84	0x3de49ee0	0.111631155
85	0x3d99bf2b	0.075071655
86	0xbd1e13eb	-0.038593214
87	0xbcf614df	-0.030039249
88	0x3d33e110	0.04391581
89	0x3daab3a6	0.083350465
90	0x3b5bdaaa	0.0033547082
91	0x3d40bc93	0.04705484
92	0xbdbc6d69	-0.09200556
93	0xbd6b4a89	-0.05744413
94	0x3d5b3c22	0.053524144
95	0xbcf94afa	-0.03043126
96	0xbd97fdc1	-0.074214466
97	0xbcda7cae	-0.02667078
98	0x3dbdf111	0.092744954
99	0xbd0aa875	-0.03385206
100	0xbd7405b4	-0.05957575
101	0xbda3f55a	-0.080057815
102	0x3b69d61f	0.0035680605
103	0x3d497b56	0.049189888
104	0xbd9339e5	-0.07188777
105	0x3bd5594f	0.0065108906
106	0xbcee01e4	-0.029053636
107	0xbcebd5f6	-0.028788548
108	0xbd3abce8	-0.04559031
109	0xbe09c99a	-0.13455811
110	0x3c432bbe	0.011912284
111	0x3db9cb36	0.090719625
112	0x3d5b5160	0.053544402
113	0xbd98fe25	-0.07470349
114	0xbd47f2cd	-0.048815537
115	0x3ddc3a27	0.10753279
116	0xbcecd50c	-0.028910182
117	0x3d59a228	0.05313316
118	0xbcfd57b8	-0.030925617
119	0xbd0cf177	-0.034409966
120	0x3dd4b569	0.10386164
121	0xbd6325fb	-0.055456143
122	0xbdf4d287	-0.119542174
123	0xbd882208	-0.06647116
124	0xbd2244d9	-0.03961644
125	0x3dbd5b53	0.09245934
126	0xbdb2d6e2	-0.08732392
127	0x3d5fa4e2	0.054600604
128	0x3db2cca2	0.08730437
129	0x3df3d425	0.11905698
130	0xbda46512	-0.0802709
131	0xbd250e78	-0.040297
132	0xbdc5aa09	-0.09651572
133	0x3e193774	0.1496256
134	0x3c4a58ec	0.012350302
135	0x3d65f46a	0.056141295
136	0xbd169fd1	-0.036773507
137	0x3d41333b	0.047167998
138	0x3ddcc591	0.1077987
139	0x3da0de83	0.07854941
140	0x3c853ff1	0.016265841
141	0x3d92d426	0.0716937
142	0xbca9191d	-0.020641858
143	0x3daf24d1	0.08551944
144	0xbd9087e3	-0.07057168
145	0x3ddd581e	0.10807823
146	0x3d6e9f90	0.05825764
147	0xbd504ad7	-0.050852623
148	0xbda96a29	-0.082722016
149	0x3dd4f613	0.103984974
150	0x3e0a7da0	0.13524485
151	0xbd0fec06	-0.0351372
152	0xbd981177	-0.07425206
153	0x3dc8b7a5	0.098006524
154	0xbd9e36cf	-0.07725298
155	0xbd973dbb	-0.07384821
156	0xbc428bef	-0.011874183
157	0x3dda3fb9	0.106566854
158	0xbc1f6c08	-0.0097303465
159	0x3d0c92f7	0.034319844
160	0xbd6024bf	-0.054722544
161	0x3cbe18ab	0.023205122
162	0x3dc568b0	0.09639108
163	0xbd99b717	-0.07505625
164	0xbd033d81	-0.032041077
165	0xbc824d4f	-0.015906004
166	0x3e08467c	0.13308138
167	0xbba9ff69	-0.005187918
168	0xbde87142	-0.11349727
169	0x3d3d1bf8	0.04616925
170	0xbdb9ba7e	-0.09068774
171	0xbd69b58d	-0.057057906
172	0xbdb25927	-0.08708411
173	0xbd3e834c	-0.046511933
174	0xbdb85c85	-0.09002022
175	0x3c386b6d	0.011256081
176	0x3d52a0d5	0.051422913
177	0xbe00f5c3	-0.1259375
178	0xbc649d2a	-0.013953486
179	0xbcfd3828	-0.030910566
180	0x3d78ad46	0.06071212
181	0x3d187d95	0.03722914
182	0xbd9eb34f	-0.07749044
183	0xbdee9c98	-0.11650962
184	0xbd84aa90	-0.06477845
185	0x3d86e772	0.065871134
186	0x3c2f7f73	0.010711539
187	0x3c6c0d59	0.014407479
188	0xbe153c5d	-0.14573808
189	0x3ad7eb2a	0.0016473283
190	0xbcc73020	-0.02431494
191	0x3d905d5a	0.070490554
192	0x3d9c85d4	0.07642713
193	0xbc9e13f1	-0.019296618
194	0x3db70a4b	0.0893751
195	0xbd453da3	-0.048154484
196	0xbd2d1476	-0.04225584
197	0xbd07f7d8	-0.033195347
198	0xbd94d627	-0.07267409
199	0xbd527710	-0.051383078
200	0x3c151fcb	0.009101818
201	0xbd667201	-0.056261066
202	0xbd2ec37f	-0.04266691
203	0xbdb43017	-0.08798235
204	0xbd6c33fd	-0.057666767
205	0x3db7f6c9	0.089826174
206	0xbdbc5e4c	-0.09197673
207	0xbc2b8447	-0.010468549
208	0x3bed395c	0.007239504
209	0xbd1810a5	-0.03712525
210	0xbd22595f	-0.039636012
211	0x3d1d22d1	0.03836328
212	0xbcec1ed9	-0.028823303
213	0xbcc8936e	-0.024484362
214	0xbe09756e	-0.13423702
215	0xbdc832fa	-0.09775348
216	0x3abfe8b5	0.0014641496
217	0xbd159542	-0.036519296
218	0x3cfa1f6c	0.030532561
219	0x3da387ce	0.07984887
220	0x3d5a0e78	0.053236455
221	0x3dc9ac9b	0.09847375
222	0xbc7759fc	-0.015097138
223	0x3daeac7c	0.085289925
224	0x3c703932	0.014662074
225	0x3d9ae1bf	0.07562589
226	0x3d2398d1	0.03994066
227	0x3dbff5fb	0.09373089
228	0xbd3748de	-0.044747226
229	0xbc8d8afc	-0.017278187
230	0x3ccf1923	0.02528054
231	0x3e01f33e	0.12690446
232	0xbc9ad1df	-0.018898902
233	0xbc683289	-0.014172205
234	0x3d79a153	0.060944866
235	0x3e1ea56c	0.15492791
236	0x3df83838	0.12120098
237	0x3bae9066	0.005327272
238	0xbd0aec3f	-0.033916708
239	0xbcdc26f2	-0.02687404
240	0x3c562cdb	0.013072218
241	0xbd96e92e	-0.07368694
242	0xbd6e15ff	-0.058126446
243	0x3dcb3296	0.09921758
244	0x3d750814	0.059822157
245	0xbd486649	-0.04892567
246	0xbd866e41	-0.06563998
247	0x3c9f1d89	0.019423263
248	0x3d9be8f1	0.076127894
249	0xbd1d0edd	-0.038344253
250	0xbdb28e29	-0.08718521
251	0x3d6369cc	0.055520818
252	0xbd16c4bd	-0.036808718
253	0xbc1206d2	-0.008912759
254	0x3c97d30a	0.018533248
255	0x3dc409fe	0.09572218

DGM1.gate_G.0.bias f4 [100]
0	0xbd12e6a3	-0.035864484
1	0xba71a121	-0.00092174305
2	0x3e144088	0.14477742
3	0x3be28b78	0.0069135986
4	0x3d771bc9	0.060329232
5	0x3d13f89c	0.036125764
6	0x3d3833c8	0.044971257
7	0x3d8206b0	0.06348932
8	0xbd2f028d	-0.042727042
9	0xbc812e8d	-0.015769267
10	0x3d9a1ee9	0.07525427
11	0x3d37db20	0.04488671
12	0xbc5402d9	-0.012940132
13	0x3dd4b58d	0.103861906
14	0x3ccb8b59	0.02484672
15	0xbc8cf39e	-0.01720601
16	0x3e0aa57b	0.13539688
17	0x3dd9ec41	0.10640765
18	0x3c080110	0.008301035
19	0xbd431169	-0.047624025
20	0x3d8afbcf	0.0678631
21	0x3cc64a95	0.024205485
22	0x3d1faf08	0.038985282
23	0x3c56d616	0.0131125655
24	0x3d345952	0.044030495
25	0xbbb8b192	-0.0056364024
26	0xbc5eb512	-0.013592975
27	0x3dc7602f	0.097351424
28	0x3db85e2d	0.090023376
29	0x3c808b93	0.015691554
30	0x3e230e75	0.15923484
31	0xbd698fac	-0.05702178
32	0xbc0708cd	-0.008241844
33	0xbd27cd51	-0.04096729
34	0x3dc4c4e0	0.096078634
35	0x3d8ca862	0.06868054
36	0x3dccbb95	0.09996716
37	0x3db10103	0.08642771
38	0x3e1df7d1	0.15426566
39	0xbcc1152b	-0.023569664
40	0xbc4dcaf3	-0.012560594
41	0x3d6bfbdc	0.05761324
42	0x3dbb12f0	0.091344714
43	0x3cb15a39	0.021649467
44	0x3dad54e8	0.0846346
45	0xbd38ea8a	-0.04514555
46	0x3e02fe3d	0.12792297
47	0xbd728359	-0.059207294
48	0x3db6f53c	0.089334935
49	0x3da33812	0.07969679
50	0x3d89da23	0.067310594
51	0x3d80ed7a	0.06295295
52	0x3d8b4cbe	0.06801747
53	0x3e1f4576	0.15553841
54	0x3e042e7a	0.12908354
55	0x3dd4a8d9	0.10383768
56	0xbd012359	-0.03152785
57	0x3da2d5e4	0.07950953
58	0x3e0f7998	0.14011228
59	0x3df65db0	0.12029588
60	0xbcffd0bd	-0.031227464
61	0x3dae298d	0.08504019
62	0x3d81a0bf	0.06329488
63	0x3e16f1a6	0.14740619
64	0xbbf74d12	-0.0075470293
65	0x3d1632f7	0.036669698
66	0x3d3cfde8	0.04614058
67	0x3d9b0b60	0.07570529
68	0xbcada37c	-0.02119612
69	0x3d869a26	0.0657237
70	0x3d4b0fee	0.04957574
71	0x3dd91ad6	0.10600822
72	0x3e3987d7	0.18118225
73	0x3df6a801	0.12043763
74	0x3e6b756e	0.22994015
75	0x3d82fc34	0.0639576
76	0x3e332d8d	0.17497845
77	0xbc90da90	-0.017682344
78	0x3d40180a	0.046897925
79	0x3e059d51	0.13048293
80	0xbbd9945c	-0.0066400003
81	0xbd2a9c94	-0.04165323
82	0xbd245bef	-0.040126737
83	0x3e138863	0.14407496
84	0xbd4506da	-0.048102237
85	0x3cff97f7	0.031200392
86	0x3d945f5f	0.07244753
87	0x3ce19f9f	0.027541934
88	0x3d960c03	0.0732651
89	0x3defad92	0.11703028
90	0x3e23a8c4	0.15982348
91	0x3e147a7c	0.14499849
92	0x3cc4debf	0.024031995
93	0xbd1d5b36	-0.038417064
94	0xba97d1e2	-0.0011582936
95	0x3da105ef	0.0786246
96	0x3d3289a5	0.0435883
97	0x3cfb4ca3	0.030676192
98	0x3c50df57	0.012748561
99	0x3da4036a	0.08008464

DGM1.gate_R.0.weight f4 [100, 102]
0	0x3d866a50	0.06563246
1	0x3d8f8ca8	0.0700925
2	0x3d0b5611	0.034017626
3	0xbdd7ada5	-0.10531167
4	0xbd96e97b	-0.073687516
5	0xbcbb0e9c	-0.022834115
6	0xbd46fe6e	-0.048582487
7	0x3cdf9639	0.027293311
8	0xbd904e26	-0.07046156
9	0x3dbf29b4	0.09334126
10	0xbd20e139	-0.03927729
11	0xbd20e9b1	-0.039285365
12	0x3d6cac02	0.057781227
13	0x3bc0be2a	0.0058820443
14	0xbc8010ff	-0.015633104
15	0x3c0a6c7c	0.008448716
16	0xbd74d126	-0.059769772
17	0x3d9db654	0.07700792
18	0xbccb3686	-0.024806272
19	0x3d920a3a	0.07130857
20	0xbdb9e16d	-0.090762
21	0xbdb4ed0e	-0.08834277
22	0x3d8eb369	0.069678135
23	0x3d1310f5	0.035904843
24	0x3ccf8f2d	0.025336826
25	0x3d42019a	0.04736481
26	0xbcad1546	-0.021128308
27	0x3bf32036	0.0074196113
28	0xbd9a26a5	-0.07526902
29	0xbd6fd577	-0.058553185
30	0x3dd0ebb9	0.102012105
31	0xbd2524fd	-0.040318478
32	0xbc8d7c13	-0.017271077
33	0x3bf4b243	0.0074675395
34	0xbc72ced6	-0.014819821
35	0x3db55e52	0.08855881
36	0xbd3e86c5	-0.046515245
37	0xbd88d84d	-0.06681881
38	0xbd335bcc	-0.043788716
39	0xbd382a88	-0.044962436
40	0x3d96a30b	0.07355317
41	0x3d6f8ea9	0.05848566
42	0x3da64f2b	0.08120569
43	0x3d37ca37	0.04487058
44	0xbce6189e	-0.02808791
45	0x3c629f4d	0.013831926
46	0x3d08e1dd	0.033418525
47	0x3bf4d1df	0.0074713076
48	0x3d0007ba	0.03125737
49	0x3da0933d	0.078405835
50	0x3d4a1277	0.049334016
51	0x3d894ab0	0.06703699
52	0x3dc6c2f2	0.097051516
53	0x3aec241a	0.001801613
54	0xbd8db5fe	-0.06919478
55	0xbce39ec6	-0.02778567
56	0xbccef043	-0.02526105
57	0xbd5dc53e	-0.054143183
58	0xbdaea5ce	-0.085277185
59	0xbdd1c7c4	-0.102431804
60	0xbda07ba0	-0.078360796
61	0xbd507e2d	-0.05090158
62	0xbc262d4b	-0.010142635
63	0x3db81839	0.08988995
64	0xbcffc488	-0.031221643
65	0xbdacb008	-0.08432013
66	0xbcd493ae	-0.025949325
67	0x3daedfc1	0.085387714
68	0x3bcf3cce	0.006324387
69	0xbd72ff6c	-0.05932562
70	0xbb7b10da	-0.0038309605
71	0x3d5ca44b	0.05386762
72	0x3d55f6bf	0.05223727
73	0x3ddb9754	0.10722223
74	0xbbcd1060	-0.0062580556
75	0x3d8b6064	0.068054944
76	0x3d3dfe38	0.04638502
77	0x3d3b5233	0.04573269
78	0xbda1c97e	-0.0789976
79	0xbdc795ea	-0.09745391
80	0x3dbbc1d8	0.09167832
81	0xbc55b829	-0.0130443955
82	0xbd72cf08	-0.05927947
83	0xbcde681e	-0.027149256
84	0xbd66151e	-0.056172483
85	0xbce271c2	-0.027642135
86	0x3cdcc81e	0.026950892
87	0x3ccd3d9e	0.025053795
88	0x3c793158	0.015209518
89	0x3d6e95e2	0.05824841
90	0xbd813799	-0.063094325
91	0x3d8c03c8	0.06836659
92	0x3befb634	0.0073154215
93	0xbd8086c8	-0.062757075
94	0xbaedc0b6	-0.0018139097
95	0x3c1028e8	0.008798815
96	0xbda8dfc8	-0.08245808
97	0x3d464493	0.04840524
98	0xbd80c267	-0.06287079
99	0xbd8d002b	-0.06884798
100	0xbd42a923	-0.047524583
101	0x3d63ee57	0.05564722
102	0x3dd666aa	0.104688
103	0x3d1a524f	0.03767615
104	0xbd74a5fd	-0.05972861
105	0x3d4063ce	0.04697018
106	0x3ce34282	0.027741674
107	0xbc7712cf	-0.015080168
108	0x3d30f4c6	0.043202184
109	0x3ce47ba5	0.02789099
110	0x3d2efca0	0.04272139
111	0x3d1b8962	0.037972815
112	0xbcde21ba	-0.027115691
113	0xbcc82eaf	-0.024436323
114	0x3d84c67a	0.06483169
115	0x3cb8c083	0.022552734
116	0x3db82ac8	0.08992535
117	0x3d8aa904	0.067705184
118	0x3db4879e	0.088149294
119	0xbd3e1ecb	-0.046416085
120	0x3aecbbbe	0.0018061323
121	0xbcbcd9e6	-0.02305312
122	0xbd12ed17	-0.035870638
123	0xbd82c28d	-0.06384764
124	0x3d53938f	0.051654395
125	0x3d4076c1	0.046988253
126	0xbda8a4df	-0.08234572
127	0x3c8c0fdf	0.017097412
128	0xbcfd8d23	-0.030951088
129	0xbda601b7	-0.08105796
130	0x3dcba686	0.09943871
131	0x3d6638a8	0.056206375
132	0xbc92d46d	-0.017923558
133	0x3d95cf44	0.073149234
134	0x3d51f788	0.051261455
135	0x3da00041	0.078125484
136	0xbd19dc71	-0.037563745
137	0xbdb89d13	-0.090143345
138	0xbcb422d3	-0.021989262
139	0xbd809f25	-0.062803544
140	0xbceef4ad	-0.029169405
141	0x3d093963	0.033501994
142	0xbd96d3fa	-0.0736465
143	0xbb2252cc	-0.002476859
144	0xbdb148e1	-0.08656479
145	0x3d1211e5	0.035661597
146	0xbd99fc05	-0.07518772
147	0xbc721f49	-0.014777967
148	0xbd64c8c3	-0.055855524
149	0xbda66916	-0.08125512
150	0x3d0cd365	0.03438129
151	0xbd53f40a	-0.051746406
152	0xbc041d02	-0.008063557
153	0xbd0f2093	-0.034943175
154	0x3d3c77a2	0.04601253
155	0xbcebe009	-0.028793352
156	0x3d6903e9	0.056888495
157	0xbd64152e	-0.05568426
158	0xbd451afb	-0.048121434
159	0xbc645f82	-0.013938786
160	0x3dac9af3	0.08427992
161	0x3d27acb4	0.040936187
162	0x3d9f77f6	0.077865526
163	0x3da28bbb	0.07936808
164	0x3dac1edb	0.08404323
165	0xbd9fd3d9	-0.078040786
166	0xbdcdbda1	-0.100459345
167	0xbdd5c136	-0.10437243
168	0xbd9cd043	-0.0765691
169	0x3d998a1a	0.07497044
170	0xbd3ae8d0	-0.045632184
171	0xbd14b0ac	-0.0363013
172	0x3d83e376	0.06439869
173	0x3ceffb96	0.02929477
174	0xbdcf53e8	-0.10123426
175	0xbd7ec742	-0.062201746
176	0x3da38bc0	0.079856396
177	0xbd94767a	-0.0724916
178	0xbdc41998	-0.09575194
179	0x3d758d6a	0.059949316
180	0x3de15c7a	0.11003967
181	0x3c953b34	0.018216707
182	0xbdb2d994	-0.08732906
183	0xbd3f4001	-0.0466919
184	0xbd4ad677	-0.049520936
185	0xbd923f55	-0.07140986
186	0xba5f47ba	-0.0008517463
187	0xbd9fd44d	-0.07804165
188	0xbdaaa698	-0.083325565
189	0xbb0b27d2	-0.0021233452
190	0x3b4cad74	0.0031231316
191	0xbd4ff802	-0.050773628
192	0xbd8d9d67	-0.06914788
193	0xbd3fb4e0	-0.046803355
194	0xbdb27e59	-0.08715505
195	0xbd0dfc27	-0.0346643
196	0xbbfa80bd	-0.0076447413
197	0xbd56fc0d	-0.052486468
198	0x3d85f534	0.065409094
199	0x3da4b962	0.080431715
200	0xbc81f483	-0.015863663
201	0x3d0abee1	0.033873443
202	0x3d13682e	0.035988025
203	0x3bffbd4f	0.0078045498
204	0x3c61c5ea	0.013780097
205	0x3dd8014e	0.10547124
206	0x3d9f4188	0.07776171
207	0x3cc57f66	0.0241086
208	0x3d3fe0de	0.04684531
209	0x3dc4c47f	0.09607791
210	0xbd8e3b62	-0.0694492
211	0xbb357262	-0.0027686586
212	0x3cac7fea	0.021057088
213	0x3d178ae2	0.036997683
214	0xbd9628d1	-0.07332004
215	0xbd375e08	-0.04476741
216	0x3dad6c6d	0.08467946
217	0x3d4f17ab	0.05055968
218	0xbdd663c6	-0.10468249
219	0x3ceac896	0.0286601
220	0xbabfb875	-0.0014627116
221	0xbdc28e57	-0.094998054
222	0xbd10fa47	-0.035394933
223	0xbcc932a7	-0.024560286
224	0xbd810852	-0.06300415
225	0xbd950da5	-0.07277993
226	0xbc6deaed	-0.014521343
227	0xbd6ecaf2	-0.058299012
228	0xbd184207	-0.037172344
229	0x3d2ef46b	0.042713564
230	0xbd9c5815	-0.07633988
231	0xbdde4348	-0.10852677
232	0x3d605b80	0.05477476
233	0xbd4786e9	-0.048712645
234	0xbd50178a	-0.0508037
235	0xbcf8fbec	-0.030393563
236	0x3c38ef2d	0.011287493
237	0xbc29d77b	-0.010366316
238	0xbd34532b	-0.044024628
239	0xbc8c9e0f	-0.017165212
240	0xbcca748a	-0.024713773
241	0x3c9ef140	0.019402146
242	0xbd3fde79	-0.046843026
243	0x3d1dcd5c	0.038525924
244	0x3d8ab592	0.06772913
245	0xbca658dc	-0.020306043
246	0x3c080e22	0.008304151
247	0xbd106565	-0.035252947
248	0x3ca56bdc	0.020193033
249	0x3c89c131	0.016815754
250	0xbd159bbf	-0.036525484
251	0xbd86c600	-0.06580734
252	0x3d9d8507	0.076913886
253	0xbd6eecf8	-0.05833146
254	0x3da7ec97	0.08199423
255	0xbc5f116d	-0.0136149945

DGM1.gate_R.0.bias f4 [100]
0	0x3cbdb6bd	0.023158425
1	0xbd820a6e	-0.063496456
2	0xbdbe594f	-0.09294378
3	0x3a8170dd	0.0009875555
4	0x3dbf291a	0.093340114
5	0xbdd4a4d8	-0.10383004
6	0x3d2b9bc3	0.041896593
7	0xbd9286d6	-0.07154624
8	0x3aed3f2c	0.0018100492
9	0x3d0d58d4	0.03450854
10	0xbca22adc	-0.019795828
11	0xbd26668e	-0.040625148
12	0xbc88c245	-0.016694197
13	0x3da1becb	0.07897719
14	0xba6025ed	-0.0008550573
15	0xbc04cdc7	-0.008105702
16	0xbd82c346	-0.06384902
17	0xbcb01eed	-0.021499122
18	0xbd85f709	-0.06541259
19	0x3d05f7dd	0.032707084
20	0xbddfeeab	-0.10934194
21	0xbdb9b840	-0.09068346
22	0x3defc3a1	0.11707235
23	0xbcba7193	-0.022759235
24	0xbd5c81a8	-0.053834587
25	0xbd082bc2	-0.033244856
26	0xbd1a370f	-0.037650164
27	0x3d8c8b79	0.0686254
28	0xbd9268ec	-0.071489185
29	0x3da34c41	0.07973529
30	0xbc6cfce7	-0.0144645935
31	0x3d33cb74	0.0438952
32	0x3a1450c2	0.0005657786
33	0x3d90759d	0.07053683
34	0xbd9866cb	-0.07441481
35	0xbd56cba4	-0.0524403
36	0xbd7b7f83	-0.0614009
37	0x3cc42910	0.023945361
38	0xbd8ae04b	-0.06781062
39	0xbd72f597	-0.059316244
40	0xbd2553a2	-0.04036296
41	0x3d0f5b26	0.034999035
42	0xbd955d9b	-0.072932445
43	0x3d9bb16f	0.07602202
44	0xbd8b43e5	-0.06800059
45	0xbc87d50b	-0.016581079
46	0x3d9dd6fb	0.0770702
47	0xbdbd6441	-0.092476375
48	0xbcf5d1ce	-0.03000727
49	0x3daeb671	0.08530892
50	0xbd92a711	-0.07160772
51	0xbdadbcd7	-0.08483284
52	0x3d2107bb	0.039314013
53	0xbdc8c5dc	-0.09803364
54	0x3c3bfe88	0.011474259
55	0xbda7c44a	-0.08191736
56	0x3d6c9c27	0.057766106
57	0x3d60daf1	0.0548963
58	0xbb665d80	-0.0035150945
59	0x3d282f8d	0.041060973
60	0x3dd7dafb	0.10539814
61	0xbdc075d4	-0.09397474
62	0x3bd32d5f	0.0064446176
63	0xbd683c73	-0.056698274
64	0x3d3ea297	0.046541777
65	0xbd28b186	-0.041184925
66	0x3d3752c6	0.044756673
67	0xbd1d5b14	-0.038416937
68	0x3d97c22a	0.07410081
69	0xbc179316	-0.009251377
70	0x3cd379bd	0.025814885
71	0xbd03ced8	-0.032179683
72	0xbdb5b493	-0.088723324
73	0x3cbce827	0.023059918
74	0x3cae7a50	0.021298558
75	0x3dc57f40	0.09643412
76	0xbd664bfa	-0.0562248
77	0x3da686e4	0.08131197
78	0x3c9014ac	0.017587982
79	0x3d6df89c	0.05809842
80	0x3c28d3ab	0.010304372
81	0x3d4bdeb9	0.04977295
82	0xbd1fe3ac	-0.039035484
83	0xbd99c06a	-0.07507403
84	0xbc967a2d	-0.018368805
85	0xbd593726	-0.05303111
86	0x3d42210f	0.04739481
87	0xbd706958	-0.058694214
88	0xbc4a1f8d	-0.012336624
89	0x3d51cecb	0.051222604
90	0x3d25a3f5	0.040439565
91	0xbda7e7b9	-0.081984945
92	0xbd4e8156	-0.050416313
93	0xbc57e277	-0.013176552
94	0x3d4eb9f5	0.05047031
95	0x3d919162	0.07107808
96	0x3cb387c8	0.021915331
97	0xbdb22a33	-0.08699455
98	0x3cec4389	0.028840797
99	0x3d34aadb	0.044108253

DGM1.gate_H.0.weight f4 [100, 102]
0	0x3c7f54be	0.015584169
1	0xbdca6da8	-0.098841965
2	0xbda01262	-0.07816006
3	0xbdd3b501	-0.10337258
4	0xbd1e165b	-0.03859554
5	0x3d70114b	0.05861024
6	0xbc372042	-0.011177124
7	0x3ccf8024	0.025329657
8	0x3dbab25f	0.09116053
9	0xbc2c0531	-0.010499285
10	0xbd9d4247	-0.07678657
11	0x3db92042	0.09039356
12	0xbcd16c32	-0.025564287
13	0x3d4af3f2	0.04954905
14	0xbd8c59c5	-0.0685306
15	0x3d999c63	0.075005315
16	0x3d3eae2c	0.046552822
17	0xbdc3f569	-0.09568293
18	0x3d378da6	0.04481282
19	0xbd737a09	-0.059442554
20	0xbd51a5f5	-0.05118366
21	0x3da00b8a	0.07814701
22	0x3d2d1ca9	0.04226366
23	0x3bd3e619	0.0064666388
24	0x3cce41f9	0.025177943
25	0xbd20c478	-0.039249867
26	0x3d1f8fac	0.038955376
27	0x3d9fff50	0.07812369
28	0x3d9e6e1c	0.077358454
29	0x3d9565a5	0.07294778
30	0xbcfd436b	-0.030915936
31	0xbc80bb5d	-0.015714342
32	0x3c1c8ec0	0.009555519
33	0x3d36792d	0.044549156
34	0x3c0ebf8f	0.008712663
35	0x3d5a6cc5	0.053326387
36	0x3aa8f234	0.0012889565
37	0xbd003d46	-0.031308435
38	0xbd55e88d	-0.05222373
39	0xbd8c9533	-0.06864395
40	0xbde681a3	-0.11255195
41	0xbdb79893	-0.08964648
42	0xbd1df216	-0.03856095
43	0x3d1e4c58	0.038647026
44	0xbd985df3	-0.074397944
45	0xbd905e8f	-0.070492856
46	0xbd9cc737	-0.07655185
47	0xbdc87958	-0.097887695
48	0xbcd902a9	-0.026490526
49	0x3da9f26b	0.08298191
50	0xbb54bd06	-0.00324613
51	0xbd6862c8	-0.05673483
52	0xbd5a0337	-0.053225722
53	0xbd40862e	-0.047002964
54	0x3da5b933	0.080919646
55	0x3d0d43e9	0.034488592
56	0xbbbbee81	-0.005735219
57	0x3dc201b2	0.094729796
58	0x3d9b7f0f	0.07592594
59	0x3d646aa8	0.055765778
60	0x3d82a428	0.063789666
61	0xbd0c786d	-0.034294534
62	0xbb93bc19	-0.004508507
63	0xbde34213	-0.11096587
64	0xbc5bdc71	-0.013419257
65	0xbd1951bc	-0.037431464
66	0x3d81b01e	0.0633242
67	0x3d76a093	0.06021173
68	0x3d9ca5f5	0.07648841
69	0x3db8f56a	0.09031184
70	0x3d9ed370	0.07755172
71	0xbd859730	-0.06522977
72	0xbdae7987	-0.08519273
73	0x3d351090	0.04420525
74	0x3d39903f	0.04530358
75	0x3d0dc7a3	0.034614217
76	0x3d8dae5e	0.069180235
77	0xbd27c201	-0.0409565
78	0x3d738e50	0.05946189
79	0xbd379f55	-0.044829685
80	0xbd826837	-0.06367534
81	0x3d0d5062	0.034500487
82	0x3d3ca53c	0.046056017
83	0x3c66bde6	0.014083361
84	0xbcd06b1b	-0.025441697
85	0x3d7ca9e5	0.06168546
86	0xbd6f286b	-0.058388155
87	0xbc85ae19	-0.016318368
88	0x3d14ebdd	0.03635775
89	0x3d6b0be0	0.05738437
90	0xbdced619	-0.1009943
91	0xbad8cd27	-0.0016540632
92	0xbc226c88	-0.009913571
93	0x3c8026f7	0.01564358
94	0x3d3152bf	0.043291803
95	0xbdb9b431	-0.09067572
96	0x3cffa7f6	0.03120802
97	0x3d1cbd5a	0.038266517
98	0x3d2cf062	0.042221434
99	0x3cb1abf4	0.021688439
100	0xbd72ff36	-0.05932542
101	0x3c05fd10	0.008178011
102	0xbdc45898	-0.095872104
103	0x3da52589	0.080638
104	0x3c5946d3	0.013261515
105	0xbdb83c1d	-0.08995841
106	0xbd7f1009	-0.06227115
107	0x3c6507d2	0.013978915
108	0x3db4148e	0.08792983
109	0xba738dcb	-0.0009290843
110	0xbd547026	-0.051864766
111	0x3d4867d7	0.048927154
112	0x3db3fc2a	0.08788331
113	0xbcf830c7	-0.030296696
114	0xbd574796	-0.052558504
115	0xbca33c09	-0.019926088
116	0x3c41ca9b	0.01182809
117	0x3d82c5b6	0.063853666
118	0x3d30fe17	0.04321107
119	0x3d71b718	0.059012502
120	0xbd72feda	-0.059325077
121	0xbc485319	-0.012226843
122	0x3d50e9ba	0.05100415
123	0xbd78f146	-0.06077697
124	0x3d0839f2	0.033258386
125	0xbcc47c0f	-0.023984937
126	0xbe280367	-0.16407548
127	0x3d98e923	0.07466342
128	0x3b641506	0.003480257
129	0xbd36145b	-0.044453006
130	0x3cd5b43e	0.026086923
131	0xbd051fbd	-0.03250097
132	0x3c244f21	0.010028631
133	0xbc8804b9	-0.016603814
134	0xbba7b637	-0.0051181572
135	0xbdaec6a2	-0.0853398
136	0xbcef8650	-0.02923885
137	0xbc95bd6c	-0.0182788
138	0xbd8a5f3d	-0.067564465
139	0xbd91d336	-0.071203634
140	0x3dbd18ff	0.09233283
141	0x3dd9e50d	0.10639391
142	0xbb3cccdb	-0.0028808627
143	0xbd980b7f	-0.07424068
144	0xbc10b27f	-0.008831619
145	0xbd2f64e9	-0.042820845
146	0xbdbfc1eb	-0.09363159
147	0xbdd2cad7	-0.10292595
148	0x3d753a49	0.05987004
149	0x3d2af140	0.04173398
150	0x3d42e8e0	0.04758537
151	0xbdb15144	-0.08658078
152	0xbaea05bc	-0.0017854492
153	0x3ce78afd	0.028264517
154	0xbcbf95c9	-0.023386853
155	0x3d5b90de	0.053604953
156	0xbb0f7f81	-0.0021896067
157	0xbdeef423	-0.11667659
158	0xbcb92a34	-0.022603132
159	0xbc97406b	-0.018463334
160	0xbc17f6b9	-0.009275132
161	0x3d31c698	0.043402284
162	0xbd0baf43	-0.03410269
163	0x3bdaa369	0.006672312
164	0xbdd98883	-0.10621741
165	0xbcb34e08	-0.021887794
166	0x3d54a56f	0.051915582
167	0xbc3a7b63	-0.011381957
168	0x3d91572b	0.07096704
169	0x3d635329	0.05549923
170	0xbc49173e	-0.012273608
171	0x3d009a4a	0.03139714
172	0xbce0239b	-0.027360728
173	0xbdfeb0ef	-0.12436091
174	0xbde4371a	-0.11143322
175	0xbd834c31	-0.06411017
176	0xbdb5aa1b	-0.08870336
177	0x3da1a2df	0.07892393
178	0x3d8b3ee1	0.067991026
179	0x3cd89147	0.026436461
180	0xbd9081fc	-0.070560426
181	0xbc391acf	-0.011297896
182	0xbdae7f0e	-0.085203275
183	0xba8998c0	-0.0010497794
184	0xbdb7b1d3	-0.08969464
185	0x3d06ed8c	0.032941386
186	0xbdbe67c6	-0.09297137
187	0x3a2607bb	0.00063335494
188	0xbd33b119	-0.043870065
189	0x3d9cfea2	0.07665755
190	0xbd181d4d	-0.03713732
191	0x3d2893b3	0.041156482
192	0x3c2408f1	0.010011897
193	0xbd0463f1	-0.032321874
194	0xbd9e0384	-0.07715514
195	0x3c82c25f	0.015961824
196	0x3dc2720d	0.0949441
197	0xbd54c702	-0.0519476
198	0x3d3d2075	0.04617353
199	0xbd832c75	-0.06404964
200	0x3cc1fc79	0.023679959
201	0x3d400247	0.04687717
202	0x3d314d05	0.043286342
203	0xbd594181	-0.053040985
204	0xbbc81517	-0.0061060297
205	0x3db22564	0.08698538
206	0x3c131e6d	0.008979422
207	0xbd42fc95	-0.047604162
208	0xbd76c053	-0.06024201
209	0xbccc286f	-0.024921624
210	0x3a88b45e	0.001042973
211	0xbdb34025	-0.08752469
212	0xbc1f6418	-0.009728454
213	0x3a8c977d	0.0010726299
214	0xbd0bb9bd	-0.03411268
215	0xbdbcc4c0	-0.092172146
216	0xb903564a	-0.00012525279
217	0x3d8cc311	0.068731435
218	0x3d8c280f	0.06843578
219	0xbc523d6d	-0.012832028
220	0x3d547f7e	0.0518794
221	0xbc4a06cd	-0.012330723
222	0x3bbaf813	0.0057058423
223	0x3d824316	0.06360452
224	0x3d250da7	0.040296223
225	0xbd2fd563	-0.04292811
226	0xbd8c6bd0	-0.06856501
227	0xbd3bf084	-0.04588367
228	0xbd67c4f7	-0.056584325
229	0xbd8e9b83	-0.06963255
230	0x3cd3a9b7	0.025837762
231	0xbda5d6e7	-0.0809763
232	0xbca7e22f	-0.020493595
233	0xbce4e2ca	-0.027940173
234	0xbbb8afea	-0.005636205
235	0x3d099b1e	0.033595197
236	0x3d926741	0.071486
237	0xbc7bf815	-0.015378972
238	0x3d8bee33	0.06832542
239	0xbdb3c1d2	-0.08777203
240	0xbcf37e1b	-0.029723218
241	0xbd3384ca	-0.04382781
242	0x3c30725f	0.010769456
243	0xbbbaa4c6	-0.005695912
244	0x3d2b8277	0.041872468
245	0xbd4de2ab	-0.050264996
246	0x3dacd46c	0.08438954
247	0xbd72c0ff	-0.059266087
248	0x3cfcf364	0.030877776
249	0xbdaea911	-0.085283406
250	0x3c76d17b	0.0150645925
251	0x3cf32723	0.029681748
252	0xbd0593f7	-0.032611813
253	0xbc53ff3d	-0.0129392715
254	0xbd813c1e	-0.063102946
255	0x3db2b3a8	0.08725673

DGM1.gate_H.0.bias f4 [100]
0	0xbcd8ed89	-0.026480453
1	0x3ddf809e	0.10913204
2	0x3cfd3ec6	0.030913722
3	0xbd4d6a62	-0.050150283
4	0xbda40e74	-0.08010569
5	0xbb55cebe	-0.0032624449
6	0xbcafcf06	-0.021461021
7	0x3d12a753	0.035804104
8	0xbd3c64a1	-0.045994405
9	0xbd040e20	-0.032240033
10	0xbd83cbf0	-0.06435382
11	0x3d97d7f9	0.074142404
12	0x3c26ee10	0.010188594
13	0x39816d47	0.00024686215
14	0xbdb08feb	-0.086212
15	0xb940db0b	-0.00018392147
16	0xbd99f758	-0.0751788
17	0x3d2c95f6	0.0421352
18	0xbbc7a5a6	-0.006092745
19	0xbd80cea9	-0.06289417
20	0x385a69ab	5.207366e-05
21	0xbd4a43ac	-0.049380943
22	0xbd0d32bf	-0.034472223
23	0xbd33fc64	-0.04394187
24	0xbb52376f	-0.0032076498
25	0xbba141cb	-0.004921173
26	0xbd1a6576	-0.037694417
27	0x3cfb6ef5	0.030692557
28	0x3d970ac3	0.073750995
29	0x3d44f924	0.04808916
30	0xbd36b2cb	-0.044604104
31	0xbcae71dc	-0.021294527
32	0x3d29e07b	0.041473847
33	0xbd8f8d3d	-0.07009361
34	0x3c8f1dbc	0.017470233
35	0xbd0195ed	-0.03163712
36	0x3d81b86e	0.06334005
37	0xbd2b2bb6	-0.041789733
38	0xbb232e9b	-0.0024899605
39	0x3d17443d	0.03693031
40	0x3ccfa12d	0.02534541
41	0x3d391d4e	0.045193963
42	0x3da1b368	0.07895547
43	0xbd84fd5f	-0.06493639
44	0xbd33ff71	-0.04394478
45	0x3caab5d5	0.020838657
46	0x3d8e8c81	0.06960393
47	0xbcc5502a	-0.024086077
48	0xbd95de58	-0.07317799
49	0xbda49d7c	-0.0803785
50	0x3d9a3259	0.07529134
51	0x3d188c2f	0.037243064
52	0xbd82c047	-0.0638433
53	0xba0d4c4d	-0.0005390093
54	0x3d8827ee	0.06648241
55	0xbb3594ff	-0.0027707217
56	0x3d9d4723	0.07679584
57	0xbbed3698	-0.007239174
58	0xbd63de64	-0.05563201
59	0xbd2fc58d	-0.04291301
60	0x3ce92948	0.028462067
61	0xbcac10fb	-0.02100419
62	0xbd078f58	-0.033095688
63	0x3d6b32b7	0.057421412
64	0x3d6e318f	0.05815273
65	0xbdad77a9	-0.08470089
66	0xbca9c288	-0.020722643
67	0x3d98cc14	0.074608
68	0x3d8f2124	0.06988743
69	0x3d85d6c5	0.06535105
70	0xbd90b28a	-0.070653036
71	0x3ca11ad4	0.019666113
72	0xbd051daf	-0.03249901
73	0x3d079a54	0.033106163
74	0x3b86d2d1	0.0041144867
75	0xbbfc73e7	-0.0077042463
76	0xbd00932c	-0.031390354
77	0xbcc0490d	-0.023472333
78	0x3d78d0ac	0.06074588
79	0x3d82634b	0.06366595
80	0x3d15dc41	0.036587004
81	0x3d8bea88	0.06831843
82	0xbcc03019	-0.023460435
83	0x3a1a8a18	0.00058952114
84	0xbd84dfff	-0.06488036
85	0x3dc8abd2	0.09798397
86	0x3d8ef3e0	0.06980109
87	0xbc7d364e	-0.015454842
88	0x3ad933d6	0.0016571234
89	0xbd0d7fa2	-0.03454555
90	0xbd306313	-0.043063235
91	0xba2a08a6	-0.0006486274
92	0x3d2a8642	0.041631944
93	0xbc069c16	-0.008215925
94	0xbcadc2e6	-0.021211099
95	0x3cb5e6aa	0.022204716
96	0xbd9b668b	-0.07587918
97	0x3d6e7ac2	0.05822254
98	0x3cde5c32	0.027143572
99	0xbdc51f26	-0.09625082
