trained_models/trained_optimal_value_funct.pth (torch, 506050 bytes, 27 tensors)

input_layer.0.weight f4 [100, 2]
000000 43 b2 a2 3d 09 ab 92 3e 73 f4 83 3e 13 00 e9 bd
       0.07944157 0.28646114 0.25772437 -0.11376967
000010 a5 98 0a 3d bd 44 27 be 33 c5 ce 3d 0a 4e 5c 3e
       0.03383698 -0.16334815 0.100962065 0.21514145
000020 fa b8 d3 3e 78 e7 f5 be 20 b7 6a bd 01 2b ec 3d
       0.41352063 -0.4802816 -0.057303548 0.1153164
000030 59 25 00 be 76 0b 21 3e b5 5a 7f 3d 75 4a b9 be
       -0.12514247 0.15727028 0.062342364 -0.3618962
000040 7c a4 1c bd 36 c7 bf bc c6 1e e8 3d 6a 6d c6 3b
       -0.038242802 -0.02341042 0.113339946 0.0060555236
000050 68 40 42 bd bb da b7 3b 6c c8 c4 3d a2 5b 97 bc
       -0.047424704 0.0056107915 0.0960854 -0.018476311
000060 93 f5 2e 3d 13 24 8d 3d 13 19 d7 3d 1b ae c3 bd
       0.042714667 0.06891646 0.105028294 -0.09554692
000070 46 eb 4f be ac 70 6c bd 0a 2a 67 be 73 37 e4 3d
       -0.20304593 -0.05772464 -0.2257463 0.111433886
000080 07 ad c4 bd eb 68 71 3d 09 2f 5c 3e ad e7 e3 be
       -0.09603315 0.05893795 0.21502317 -0.44512692
000090 1c d7 f4 3d 2f a3 5a 3e fa 7c 48 3d 78 1b f6 bc
       0.11955091 0.21351312 0.048947312 -0.030042395
0000a0 f6 94 7d 3e 18 5b 0a bd 20 a2 c7 3c bf 23 54 bd
       0.24763855 -0.03377828 0.0243693 -0.051791903
0000b0 cb d4 38 3e c3 3a b3 bd f7 64 b8 be 9c da 7f 3d
       0.18049924 -0.08751442 -0.3601453 0.06246434
0000c0 0d 0f b5 bd 70 7d 24 bd 04 3e 09 be fc c7 e6 bd
       -0.08840761 -0.04015869 -0.13402563 -0.11268613
0000d0 45 7c 9e bb d9 c8 a8 3e 59 45 aa 3d 83 3f 88 3d
       -0.0048365914 0.32965735 0.08314008 0.06652739
0000e0 c8 d1 27 3e 44 d3 21 3e 7b 77 16 be a4 0e b4 bd
       0.16388619 0.15803248 -0.14694016 -0.08791855
0000f0 6a 69 c3 bc a9 84 5d 3e a7 c0 94 be 12 ec 30 3e
       -0.023853976 0.21632637 -0.29053232 0.17277554
000100 a0 4e 05 be 50 a3 11 3e c3 94 5b bd 9d 66 24 3e
       -0.13018274 0.14222455 -0.053608667 0.16054769
000110 b8 f2 b9 3d 18 d9 88 3d 9b 25 11 be bf b2 83 bd
       0.09079498 0.06682032 -0.14174502 -0.064305775
000120 e7 e0 40 be 50 96 ec be 48 82 df 3d 3f 01 00 3e
       -0.18835793 -0.4620843 0.10913521 0.12500475
000130 1b 65 1f be 7f aa 46 3e 9b 30 ac 3d 7a f2 40 3e
       -0.15565912 0.19400977 0.08407708 0.18842497
000140 af 47 fd 3c bd 66 ee 3c cd aa 61 3d 04 73 d0 3d
       0.03091797 0.029101724 0.05509453 0.101781875
000150 ac e5 af bc c2 49 88 bd 73 67 05 3e d8 45 34 3e
       -0.02147182 -0.06654693 0.13027744 0.17604768
000160 ce ac 81 be 83 e6 86 bd df b3 f2 be 23 61 da bd
       -0.25327152 -0.06586935 -0.47402856 -0.106630586
000170 9c 4f 1d be 3b d2 ef be 5f d3 91 3d 69 09 89 bc
       -0.153624 -0.4684008 0.07120394 -0.01672812
000180 7c 5b 7e bd 5f 60 70 be 80 70 04 3e a4 6e 59 be
       -0.062098965 -0.23474263 0.1293354 -0.21233612
000190 01 a2 0a bf 76 41 7e be 50 bb c2 bc be 1b f6 3d
       -0.5415345 -0.24829659 -0.023770958 0.1201701
0001a0 6d 53 d6 3b b5 04 d6 bb 8a b5 cf 3c 82 72 88 3e
       0.006540707 -0.006531323 0.02535512 0.26649863
0001b0 11 89 ab bc 49 a0 e8 bd 11 3c ae 3d 6c b5 a3 3d
       -0.020939382 -0.11358697 0.085075505 0.07993588
0001c0 e0 f4 0c bd 36 33 20 3e c6 d3 f1 bc 95 46 70 bd
       -0.03441322 0.15644535 -0.029519927 -0.058661062
0001d0 73 c2 6f bd 35 78 0a 3e b1 b2 c5 bd 59 a2 26 3e
       -0.05853505 0.13522418 -0.09653223 0.16272868
0001e0 10 a8 5e 3d 14 c7 67 3e 3f 06 1b 3d b6 7a 43 3e
       0.054359496 0.22634536 0.037847754 0.1908978
0001f0 4e 22 28 3d 63 06 3a be ea 58 d3 be bf f3 fc 3d
       0.04104834 -0.18166499 -0.41278774 0.123511784
000200 e1 a1 20 be a5 25 c4 3c d4 a8 d2 bd b7 71 82 be
       -0.15686752 0.023943732 -0.10286108 -0.25477383
000210 0b 10 31 bd 1b a8 3a 3e 67 c3 a9 3e ca a9 b0 be
       -0.04322819 0.1822819 0.33156893 -0.3450454
000220 b7 f5 7b bd 4a 9b 71 3d 95 ee 1c be 1e 15 2c be
       -0.06151363 0.058985986 -0.15325387 -0.1680493
000230 bd 65 aa bd 8d 49 9d ba 9d 32 ec 3c 37 0c ce be
       -0.08320186 -0.0012000069 0.028832728 -0.40243694
000240 29 0a 83 be 00 4c b4 bd 7c bc 15 3e a2 af 18 bd
       -0.2559369 -0.08803558 0.14622682 -0.03727687
000250 3c cc f1 be 46 48 67 be 10 2c 50 3e df 26 a8 bc
       -0.4722613 -0.22586164 0.20329309 -0.020526348
000260 ea ee 67 3e da c2 0a 3e 0d 36 0e be 79 77 20 bd
       0.22649732 0.13550892 -0.13887806 -0.039176438
000270 55 d2 ad bd ae f0 33 be 81 d1 62 3c 58 88 17 3e
       -0.08487383 -0.17572281 0.013843895 0.14798105
000280 e8 76 68 be 5c ed 15 3e aa 3f 6b be 74 63 f3 3d
       -0.22701609 0.14641327 -0.22973505 0.118842036
000290 5f f0 88 3e 58 62 50 be 45 0a be 3d 34 db 43 3d
       0.2674589 -0.20350015 0.092793025 0.04781647
0002a0 4a e0 43 3d fc 04 e8 3c 05 54 e6 3d 67 a8 91 3d
       0.04782132 0.02832269 0.11246494 0.07112198
0002b0 cf 4d 5c 3e 7f 13 47 3e b7 dd b9 3d bb 9b 45 be
       0.21514057 0.19441031 0.09075492 -0.19297688
0002c0 e2 a8 d7 bd a9 8f 60 bd f6 ce 85 3e 0b 1a 2f 3c
       -0.10530259 -0.054824505 0.2613446 0.0106873615
0002d0 c8 f7 0b be 04 0a 06 be b2 61 21 be 1b 5f 46 be
       -0.1366874 -0.13089758 -0.15759924 -0.19372217
0002e0 63 05 26 3d bc 44 25 be 8c 67 25 3d 80 b4 2c 3d
       0.04053248 -0.16139501 0.040381953 0.042164326
0002f0 24 34 f6 3d da a4 66 3e 2f 4a b6 bd ce 8a e7 bd
       0.12021664 0.22523823 -0.08900868 -0.11305772
000300 52 b2 fe be 41 94 a5 3e 11 e5 b6 bd 26 97 9d bd
       -0.49745423 0.3233967 -0.0893041 -0.07694845
000310 b2 93 21 3e 50 fd 0e 3c ff 25 54 be 39 7c 2a be
       0.15778998 0.008727387 -0.2071762 -0.1664895

input_layer.0.bias f4 [100]
000000 09 42 24 bf af e6 8c 3c 0d c0 ae 3e c9 41 1b 3f
       -0.6416326 0.017199842 0.34130898 0.60647255
000010 7b 2c e9 3e 5b 48 02 bf f0 5f 12 3f fa 74 54 be
       0.45541748 -0.50891656 0.5717764 -0.20747748
000020 64 7c fa 3d 00 55 bb 3e b8 02 56 3d 3b 14 97 3d
       0.12230757 0.36588287 0.052248687 0.073769055
000030 24 7d 33 be bd 9a 9f 3e ef fd 96 bb cb 21 a2 3c
       -0.17528206 0.31172743 -0.004607908 0.019791504
000040 d4 fb 42 be fc cd 1d bf d5 94 26 3f 94 bf b2 3b
       -0.19041377 -0.6164243 0.6507085 0.005454967
000050 24 74 36 bf 9d 02 41 3e f7 55 b8 3e 27 7b c3 bd
       -0.71270967 0.18848653 0.36003086 -0.09544974
000060 30 d1 45 be db 90 25 be 38 65 09 bd c6 41 9b 3e
       -0.1931808 -0.16168539 -0.033543795 0.3032362
000070 90 0f 12 bf 0b c7 51 be 96 72 09 be e9 dc 5c bf
       -0.57054996 -0.20486085 -0.13422617 -0.8627458
000080 03 da 88 be 50 dd 66 be 71 3a be 3d 04 b3 d3 be
       -0.2672883 -0.22545362 0.092884906 -0.41347516
000090 09 99 75 bd 94 70 e1 3e 29 3b 0f 3f 90 14 03 bf
       -0.0599604 0.44031203 0.55949646 -0.5120325
0000a0 9a e0 5a bd f0 20 12 3e c1 c1 59 3d b3 9d ce be
       -0.053436853 0.14270377 0.053163294 -0.4035469
0000b0 fc e7 41 3f 2a 32 f1 3e c3 c4 05 3f 3c 7c 1c 3e
       0.75744605 0.47108585 0.5225336 0.15281767
0000c0 71 db 0d bf 60 7c f5 3e 7e 26 44 be c6 69 d4 be
       -0.55412966 0.47946453 -0.19155309 -0.4148695
0000d0 a0 5b e2 bd 3d 0d 2e bf 4d b4 d7 bc ca 41 37 3e
       -0.11052632 -0.6798895 -0.026331091 0.1789619
0000e0 15 81 f2 3e da ef 71 3d 87 8f 11 3f a3 82 e5 3e
       0.47364107 0.05906663 0.5685963 0.4482623
0000f0 0d 47 bd 3e ab 0c fc 3e 0e c3 9a be 1c dd 2d be
       0.3696827 0.49228415 -0.3022694 -0.16978878
000100 ee 8e 2b be 56 77 39 3f 21 18 bf 3d 60 0f 4c 3f
       -0.16753742 0.7244772 0.09330774 0.7971096
000110 97 be 1f 3e b8 3c 1a 3f 77 42 c3 bc 31 49 24 be
       0.15600048 0.602489 -0.023835404 -0.16043545
000120 7f f1 1c bf b8 f0 9f be 96 36 d2 3e 79 26 12 3f
       -0.61305994 -0.3123834 0.4105727 0.57089955
000130 13 d8 13 bf 61 52 dd 3d 4e 28 22 bf 55 c0 8d 3e
       -0.5775158 0.10806728 -0.6334275 0.276858
000140 77 1c 97 be 7b 01 aa be 18 a0 62 bf f3 c6 41 3e
       -0.29513904 -0.33204255 -0.88525534 0.1892355
000150 8a 35 48 3e 12 01 82 3e 31 96 13 bf a2 25 22 bf
       0.19551674 0.25391442 -0.5765105 -0.63338673
000160 43 5c 85 3e 11 dd 1e 3f af bc 65 be 6b d0 37 3f
       0.26046953 0.6205607 -0.22435258 0.71802396
000170 e9 80 93 be 68 c6 cb bd ba 3b 1b bf 6c a3 78 3c
       -0.28809288 -0.09949952 -0.6063801 0.015175682
000180 a0 11 9f bd 60 6f 0e bd 53 f2 62 3e 20 cd 1c 3f
       -0.077670336 -0.034774184 0.22162752 0.61250496

DGM1.gate_Z.0.weight f4 [100, 102]
000000 d9 df 90 bc e2 dc 33 be 26 1d a7 3c ce 77 26 3d
       -0.017684864 -0.17564729 0.020399641 0.0406416
000010 6e 65 28 bd 60 2e 87 3c a6 ef f6 bb 41 8d 13 bd
       -0.041112356 0.016501606 -0.0075358925 -0.036023382
000020 9d c6 5c bd e7 e8 8c bd bf 91 33 bd 49 e0 86 bd
       -0.05390035 -0.0688036 -0.043840166 -0.06585748
000030 29 37 3a bd d5 d1 58 3d 2a ab 9a bd 1c 5d 23 bd
       -0.04546276 0.052934486 -0.07552178 -0.039883718
000040 40 9d a5 bb 42 ea 0f 3d 2d ac c3 bd fe 81 3e 3d
       -0.005054146 0.035135515 -0.09554324 0.04651069
000050 88 dd 47 3d 5c 07 8e 3d 3f 8a 7b 3d a5 68 03 bd
       0.048795253 0.069349974 0.06141114 -0.03208222
000060 84 23 80 bd 2b 66 ad bd 58 02 4c 3d 57 b6 57 bc
       -0.06256774 -0.084667526 0.049806923 -0.013166032
000070 11 06 51 bc ea 2b 49 3d 6d a0 76 bd fd 0e 68 3c
       -0.012757794 0.049114145 -0.060211588 0.01416373
000080 69 d4 22 3c b9 ba 83 3d 0a a9 5f bd 0a 8f 55 3d
       0.009938338 0.06432099 -0.054604568 0.052138366
000090 31 63 7d bd 6a 5f 26 bd 2a 46 69 3c 8c 94 0c bd
       -0.061862174 -0.040618338 0.01423792 -0.034321353
0000a0 11 e6 58 3c 0f e0 19 3d f1 4f c0 bd 95 8b 18 bd
       0.013238446 0.037567195 -0.093902476 -0.03724249
0000b0 46 0a 86 3c e6 63 e6 bd 0a af 9b bb 63 94 97 3b
       0.01636232 -0.11249523 -0.004751091 0.0046258434
0000c0 0b ae 01 bd c5 45 1b bd 65 be 48 bd 39 72 b3 3d
       -0.03166012 -0.037908334 -0.0490097 0.087620206
0000d0 60 46 99 bd 80 48 ae 3c 89 b1 68 3d 3b d8 71 3d
       -0.07484126 0.021274805 0.056809936 0.059044104
0000e0 45 fa 81 3d e4 67 a0 3c a7 36 7c 3d 4c 52 b4 bd
       0.06346563 0.019580789 0.061575558 -0.088047594
0000f0 22 37 a5 3c c2 fa 0f 3d fb 0b 17 3c f3 5a b0 bd
       0.020167891 0.03515125 0.009219165 -0.08611097
000100 de 29 95 bc ef 15 e2 3c 0b a7 b6 bc d0 ae d9 3c
       -0.01820844 0.02759835 -0.02229645 0.026572615
000110 51 c0 42 bc 7a 56 e7 3c 28 f0 ff 3c c5 7f 18 3c
       -0.011886672 0.028239477 0.031242445 0.009307806
000120 0b c8 ef 3c 1a 87 9e bd 53 da a5 bd 52 1d a4 bc
       0.029270193 -0.07740612 -0.08098283 -0.020033512
000130 61 29 71 bd b6 6c 13 bd b8 50 07 3d 53 30 ba 3d
       -0.058877353 -0.035992347 0.033035964 0.09091248
000140 dd c4 64 bd 05 2e c5 bd ec 7a 55 3d 08 7b d0 bc
       -0.055851806 -0.09627918 0.05211918 -0.02544929
000150 10 e1 9e 3d 00 db 06 bc 04 eb 8d 3d a2 60 b9 bd
       0.07757771 -0.008230925 0.06929591 -0.09051634
000160 e0 c1 4e bd 70 d1 98 3d a1 c8 0b bd fa b3 e7 bc
       -0.050477862 0.07461822 -0.03412688 -0.028284062
000170 ab 8c cc 3c 82 e3 7f 3d 6a 0a fc 3c 2c d1 a0 3d
       0.02496942 0.062472828 0.030766685 0.07852396
000180 6f 3c 73 bb da af 8e bc de 51 76 bd 90 25 2f bd
       -0.0037114879 -0.017417837 -0.06013667 -0.04276043
000190 a1 76 4f bd 2f 94 84 3d b0 e2 4f bd 24 e8 6a bd
       -0.050650243 0.06473576 -0.050753295 -0.057350293
0001a0 f1 9e 25 bd 05 18 c4 3d ce aa 82 3d 74 21 ba 3c
       -0.04043478 0.09574894 0.06380235 0.02272103
0001b0 53 8c 8f bd 22 cf 11 bd ea 88 4c bd 4a ed 6f bd
       -0.070091866 -0.035597928 -0.04993526 -0.058575906
0001c0 93 c7 98 3b 7c 84 c3 3d aa 0c 19 bc 04 1a 41 3d
       0.004662463 0.09546754 -0.009341398 0.04714395
0001d0 3a f1 b2 3c 18 46 cd 3d 72 12 22 3d 6e f2 63 bd
       0.021843541 0.10023135 0.039568372 -0.05565112
0001e0 34 5f 6a 3d 4b e8 f2 3d 5a 99 36 3c bf 9e d8 3d
       0.0572197 0.118607126 0.01114496 0.105771534
0001f0 f6 cb 8c bc f5 87 b5 bd 9a bf 6f 3c 71 ed aa bd
       -0.0171871 -0.08863822 0.014633084 -0.083460696
000200 e1 3f 1e be 66 fc 16 be 5b 95 8a bd 73 29 83 bd
       -0.15454055 -0.1474472 -0.067667685 -0.0640439
000210 90 93 2e bd 64 4d 68 3b 1c 2b 3a bd 5a 49 5b 3d
       -0.042621195 0.003544652 -0.04545127 0.05353675
000220 cd 5a 1e bc 31 20 d5 bb 91 53 5c 3c a7 86 ed bd
       -0.009665203 -0.0065040817 0.013447658 -0.115979485
000230 1d 24 c8 bd 93 82 29 bc 23 6a 33 3d 44 97 22 3c
       -0.09772513 -0.010346073 0.04380239 0.00992376
000240 29 74 4e bd 9d 42 cc bd 5a df 73 3d ad 0e 80 bc
       -0.050403748 -0.09973643 0.059539177 -0.015631998
000250 17 05 c8 3b f2 f5 0c bd fb 92 01 3e 32 08 d5 3d
       0.0061041224 -0.03441424 0.12653725 0.10401954
000260 21 2e 94 3c fe 31 9b 3d 2f 31 f0 bd 4a c2 fe 3c
       0.018088402 0.07577895 -0.11728131 0.031098504
000270 cb 88 32 3d 1d 63 a9 bd 50 1f d3 bc 9a 70 c1 bd
       0.043587487 -0.082708575 -0.025771767 -0.09445305
000280 f6 5d 47 3d c6 be 99 3d 22 c4 8f 3c bf 7c ef bc
       0.048673593 0.0750709 0.017549578 -0.029234288
000290 9b e0 cb bd aa fa 26 3c 2a 16 3a bd 86 0e 4b bd
       -0.099549495 0.010191599 -0.045431294 -0.049574398
0002a0 69 a6 77 bd 3a 3a 00 bc c9 51 53 3c 9e d2 a1 bd
       -0.060461435 -0.007826382 0.012897917 -0.079015
0002b0 4a 13 a7 3c 5e a4 96 bd b7 7c 63 3d ef ab c7 bb
       0.02039494 -0.07355569 0.05553886 -0.006093494
0002c0 22 23 91 bd c6 7a f1 3c ab 72 c4 3c 91 06 98 bc
       -0.07086779 0.029477488 0.02398046 -0.018557819
0002d0 2d e4 24 3d 67 8c 4b 3d 33 72 b7 bd ce 1d 32 bc
       0.040256668 0.049694445 -0.08957329 -0.010871364
0002e0 54 45 03 3d c6 d5 52 bd 37 83 03 3d 5c 29 fa 3d
       0.03204854 -0.0514734 0.032107558 0.1221492
0002f0 61 44 3c bc d1 9a 08 3e e1 8c 1f bd 35 b1 9f 3d
       -0.011490912 0.13340308 -0.038952712 0.077974714
000300 e3 0b d7 bd 44 c1 77 bb b6 a8 3a bd 1c 03 e5 3d
       -0.10500314 -0.0037804404 -0.04557105 0.11182234
000310 99 43 6a 3d 38 73 9a bd e4 51 28 bd 7a 35 04 3e
       0.057193372 -0.075415075 -0.041093722 0.12911025
000320 7a b7 03 bd 36 b4 0f bd 32 5b 00 3e 9b e2 a2 3c
       -0.0321574 -0.035083972 0.12534788 0.019883445
000330 8b 60 ed 3d 8c dc 0c be ce 77 d0 3d 04 22 8a 3c
       0.1159068 -0.13756007 0.10179101 0.016861923
000340 1c 0a 1a bc 86 81 0c be 34 00 c6 bd 03 dc 4f bd
       -0.009401824 -0.13721284 -0.096680075 -0.05074693
000350 8c b2 0a bd 47 3e 34 bd 7a af 82 bd 8e 42 85 bd
       -0.03386168 -0.044004705 -0.06381126 -0.06506835
000360 6b bc 75 bd 2d f4 29 bd 42 c2 0c 3c 40 5d 5a bd
       -0.059994143 -0.04149263 0.008591237 -0.053311586
000370 8e f9 1d 3d 8e eb 81 bd e4 ca c1 bc 1b 9d c4 bc
       0.038568072 -0.063437566 -0.023656316 -0.024000695
000380 41 12 19 bd 4d 26 e7 3d d7 61 ed 3a 9b 45 de bd
       -0.037370924 0.11286602 0.0018110824 -0.1085312
000390 87 02 76 3d 40 95 c7 3d df b3 d0 3c 7c 1b 98 bb
       0.060061004 0.09745264 0.025476394 -0.0046419483
0003a0 ff 3b d1 bd 5a f5 94 bd 13 9c 8d 3d 6d f9 86 bd
       -0.102165215 -0.072733596 0.069145344 -0.06590543
0003b0 27 e8 84 3d 1c c8 93 bd 80 35 3a bd 2b c4 55 bd
       0.06489592 -0.07215902 -0.045461178 -0.052189033
0003c0 9f 61 95 3d 09 11 96 3d be c7 49 bd 85 ce 89 bd
       0.0729401 0.07327468 -0.049262755 -0.067288436
0003d0 86 92 d0 3a ca 46 23 bd 3d 1e f3 3c dd 68 80 bd
       0.0015912808 -0.03986243 0.029677505 -0.06270001
0003e0 5f f0 2f 3d 2c bd 8d bd 1c 2a 15 3d a7 f2 4b 3c
       0.042953845 -0.06920847 0.03641711 0.01244799
0003f0 d5 93 38 bd ca c1 97 ba 54 09 09 3d 6f b3 2b 3c
       -0.04506286 -0.0011578139 0.03345616 0.010479792

DGM1.gate_Z.0.bias f4 [100]
000000 13 0d 2f bc 15 01 59 3d b0 6c 1e be 10 9f a1 3d
       -0.0106842695 0.052979548 -0.15471148 0.07891667
000010 3b a7 c0 bc 33 96 9a bd 67 ea 49 3d b4 44 c4 bd
       -0.023517242 -0.075481795 0.04929581 -0.095834166
000020 75 e0 ec 3d eb f1 5f 3d 5f 89 ec bd d7 70 8d bd
       0.11566249 0.05467407 -0.11549639 -0.06906288
000030 e6 9b 9b bd 1b cb dc 3d 38 e4 7c 3d 7e 21 fc bc
       -0.07598095 0.10780927 0.061741084 -0.03077769
000040 53 0e 8f 3c 08 28 42 3d c6 77 7a bd 32 06 80 bd
       0.017462885 0.047401458 -0.06114938 -0.06251182
000050 4a 9e 13 bc 8e 2b 68 bd bb c8 3b 3c c1 32 ff bd
       -0.009009907 -0.056682162 0.011461432 -0.124608524
000060 47 90 b8 bc 75 3b b2 3d 38 2d f2 3c 4e f3 ae 3d
       -0.022529734 0.08702747 0.029562578 0.085425004
000070 d8 2b c9 3d cb 4f ae 3c ce 29 7a 3d 45 86 33 bd
       0.09822816 0.021278283 0.061075024 -0.04382922
000080 24 80 aa 3d 00 70 52 bd ab 0e 98 bd 0e 94 13 3e
       0.08325222 -0.051376343 -0.07424673 0.14411947
000090 4d 5d 16 bd 96 41 fc bd ed 64 11 3e f0 fe 3d 3d
       -0.036710072 -0.12317197 0.14198656 0.046385705
0000a0 a8 67 6c be 1c f7 f8 3c ef 25 8f bc 51 44 71 be
       -0.23086417 0.030391268 -0.017474143 -0.23561217
0000b0 ee 3e af bd c1 b6 84 3c 22 66 de bd ea 31 bf bc
       -0.08556925 0.016200425 -0.10859324 -0.02333923
0000c0 99 d3 f8 bd c3 6c e4 bd a1 12 5f bd a4 86 2f 3d
       -0.12149734 -0.11153557 -0.054461125 0.042853013
0000d0 c7 c2 c8 bd c7 f1 09 be c4 90 a7 3d f7 53 f1 bb
       -0.09802776 -0.13471137 0.08181909 -0.0073647457
0000e0 d2 17 43 3d 32 f5 9a bd c3 89 d2 bd 0d b5 0d 3d
       0.04763014 -0.075662985 -0.10280182 0.03459649
0000f0 6b bd af bc 14 94 d4 3c 6e 91 1e bd 4e 50 5c bc
       -0.021452626 0.025949515 -0.03871291 -0.0134468805
000100 d7 2a 25 3c e0 a9 f3 3d bd 28 17 bd a1 b4 4d bc
       0.010081015 0.118976355 -0.036904085 -0.012555272
000110 11 c7 10 3c ca b3 9e 3d f7 89 4b 3d 65 52 0c bd
       0.008836524 0.07749136 0.04969212 -0.034258265
000120 8e e7 63 3e 79 89 78 3d f8 20 3b 3c 2c 43 8a bd
       0.222563 0.06067798 0.011421435 -0.06751093
000130 e4 01 5a 3d d7 54 1d bd 24 34 02 3d 4e 34 87 bd
       0.05322446 -0.038410988 0.031788006 -0.06601773
000140 b5 e3 dc 3c c2 1e 20 3e 73 3a 2e bd 83 23 cd 3d
       0.026964048 0.15636733 -0.04253621 0.10016539
000150 19 85 97 3c 80 4e a7 b8 9c 6a ef 3c b2 b5 a6 3d
       0.018496083 -7.977802e-05 0.02922564 0.081401244
000160 0f 48 a5 bc 93 04 06 3e 8a ed f7 3c bb ac fc bc
       -0.020175962 0.13087682 0.030264635 -0.030844083
000170 c0 65 c1 3c 65 fe 54 ba f4 35 40 3d 17 69 a8 bd
       0.023608088 -0.0008125066 0.046926454 -0.08223169
000180 76 01 76 bd a6 85 47 bc 99 c2 87 3d 0d f8 3a be
       -0.060059987 -0.01217786 0.066289134 -0.18258686

DGM1.gate_G.0.weight f4 [100, 102]
000000 e9 b7 62 bc 96 ac 9d 3d 20 0c 2c be 1b de 4c 3d
       -0.013837793 0.07698934 -0.168015 0.050016504
000010 e1 4f 97 3e 0e 0a 4f 3d 93 f3 09 3e 00 42 86 be
       0.2955313 0.0505467 0.13471822 -0.2622223
000020 a9 db 76 3d d4 89 c7 bc 52 2e 43 3e 5a 01 a2 3d
       0.060268078 -0.024357714 0.19060639 0.07910414
000030 00 4a 95 3d 14 a7 20 3d 73 32 80 be bd d8 f0 3d
       0.07289505 0.039221838 -0.2503849 0.117600895
000040 78 c3 30 bd 56 4a 1c be a9 7f 22 be 33 3c 19 3d
       -0.043155164 -0.15262732 -0.15869011 0.037410926
000050 d2 ba 44 3c ef 97 1f 3e 5c 40 d2 bd 44 8f 72 3e
       0.012007432 0.15585302 -0.10266182 0.23687464
000060 9c 1a 2e 3e 20 f9 d0 bc e8 c7 23 be 9b d7 4b 3d
       0.17002338 -0.025509417 -0.15994227 0.049766164
000070 bd 47 2f 3d 7d 0b 12 3e 54 37 62 be 18 56 55 be
       0.042793024 0.14262195 -0.22091419 -0.20833623
000080 64 d2 c6 3c 86 d2 00 be f0 07 db bd 3b 56 91 bd
       0.024270244 -0.12580308 -0.10694873 -0.07096525
000090 1b d7 50 3d 50 bf 35 be 36 cb 52 3d 54 52 47 3e
       0.05098639 -0.17748761 0.05146333 0.19465
0000a0 1f 7f b5 3d 80 e0 dd bd 4e 06 60 be 84 58 4e 3d
       0.08862137 -0.108338356 -0.21877405 0.050377384
0000b0 cd 0b be 3d 83 70 88 be ea 04 e2 3d 47 3b 48 bd
       0.092795946 -0.2664834 0.110360935 -0.048884656
0000c0 35 aa 1b 3d 11 a4 27 3e 94 1a 31 be de dc ab 3d
       0.03800412 0.1637118 -0.17295295 0.083917364
0000d0 1d aa 98 bb bd 70 24 be 33 c3 4b bd 32 37 8d be
       -0.004658951 -0.16058631 -0.049746703 -0.27581173
0000e0 c7 e5 40 3d 75 01 95 ba a7 b6 9f 3d 4c 18 83 3e
       0.047094133 -0.0011368232 0.0779851 0.25604475
0000f0 22 db 18 3e 7a 60 84 3d 02 61 30 3d f5 bf f2 3d
       0.14927343 0.06463714 0.043061264 0.11853019
000100 cf e2 aa bc 6f 38 25 be 81 67 df bd 39 0f 88 3e
       -0.020860104 -0.16134809 -0.10908414 0.26574114
000110 a3 90 d8 bd 30 e8 9f 3c f1 2f 32 3e 62 e3 92 3e
       -0.10574462 0.019519895 0.174011 0.28689104
000120 38 88 03 bc e1 9f ab bd c9 e6 85 be 23 db 47 bd
       -0.008028083 -0.08380104 -0.26152638 -0.04879297
000130 ce eb 4d bd 4a ff 3f 3e 22 ae 90 3c 1c da 60 3d
       -0.05027371 0.18749729 0.017661158 0.054895505
000140 26 c4 89 bd fd 13 6a 3c 5f e0 42 be 17 8d 9a bd
       -0.067268655 0.014286992 -0.19030903 -0.07546442
000150 01 58 a5 3c 3f 6a b1 3d 95 3c 31 3e ae bc 26 3e
       0.020183565 0.08662843 0.17308266 0.16282913
000160 1e a9 1c be df a0 db bd 39 36 ba 3d 89 4f e6 3d
       -0.15298888 -0.10724043 0.090923734 0.11245639
000170 25 b6 e4 3c 00 7f 84 3e 35 0c 2e bd 4a 7b 3a be
       0.027918885 0.25878143 -0.04249211 -0.18211094
000180 d9 95 3f be 4e de ee bc 36 7f 25 be 8e d9 41 bd
       -0.18709506 -0.029158738 -0.16161808 -0.047326617
000190 af a6 d7 3d 86 7c 8a 3d 39 ad 39 bd b0 1b 7e 3d
       0.10529839 0.06762032 -0.045331214 0.062038124
0001a0 7c 74 dd bc bb 57 aa 3d b1 82 3e 3d a1 ff 5e 3d
       -0.027033083 0.083175145 0.046511356 0.054443005
0001b0 4b 4d 05 bd a6 2f fe bd 5a 9b f9 3d 60 ff a5 bd
       -0.032544415 -0.12411432 0.12187834 -0.081053495
0001c0 2d 54 c2 3d bf 95 0a 3e ff 17 ea 3b 4a 20 3c 3d
       0.094887115 0.13533686 0.007143974 0.04592923
0001d0 f2 1e 77 3c b7 cb ab 3d 1e 79 64 3d 41 46 b8 3d
       0.0150830615 0.08388465 0.05577957 0.08997775
0001e0 02 33 81 bd 57 a1 6c bc 5f 53 04 bd 82 c0 dd bc
       -0.06308557 -0.014442763 -0.03230607 -0.027069334
0001f0 ab 0a ff 3c 74 02 98 bb 04 60 74 3d d9 2a aa 3c
       0.031133017 -0.0046389643 0.05966188 0.020772384
000200 2b bb b5 bd 90 a1 d7 bd 10 6b 2d 3b d5 dc 22 3e
       -0.0887359 -0.105288625 0.002646152 0.15904553
000210 ed 79 55 bd 05 08 b2 3b c0 55 0f bc 43 6e f4 3c
       -0.05211823 0.005433085 -0.008748472 0.029837733
000220 1b ff b5 3d 3c 86 25 bd a0 03 0e ba 26 98 c5 bb
       0.08886548 -0.04041122 -0.000541741 -0.0060301004
000230 f9 56 f4 bc 79 ab 04 3e b4 df 6c bd 8d f0 f7 bc
       -0.029826628 0.12956037 -0.057830527 -0.03026607
000240 ef 6d e5 bc 78 de a1 3c c2 72 d9 bc 0d 43 12 3d
       -0.028006522 0.019759402 -0.026543979 0.035708476
000250 ba 67 97 3d 36 b6 b5 3d 4f 1c 4e bd 27 a6 23 3e
       0.07392831 0.088726446 -0.050319966 0.15981351
000260 59 d6 be 3c 3d d1 7a bd bb 25 4a bd 42 d9 24 bd
       0.023295568 -0.0612347 -0.04935239 -0.040246256
000270 cb 18 ef bd 5c 54 25 3b 0e 6c c8 bd 7a 67 69 bc
       -0.11674651 0.0025227284 -0.09786235 -0.014245862
000280 c4 89 16 3d ef d1 25 3d 7e 79 19 3e 78 0c 28 bc
       0.036752477 0.04048341 0.14987752 -0.010256879
000290 43 36 f7 3d 88 72 00 3e ca 08 d3 bd 6f 21 7d 3c
       0.120708965 0.1254369 -0.10304411 0.015449866
0002a0 4f c3 d7 bb d9 4c aa 3c 68 76 c0 3d 78 eb df 3b
       -0.006584562 0.020788597 0.09397584 0.00683349
0002b0 12 77 6a 3d 8b c9 f1 3d e2 54 e6 3d 27 16 34 3d
       0.05724246 0.118060194 0.11246659 0.04396644
0002c0 a8 34 03 bd 6f 1f c1 bd 42 0a b5 3d df d1 9c 3d
       -0.03203264 -0.094298236 0.08839847 0.07657217
0002d0 8a ac 00 bd 5b aa e3 3d 65 6e d2 bc 68 cd d1 3d
       -0.031414546 0.11116477 -0.025687406 0.10244256
0002e0 2c 09 7b 3d c2 90 94 3d 73 4b 12 bd 20 e5 0a 3e
       0.061288044 0.07254173 -0.035716485 0.13563967
0002f0 67 11 64 bd 08 82 6c 3c 32 b3 fa ba b5 6e 5d bc
       -0.05568066 0.014435299 -0.0019126891 -0.013515164
000300 22 75 1c 3d af 4a a4 bd 53 de 07 be fe 61 bf 3d
       0.038197644 -0.08022057 -0.13268404 0.093448624
000310 2f e5 ca 3a 0e 87 42 bd 84 1f 16 be e0 5e 89 bc
       0.0015479679 -0.04749208 -0.1466046 -0.016768873
000320 5d cb 49 3c 16 ae c6 bd c0 48 9e bd bb f2 3c bd
       0.012316552 -0.09701173 -0.0772872 -0.046129923
000330 19 45 fe 3c 80 f2 e7 bd 53 f6 25 be 06 e6 a0 bb
       0.031038808 -0.1132555 -0.16207246 -0.0049102334
000340 4c f5 4f 3e a0 df d7 3d 7a c2 71 3d 0a 63 22 bd
       0.20308417 0.105407 0.059023358 -0.039645232
000350 b2 ba 3a 3e 24 98 b9 bd 22 85 2b 3e 04 fa ae 3d
       0.18235281 -0.09062222 0.16750005 0.085437804
000360 fc e4 3a 3e 52 a3 af 3d 69 25 25 bd 17 3d 13 3e
       0.18251413 0.08576073 -0.04031888 0.14378773
000370 e4 0b d5 3c d0 f8 64 3d 38 bf 8b bc 55 58 17 be
       0.026006646 0.05590135 -0.017058954 -0.1477979
000380 3d b4 cd 3d d3 3d 6c bd b1 4c 20 be 4d 7b 97 3d
       0.10044143 -0.057676148 -0.15654255 0.07396565
000390 b0 24 62 3e 0d c6 2a bd 9a 25 11 be 53 87 b7 bd
       0.22084308 -0.041692782 -0.141745 -0.08961358
0003a0 30 d6 eb bc ae f8 0d 3e d4 6c 41 be ba 69 98 bd
       -0.028788656 0.13864395 -0.18889171 -0.07442041
0003b0 56 54 ae 3c 3c 18 59 be e0 17 2b 3d c2 c3 00 bd
       0.021280449 -0.21200651 0.041770816 -0.03143669
0003c0 29 ec c5 3d f8 17 46 be b9 c9 30 bd 07 53 4e 3e
       0.096641846 -0.19345081 -0.043161128 0.2014886
0003d0 80 1b 7a 3d de 83 9a bd c4 0b 26 be 62 dd e8 3d
       0.061061382 -0.07544683 -0.16215426 0.113703504
0003e0 51 58 2e 3e e0 70 2b be 7d 5a 6c 3d 7c 82 c2 3c
       0.17025878 -0.16742277 0.057703484 0.02374386
0003f0 fd c3 94 3d f8 58 62 3e b3 fd 59 be f0 33 29 3a
       0.07263944 0.22104251 -0.21288185 0.00064545777

DGM1.gate_G.0.bias f4 [100]
000000 a6 35 40 3e 5f d3 96 3d 99 a5 d7 3d 95 89 37 3d
       0.18770465 0.073645346 0.10529632 0.044808943
000010 7a 73 3e 3d bf 15 80 3e 74 ef dc 3d 95 48 9e 3b
       0.046496846 0.2501659 0.107878596 0.00483043
000020 68 35 57 3e f2 e8 22 bd ec 82 1d 3e 1f 58 49 3e
       0.21016467 -0.039772935 0.15381974 0.19662522
000030 36 34 db 39 d0 32 f9 3d 04 29 81 3e a3 bb ca 3d
       0.00041809835 0.12167895 0.25226605 0.0989907
000040 ac 74 51 3e ae 4c 46 3e 95 1e f7 3d 09 d5 13 3e
       0.20454663 0.19365188 0.1206638 0.14436735
000050 f7 82 86 3d 4a 1d 14 3e d2 9a 77 3c c0 89 bb 3d
       0.06567948 0.14464298 0.015112596 0.09157133
000060 e8 e6 8f 3d a8 e9 d0 3d fd 47 1f 3d 67 6a 61 3d
       0.07026464 0.102008164 0.038887013 0.055033114
000070 b9 13 d9 bc 25 8f 90 3c ab 7b 22 3e 21 0f ba 3d
       -0.026498662 0.017646382 0.15867488 0.09084917
000080 4d d9 74 3d 6c 49 8a 3e 6b 06 1d 3e 14 8f 65 3e
       0.059777547 0.2700914 0.1533448 0.22417861
000090 a8 bd fc bc ba f1 31 3d c8 ca d7 3c ae 58 21 3e
       -0.030852154 0.04344342 0.02634181 0.15756485
0000a0 5c f8 6d 3d 57 8c 54 3d ce 0a fc 3d fe 7e 21 3e
       0.058098182 0.05189165 0.12306748 0.157711
0000b0 89 d4 8c 3d 63 18 5e 3e 70 a9 fd 3d 77 c9 c4 3d
       0.06876475 0.2168899 0.12385833 0.09608739
0000c0 e5 6e f0 3d b8 1d 26 3e 11 46 d2 3d 2e c4 ed 3d
       0.117399015 0.16222274 0.1026727 0.11609684
0000d0 f1 b6 80 3d 4d 3f a7 3d 09 4a 52 3e df 52 d9 3d
       0.06284893 0.081663705 0.20536055 0.106115095
0000e0 0c fa 39 3d f2 bf 0a 3e 02 a0 ef 3d 48 19 a1 3d
       0.04540448 0.13549784 0.11700441 0.0786615
0000f0 eb 4a 06 3e a7 c0 6a 3e 34 ef 18 3e b5 8c 51 3d
       0.13114516 0.22925054 0.14934999 0.05115958
000100 29 60 34 3e 8e 72 46 3e b1 b9 17 3c 42 0a eb 3d
       0.17614807 0.19379637 0.009260581 0.11476566
000110 f8 87 de 3d f4 f9 0b 3e b8 51 3a 3e 3a 06 13 3d
       0.10865778 0.13669568 0.18195236 0.03589461
000120 6d aa d9 3d 6b 25 91 3d ca f8 67 3d b3 9d f9 3b
       0.10628209 0.07087215 0.056633748 0.007617676
000130 28 88 37 3e b8 15 09 3e 63 7b f1 bc ad b5 e4 3d
       0.17923033 0.13387191 -0.02947778 0.111674644
000140 35 2a a1 3d a0 81 0a 3e ee 9f 48 3e b3 ad 7b 3e
       0.078693785 0.1352601 0.19592258 0.2457798
000150 ce 62 05 3e 63 72 49 3e a2 eb 4f 3e 29 01 44 3d
       0.13025972 0.19672541 0.2030473 0.04785267
000160 6d 90 57 3e a4 98 39 3e 0b 14 1f 3d 91 8d 1d 3d
       0.21051188 0.18124634 0.038837474 0.038465086
000170 6a fb d8 3d fb 4c 0a 3e d0 48 99 3d fe 9f a9 3d
       0.105948284 0.13505928 0.07484591 0.08282469
000180 bf ac bb 3d c7 72 71 3d b5 1b 91 3c 3c db fc 3d
       0.09163808 0.05894735 0.017713407 0.12346503

DGM1.gate_R.0.weight f4 [100, 102]
000000 e9 c2 65 bc 7b a0 ab bd 02 33 e4 bd 6c 29 6f bd
       -0.014023521 -0.083802186 -0.111425415 -0.058389112
000010 c8 80 b8 3d 66 00 e9 3d a2 9a d6 bd db 9e 51 bd
       0.09008938 0.11377029 -0.104787126 -0.051176887
000020 43 ce 24 bc 63 8f 07 bd c8 d0 11 3e 22 1c cb 3d
       -0.010058942 -0.03309573 0.142398 0.09917475
000030 15 3b 54 bc 23 a7 d8 3d 9a 97 e0 3b 0e 0a 1d 3d
       -0.012953539 0.10578754 0.00685401 0.038339667
000040 7a 9f 14 3e 3e 23 22 3d dc 62 b3 3d 54 05 85 bd
       0.1451396 0.03958439 0.0875909 -0.06495157
000050 2c 5a b8 3d e7 d9 0c 3d a3 f6 5d bc 61 69 b0 bb
       0.09001574 0.034387495 -0.013547572 -0.005383656
000060 ff ea 98 bd cb 1f 07 3d 04 dd 41 3d fe 8f 2b 3d
       -0.07466697 0.032989305 0.047329918 0.04188537
000070 6a 0a ac 3d 75 52 d7 3c a6 af 77 bd be 95 b6 bd
       0.08400424 0.026284436 -0.060470246 -0.0891528
000080 19 01 d9 bc 35 70 49 bc 8f 6a 03 bc 16 2b 6c bd
       -0.026489781 -0.012294819 -0.008021011 -0.057658277
000090 f5 ef 1c bc 36 f4 0e be 3c ee 35 3d da ae 86 3d
       -0.009578695 -0.13960347 0.04441665 0.06576319
0000a0 7e 04 1c bd 74 6c b6 bd 5d a2 2b 3c cb 2d 70 bd
       -0.03809022 -0.089074045 0.010475722 -0.05863742
0000b0 39 01 ed bc 6c b1 11 be f8 d1 4d bd 55 fc 86 bc
       -0.028931247 -0.14227837 -0.05024907 -0.016477743
0000c0 22 13 c6 3c 0d a9 c0 3d 5a 55 9c bb 2e b7 a8 3a
       0.024179045 0.09407244 -0.004770917 0.0012871975
0000d0 26 52 bd 3c 7e 61 75 ba e8 ef ac bd 88 69 d2 bd
       0.02311046 -0.0009360536 -0.08444196 -0.10274035
0000e0 25 e4 28 bd cb 0b c0 3d fc 1d 0f bd 3d b4 71 bd
       -0.0412332 0.09377249 -0.034940705 -0.05900978
0000f0 86 93 49 3d 48 bc 84 bc 0c 23 2f bd 48 62 b5 3d
       0.049212955 -0.01620306 -0.042758033 0.08856636
000100 2b 8d f6 3c 96 26 5e 3d aa d6 90 bd 16 00 e1 3d
       0.030096611 0.054236017 -0.07072194 0.109863445
000110 b3 2c 59 3d 54 90 a9 3d 0b 9d 1d 3d 7b 38 34 3e
       0.053021144 0.082794815 0.038479846 0.1759967
000120 c6 c5 1e 3d 01 5d 1e bd 44 f8 2a bd b9 50 d7 3c
       0.03876283 -0.038662914 -0.04174067 0.026283609
000130 9d 4a d9 3d 80 aa 66 3d 22 00 50 3d f4 a9 74 3d
       0.106099345 0.056314945 0.050781377 0.059732392
000140 9c 83 b1 bd 90 cf 71 bd 3d bf 00 3e 54 59 9f bc
       -0.086676806 -0.059035838 0.12572952 -0.019451775
000150 d0 9b d8 bd 60 7d 0d 3e 8c e5 d5 bc ac 56 e7 bc
       -0.10576594 0.13817358 -0.026110433 -0.02823957
000160 15 d9 1f be 7f f6 98 bc 0f bc 4d bb b7 ab 3e 3c
       -0.15610154 -0.018672226 -0.003139261 0.01163762
000170 02 4f cc 3d 97 34 d8 3d 39 87 92 3d a0 29 9d 3d
       0.09976007 0.10556906 0.07154698 0.07673955
000180 61 1b 38 bd 2e 2d cd bc 87 91 71 bd ab 40 e9 3d
       -0.044947986 -0.025045957 -0.058976676 0.113892876
000190 22 54 c5 3c e0 38 18 bd 91 d0 3c 3c 48 f8 31 bd
       0.02408797 -0.037163615 0.0115243355 -0.04344967
0001a0 9b ae c5 3d 60 a9 ca bd 8a 93 27 bd 5b 1c 42 bd
       0.09652444 -0.09895587 -0.04091219 -0.047390323
0001b0 0d 4d 2d bd 3b 98 84 3c 11 35 d9 bd e5 07 65 bd
       -0.04230981 0.01618587 -0.10605825 -0.055915732
0001c0 56 ca 92 bd 7e be 83 3d ea 08 15 be 59 23 1e 3d
       -0.07167499 0.06432818 -0.14554182 0.03860793
0001d0 b4 ba 72 3c ee aa 9a bc e1 1e 33 3d e1 08 e4 3d
       0.014815021 -0.018880334 0.04373062 0.11134506
0001e0 f8 7b 13 3d 4d 37 a6 3d 49 b7 e6 3c 3b 7f 5a 3c
       0.036006898 0.081160165 0.028163569 0.013335998
0001f0 db a5 7e bd 2c 38 56 bd 72 01 d7 3c 27 27 14 3c
       -0.06216989 -0.052299663 0.026245806 0.009042538
000200 5d 0c 94 3c 2c e6 82 3d ea 21 62 bc de 21 14 bb
       0.018072302 0.06391558 -0.013802031 -0.0022603194
000210 3d c9 35 bd 26 94 dd 3c 31 ee 68 3c e1 d4 48 bd
       -0.04438137 0.027048182 0.0142169455 -0.049031142
000220 79 a3 65 3c f5 28 09 bd ba 2d c9 bb af 64 82 bd
       0.014016026 -0.033486325 -0.0061394842 -0.0636686
000230 e3 79 86 bc 40 20 57 bb c7 25 52 bd 03 32 22 3c
       -0.016415542 -0.003282562 -0.05130556 0.009899619
000240 49 1a b0 bc 77 87 89 3d 0b 04 88 bd 35 be 4a 3c
       -0.021496909 0.06715291 -0.06641396 0.01237445
000250 0a 49 35 bd 18 88 04 bd 9f 11 8e bd 59 0f 9b 3c
       -0.04425911 -0.03235635 -0.06936955 0.018928217
000260 4a 22 85 bd 94 56 c6 3c 21 9e 27 bd c4 24 e1 bd
       -0.06500681 0.024211206 -0.040922288 -0.109933406
000270 9f ac a4 bd d0 24 c5 3d e8 37 f4 bd d7 49 ba 3d
       -0.08040737 0.09626162 -0.11924726 0.09096115
000280 7c 7a 0c 3d dd fe 84 bc a4 bc 80 3d ff 22 46 bd
       0.034296498 -0.01623481 0.0628598 -0.04837322
000290 ce 40 88 3c 0b 9a bd bc 6a 37 e3 bd d6 dd 37 bd
       0.016632464 -0.023144742 -0.11094554 -0.044889294
0002a0 af 3c 97 bd e9 be 2a 3d 28 68 64 bd 16 ab 4c bc
       -0.07384621 0.041685972 -0.055763394 -0.012491962
0002b0 02 22 ff 3c f6 c7 ea bd ef d5 4d 3d 0a 56 75 3d
       0.031144146 -0.11463921 0.05025285 0.059896506
0002c0 cf 01 21 3c bc de 50 3d 16 56 b7 3c f3 70 ab 3c
       0.009827091 0.050993666 0.022379916 0.020927882
0002d0 4a a8 6f bc 62 eb 03 3d 10 21 99 bd 5a 1b f8 3c
       -0.014627526 0.0322069 -0.07477009 0.03028648
0002e0 24 12 ab 3d ca 44 1c 3d 5c cf 59 bd 49 0d c4 bc
       0.083530694 0.03815154 -0.05317627 -0.023932116
0002f0 09 7f 9e 3c d2 e7 96 bd ca 64 9c 3d 3d ac 46 3d
       0.019347684 -0.07368435 0.076364115 0.048504103
000300 46 24 ff bd 1b 68 b9 bd a2 1e dd 3d 29 38 e7 bd
       -0.124580905 -0.0905306 0.10796858 -0.112900086
000310 37 b1 d1 3c e1 37 d6 bc 29 6d b1 3d 4f 6f 63 3c
       0.025597198 -0.026149692 0.08663399 0.0138815185
000320 e9 02 fa 3b b7 7d a2 bd cd 22 7f 3d f5 aa a0 bd
       0.0076297414 -0.079341345 0.062289048 -0.078451075
000330 c1 26 9f bd 3c 70 c2 3d 5a 36 84 3c 57 98 32 3d
       -0.077710636 0.09494063 0.016139198 0.043602314
000340 8e 26 bd 3c 73 5c 03 3e 61 32 07 3c 8e 20 0e 3d
       0.023089673 0.12828235 0.008251757 0.034699015
000350 1c fa 95 3d b3 4d a9 3c 84 53 46 bc a3 26 03 3d
       0.07323095 0.020666933 -0.012104873 0.03201927
000360 0a ff 1a 3d 7e 71 e2 3d d1 00 10 bd 88 20 08 be
       0.03784088 0.11056803 -0.03515703 -0.1329366
000370 79 27 fe bd 25 1d 59 3c 93 23 11 bd 15 6f 98 3d
       -0.124098726 0.0132515775 -0.035434317 0.07443062
000380 5f bb 64 3d 64 16 06 be 35 ba c8 3c 5a 5e c6 3c
       0.055842753 -0.13094479 0.024502853 0.024214912
000390 b5 b5 85 3d e7 40 46 3d 4d 28 0b be 94 4d 54 3d
       0.065287985 0.04840174 -0.13589592 0.051831797
0003a0 8d aa 7d b9 b6 d8 34 bd 81 ca b9 bd 29 fb e2 bd
       -0.00024191495 -0.044151984 -0.09071828 -0.11083061
0003b0 9a 73 e7 bc 5f ce 05 bd f6 5b 54 3c 9b 72 1c bc
       -0.028253365 -0.032667514 0.012961378 -0.009548808
0003c0 92 d8 73 3c 9a c7 f1 3c 4d 5a 40 bd c2 b1 e0 3d
       0.014883177 0.029514123 -0.046961118 0.109714046
0003d0 f2 8c c1 bd f8 e4 f4 b9 f2 f0 c2 3d e9 3b 61 3c
       -0.09450711 -0.00046709902 0.09518613 0.013747194
0003e0 a6 ef aa bd 31 e1 2b 3c a9 10 8f bd 00 76 29 3d
       -0.083464906 0.0104907015 -0.069855995 0.0413723
0003f0 43 e8 f9 bd 88 77 b4 3d 7e 7a 22 bd be 99 a6 bd
       -0.122025035 0.08811861 -0.0396676 -0.08134793

DGM1.gate_R.0.bias f4 [100]
000000 30 5a 37 3d 0a a2 e5 3c 23 87 a1 3d c1 33 f9 3d
       0.044763744 0.028031368 0.078871034 0.121680744
000010 80 75 d1 3c 67 a1 a7 3d b0 52 c8 3d ec c1 c5 3d
       0.025568724 0.08185082 0.097813964 0.09656128
000020 2c ea 8d 3d e4 7e 2e 3e 21 30 36 3d bd 16 30 bb
       0.0692943 0.17040592 0.044479493 -0.0026869022
000030 f2 a6 85 3d 9c e6 11 3c fc ca a8 3d f1 52 f7 3d
       0.06525983 0.008905079 0.08241841 0.12076367
000040 82 67 be bd 6e cf 0b be 1b 0f fe bd 0d 7b a7 bb
       -0.09297086 -0.13653347 -0.12405225 -0.0051111043
000050 3a 8d 34 be 3a 92 46 3c b8 c9 cd bd 37 13 b7 3d
       -0.17631999 0.012119824 -0.100482404 0.08939212
000060 ef 83 90 3a 25 8d 40 bd 10 65 e2 3c 42 70 a9 bd
       0.0011025647 -0.047009606 0.027636081 -0.082733646
000070 73 19 90 3d f9 26 b7 bc 33 f6 8b 3d 29 3b 2a bd
       0.07036104 -0.02235745 0.06834068 -0.041560326
000080 d3 c8 f8 3d 20 21 a1 3d 33 c8 00 bd 4d 05 e1 bd
       0.12147679 0.07867646 -0.031440925 -0.10987339
000090 21 66 2d 3d 89 38 bc 3c 0a b8 14 3d 43 82 89 bd
       0.042333726 0.022976177 0.036308326 -0.067142986
0000a0 cf 7a 0e 3e 07 f7 24 3e 24 cc 9b 3b 21 5c 18 3e
       0.13914035 0.16109858 0.00475456 0.14878894
0000b0 db c3 9c bd 50 00 25 3d 0f e3 56 3e ac d3 2c 3d
       -0.07654544 0.0402835 0.20985053 0.042194054
0000c0 4f ed 58 3d 10 ef de bc d0 03 1b 3d 9b 26 11 be
       0.05296069 -0.027213603 0.037845433 -0.14174883
0000d0 92 9f cf 3d 9f bc 98 bd bc ba c2 bd 2b 5a a3 bd
       0.101378575 -0.074578516 -0.09508273 -0.079761826
0000e0 a4 28 a5 3c f2 b6 5b bd 72 6d 9b 3c 2c 13 5c bd
       0.02016098 -0.053641267 0.018973086 -0.05372922
0000f0 dc 9b c7 3d 04 fc 9f 3d 88 1d 84 3d d2 c1 54 bb
       0.09746525 0.0781174 0.06450945 -0.0032464159
000100 cb 7f 8c bb af f7 d0 bc 6e e2 e7 bd 07 7a fd bd
       -0.004287695 -0.02550873 -0.11322485 -0.123767905
000110 01 51 0b 3e d2 5f 1f 3c ff 6c 03 bb 03 82 54 3d
       0.1360512 0.009727435 -0.002005398 0.0518818
000120 90 91 1c 3e 7e c5 b9 bd 61 57 fd 3d ac 05 d8 3c
       0.15289903 -0.09070872 0.12370182 0.026369892
000130 6d c2 a9 3d cd c7 08 be d2 7c d9 3d 48 c0 7b 3d
       0.08289037 -0.13357468 0.10619511 0.06146267
000140 08 36 e4 bd db 63 b0 3d 4e 6b bc bd d2 88 23 bd
       -0.11143118 0.08612796 -0.09200154 -0.039925404
000150 da 5f 67 39 0a 22 f1 bc 43 b4 0b 3d 18 ab 4c 3a
       0.00022065584 -0.029435176 0.034107458 0.00078074774
000160 0e ca 0f 3d 9e 3e 9f bc 1d 9e af 3c 06 03 7a bd
       0.035104804 -0.019439038 0.021437699 -0.06103804
000170 8b 40 40 bd 52 b3 ae 3d ef ec d2 bd 98 57 69 3d
       -0.046936553 0.085302964 -0.10299098 0.0569683
000180 c5 4f 76 3c ab 48 26 3d 2c a9 1f bc 0b 05 47 bd
       0.015033667 0.040596645 -0.009744924 -0.048588794

DGM1.gate_H.0.weight f4 [100, 102]
000000 fe 89 31 bd 52 8b d1 bd b5 c0 eb bd a6 ab c0 3b
       -0.04334449 -0.10231651 -0.11511365 0.005879837
000010 59 a8 ab 3d e7 3e 38 3d 30 7c 5d bd fa 06 00 3d
       0.08381719 0.044981863 -0.054073513 0.031256653
000020 a7 66 fa 3d 36 98 8e 3c e9 85 b1 3d 93 60 0f 3e
       0.12226611 0.017406564 0.086681195 0.14001684
000030 a8 44 55 3e 63 ce cb b9 a9 f8 36 bd fb 0a 93 3d
       0.20826972 -0.00038872947 -0.044670735 0.07179829
000040 4d 17 08 be b2 2e aa 3d 0d f8 46 be 97 59 9a 3d
       -0.13290139 0.08309688 -0.19430561 0.07536619
000050 df 46 1d bd 98 ce 08 bd 39 ef fe bc 05 dd 74 bd
       -0.038397666 -0.03340015 -0.03111993 -0.059781093
000060 d9 5a 40 bb 0e 69 72 3d db d1 93 3d b0 1f b1 3d
       -0.0029351024 0.05918222 0.07217761 0.08648622
000070 b1 a5 8a 3d 7c 6a 0e 3d 14 09 4c 3e ff 43 18 3e
       0.067698844 0.03476952 0.19925338 0.14869688
000080 c6 ce a9 bb 98 23 d0 bb bc 32 81 bd 86 ad d0 bc
       -0.00518212 -0.0063518994 -0.06308505 -0.025473367
000090 a3 be 56 bd 85 80 d6 3d 88 74 3e 3c ea cf 28 be
       -0.0524279 0.10473732 0.011624463 -0.16485563
0000a0 a0 dc 00 3e 96 30 46 3b ae 1e c1 bb ee 2e 11 3e
       0.12584162 0.0030241362 -0.00589355 0.14178059
0000b0 b3 9f 8c 3d e6 8b c3 3d 29 be c0 bd 32 16 1f bd
       0.06866398 0.09548168 -0.0941127 -0.038839526
0000c0 96 a5 f7 bc fc 88 5f 3d c5 af c9 3b 04 d5 a3 3c
       -0.030230325 0.054573998 0.0061549866 0.019999035
0000d0 e7 92 93 3c f6 5a 49 bd 64 12 42 bc 38 d1 20 3c
       0.018014384 -0.049159013 -0.011845205 0.009815507
0000e0 a1 ad 3d bd c2 4f eb bd 57 40 e5 ba c7 0c b9 3c
       -0.046308164 -0.11489822 -0.0017490488 0.0225891
0000f0 08 2d 88 bd 47 72 72 3c 93 7a 1b 3d a7 20 7c bc
       -0.06649214 0.014797754 0.037958693 -0.015388644
000100 d0 a1 ba bc 24 cc af 3c 24 85 ad bd 06 0a e0 3d
       -0.022782236 0.021459647 -0.0847266 0.10939412
000110 64 83 41 3a 33 a4 3d 3c fc 9c 3c bd 50 49 1e 3e
       0.00073819445 0.011574793 -0.04604815 0.15457654
000120 d3 24 a2 bd c0 34 4d b9 3b 73 75 bd d3 a9 97 3c
       -0.0791718 -0.00019569974 -0.059924345 0.018513596
000130 a2 57 d1 bd b5 7a 02 3d 80 9b 9d bd 0c b0 00 3d
       -0.10221793 0.031855304 -0.07695675 0.03141789
000140 f9 53 ee bd ca 1c 23 bd 78 9b 16 3d e5 58 e7 3c
       -0.1163711 -0.039822377 0.03676936 0.02824063
000150 c0 a7 16 be 6f 49 b9 3d 2a c2 b9 3d 42 84 d1 bd
       -0.14712429 0.090472095 0.09070237 -0.10230304
000160 bc da 20 bc e6 ae 2e bd 4c a0 e1 bc 7f 9e 7b 3c
       -0.009817775 -0.042647265 -0.027542256 0.015357613
000170 97 8e 8d bd b5 12 b8 3d 95 cd 9d 3c 21 01 f0 3d
       -0.069119625 0.08987943 0.019263068 0.11718965
000180 31 1d 13 be 14 08 95 bc d7 b6 59 3d 40 8d 76 bb
       -0.14366604 -0.018192329 0.053152885 -0.0037620813
000190 0e 3b bc bd 0a 56 46 3d de ec 09 3d fa 1d 01 bd
       -0.09190951 0.048421897 0.03367316 -0.03152273
0001a0 06 f7 71 3d 91 de d0 3d fc 74 e5 3b a7 47 82 bd
       0.05907347 0.10198701 0.007002471 -0.06361323
0001b0 ac bc 26 bd 4d fe e1 3d 4f c5 15 3d b1 75 db bc
       -0.040707275 0.11034832 0.03656512 -0.026789518
0001c0 d9 92 b1 bc 93 1e 9c bc 7c c0 19 bd 98 d7 eb bd
       -0.021676468 -0.019057548 -0.037537083 -0.115157306
0001d0 55 d6 99 bd aa e5 64 bc 30 49 0e 3d 0b c0 a4 bd
       -0.07511584 -0.013970772 0.034737766 -0.08044442
0001e0 d8 be ab bc 9e 66 10 be 1e ce 76 3c ce fb 39 3d
       -0.020965025 -0.14101645 0.015063791 0.045406155
0001f0 7b 18 e8 bd b4 ff 28 3d 0d 6e 85 3d ab 24 ec bd
       -0.11332794 0.041259483 0.06515131 -0.11530431
000200 14 9f 2e 3d 0a 3d 84 3c 30 51 98 3c 83 57 a9 3d
       0.042632177 0.016142387 0.0185934 0.08268645
000210 05 62 ae bd c4 8b e5 3c f9 80 01 3d 4b 47 7d bd
       -0.085147895 0.028020747 0.03161714 -0.06183557
000220 f3 13 94 b9 68 5b 39 bd 85 c5 08 3e 6c b5 2b 3c
       -0.00028243623 -0.045253187 0.13356598 0.010480266
000230 80 6e e8 3a 2f 18 46 3c 53 13 05 3e 92 31 62 3c
       0.0017733127 0.012090727 0.12995653 0.013805764
000240 78 b8 eb 3d aa ce cc bc 61 e0 05 be f4 3e 18 bd
       0.11509794 -0.025000889 -0.13073875 -0.03716941
000250 95 93 41 3c e1 f8 80 bd ae 59 e5 bd 34 9f ee 3c
       0.011814971 -0.0629747 -0.11198746 0.029128648
000260 7f c9 7d bd a0 e6 a9 3d 70 01 27 bd 5b 26 3f 3d
       -0.06195974 0.08295941 -0.040772855 0.046667438
000270 bb 04 d3 bc d8 7c 80 bb 12 47 56 3d 0a 2a 68 bd
       -0.025759092 -0.0039211325 0.05231387 -0.056680717
000280 43 dd 3c be fd 07 0a bb 5f af d0 3b a7 d3 e1 3c
       -0.1844378 -0.002106189 0.006368562 0.027566744
000290 65 22 c8 bd 42 9b ee bd 9c 76 f8 bc 1a 14 41 bd
       -0.09772185 -0.11650707 -0.030329995 -0.04713831
0002a0 ce 34 42 3e 05 ea 9e bd b8 4a 37 3d 8b 34 9b bd
       0.18965456 -0.077594794 0.04474899 -0.07578381
0002b0 2c 9a 85 bc 0f 02 43 be 19 44 f1 bd 9c c3 00 be
       -0.016308866 -0.19043754 -0.11780567 -0.12574619
0002c0 e2 63 97 bc d8 85 7c 3d 4f d3 b8 3d fc 68 7a bd
       -0.018480245 0.06165108 0.09024679 -0.061135277
0002d0 ae a1 cf bd 76 d3 e5 3d 32 ef 9c bc 73 b4 2b 3d
       -0.1013826 0.112219736 -0.019157026 0.041920137
0002e0 36 cb 16 3c f5 43 b4 3d da dc 28 3d 8c 48 b3 bd
       0.009203723 0.08802024 0.041226245 -0.087540716
0002f0 43 cd a2 bb f6 71 00 3e a8 bd 6d bc 8c 5e 7c 3c
       -0.0049683168 0.12543473 -0.01451055 0.015403401
000300 58 64 86 bd db ea a4 bd 2c 39 0b 3e cf f1 c5 3d
       -0.06562108 -0.080526076 0.13596028 0.09665262
000310 cc 6e 65 3d 72 15 1f 3d 0a 4e a1 bd 62 01 ba 3d
       0.056013867 0.03883881 -0.07876213 0.09082295
000320 c7 7c ff bd d0 ed 66 3d a1 6b 2e 3d 9d 9f be 3d
       -0.12474971 0.05637914 0.04258311 0.093077876
000330 40 05 8a bd 12 83 1a bc ed cb e5 3c 61 f7 fe bd
       -0.067392826 -0.009430664 0.028051341 -0.124495275
000340 05 cb d5 3d f7 24 23 3d ba d5 be bd aa 6c bc bd
       0.104391135 0.039830174 -0.09318109 -0.092004135
000350 9d 3c 82 bd 64 26 3c 3d 20 b2 d5 3d 45 2c 35 3d
       -0.06359217 0.04593505 0.10434365 0.04423167
000360 1a 89 68 3d e2 8f fe 3d 6d 5f a4 3d 03 57 8f 3d
       0.056771375 0.12429787 0.080260135 0.06999018
000370 d0 80 98 bd a9 c2 e8 3c e6 fa 17 be 0e f4 53 bd
       -0.07446444 0.028413134 -0.14841804 -0.05174642
000380 b0 b8 fc 3d c2 ec 0c 3e fc 54 07 3d 5d 78 42 bd
       0.12339914 0.13762191 0.03304003 -0.04747807
000390 d7 69 63 be 47 77 5e bc 72 97 18 3e c7 4e 41 3e
       -0.22208343 -0.013578243 0.14901522 0.18877707
0003a0 43 c4 f2 3b 40 4b f3 bd e1 81 8f bd dc 23 63 3c
       0.00740865 -0.11879587 -0.07007194 0.01386353
0003b0 de 2b e3 3c ff 0e c0 3d d5 56 5f 3d 47 aa d9 3b
       0.027730878 0.0937786 0.05452617 0.006642613
0003c0 97 6c 89 bd 9c ae 4b 3c b9 6f 62 bd 2b 94 03 be
       -0.06710165 0.012431767 -0.05528233 -0.1284949
0003d0 34 2c d4 bc 8c c7 64 3d e4 ac d8 bd 9c 27 d7 bb
       -0.025899984 0.055854365 -0.10579851 -0.006566001
0003e0 35 cf bc 3d 29 1d f2 3c 9d b2 a5 3c a1 84 75 3d
       0.09219209 0.02955492 0.020226771 0.059940938
0003f0 bf 0e 67 bd c6 14 d2 3d ae 5b 83 3c bc 59 2d bd
       -0.056410547 0.102578685 0.016034927 -0.042321905

DGM1.gate_H.0.bias f4 [100]
000000 ee 9f 00 be 30 da bf bc f0 98 8a bd 33 52 79 bd
       -0.12561008 -0.02341947 -0.06767452 -0.060869407
000010 c2 ca 46 bd 60 a0 33 bc 42 00 31 3d e6 7f 8b bd
       -0.04853321 -0.010963529 0.043213136 -0.06811504
000020 ed e7 f4 bd 05 15 70 3d c2 59 b4 3c 5a 5a 0e 3d
       -0.11958299 0.058613796 0.022015456 0.034754135
000030 93 6a 9c bd e9 48 01 be 19 28 ef 3b 9c 39 06 bd
       -0.07637515 -0.1262547 0.007298481 -0.032769784
000040 8e 92 be 3d 59 f6 e8 bd d9 49 10 3d 38 c0 89 bd
       0.09305297 -0.11375112 0.035226677 -0.06726116
000050 e5 51 c4 bd d1 d1 ef bd 8f d7 4e 3d 35 34 90 bd
       -0.09585933 -0.11709941 0.05049854 -0.07041208
000060 99 8b 0d bd 0a 4a f8 3c 23 b8 a9 3c 01 ce 48 3d
       -0.03455696 0.030308742 0.020717686 0.049024586
000070 15 90 1b 3c 53 a7 2d bd 7f 74 19 3d 26 4b 57 bc
       0.009494801 -0.0423959 0.037464615 -0.013140475
000080 b7 29 5e bd b6 9a b2 bd 64 b4 7e bc 8f 6a a1 bc
       -0.054239 -0.08720915 -0.015545938 -0.019704131
000090 51 3d 6d bd f9 b4 56 bd f8 14 70 3d fb 90 38 bd
       -0.057919804 -0.052418683 0.058613747 -0.04506014
0000a0 70 48 6c bd f1 c7 87 3c 34 e0 80 3d 4e 35 06 bd
       -0.05768627 0.016574832 0.06292763 -0.03276568
0000b0 17 ed 7f 3d 6e ca 8b 3a c4 f6 45 bd 42 51 ee bd
       0.062481966 0.0010665187 -0.048331037 -0.116365924
0000c0 b5 91 c5 bc 1f b8 f3 3d 7f b1 67 bd b6 8d 81 3d
       -0.02411733 0.11900353 -0.056565758 0.06325857
0000d0 db 0e 8d 3c 66 bf 52 3c b5 78 f6 3b 73 11 9e 3d
       0.017218998 0.012863016 0.0075217136 0.07718172
0000e0 15 4a d1 3d bb a2 7f 3c 81 f7 8f bd 87 8d 81 3d
       0.10219208 0.015602763 -0.070296295 0.06325822
0000f0 9c ea fc 3b 34 06 a1 bc 64 71 df 3d b3 d8 aa bc
       0.0077183973 -0.019656278 0.109102994 -0.020855283
000100 77 5f 99 bd 2d 70 fc bc 0d 61 13 3d bf 3f 57 bd
       -0.074889116 -0.030815208 0.035981227 -0.052551027
000110 63 19 3f 3c 83 73 99 bc 00 d4 20 3e f5 82 11 3d
       0.0116637675 -0.018731838 0.15705872 0.03552528
000120 01 d5 e4 3b 6c b1 91 3d 44 1f b1 bd 91 5a 71 bc
       0.0069834 0.07113919 -0.086485416 -0.014731065
000130 57 d1 88 3d 69 6a 92 bd 7d 83 5f bd f5 05 ea bd
       0.066805534 -0.071492024 -0.054568756 -0.114269175
000140 16 d1 5e bd 16 a7 74 3d f8 da 51 3d e8 ba 8e 3c
       -0.05439862 0.059729658 0.051234215 0.017423108
000150 89 42 b7 bc 9d 12 ff 3d 65 fe 45 3d c0 4b 77 bd
       -0.022370594 0.12454722 0.048338313 -0.060374975
000160 ef 92 34 3d 98 8c 91 bc 53 3c 7f 3d da 6f 11 3e
       0.04408544 -0.017767236 0.06231339 0.14202824
000170 ae 18 88 bd b6 19 c6 3d 6f 35 9d bd 31 b1 3b bc
       -0.06645332 0.09672873 -0.07676207 -0.01145582
000180 07 5b 41 bb 38 99 de bc 78 29 1e bd 88 d6 d2 bb
       -0.002950372 -0.02717267 -0.038613766 -0.0064342655
