trained_models/trained_optimal_value_funct.pth (torch, 506050 bytes, 27 tensors)

input_layer.0.weight f4 [100, 2]
0	0xbe1c3c4d	-0.15257378
1	0x3df198d8	0.11796731
2	0x3ef58b84	0.47958004
3	0x3d82dfda	0.063903525
4	0x3eeb8305	0.45998397
5	0x3ea3e0c5	0.32007423
6	0x3f18d505	0.5970004
7	0xbeec4b38	-0.46151137
8	0x3f169d7a	0.5883404
9	0xbde250ad	-0.11050544
10	0x3e5f01e5	0.21778066
11	0x3e8ff0d1	0.28113416
12	0x3f2a6fc9	0.6657682
13	0x3ee54194	0.44776595
14	0xbc81dfef	-0.01585385
15	0xbe056f4a	-0.13030735
16	0xbf03bd32	-0.51460564
17	0x3f03d3a4	0.5149481
18	0x3e35f8d8	0.17770708
19	0x3e0bb9e9	0.13645138
20	0xbe958379	-0.29201868
21	0x3dd95b28	0.1061309
22	0x3ce30b63	0.02771539
23	0x3e741504	0.23836142
24	0x3f0d04ec	0.55085635
25	0xbe4bedee	-0.19914982
26	0x3cd1022f	0.025513737
27	0xbeec984d	-0.46209946
28	0x3e736840	0.23770237
29	0xbeb08d36	-0.34482735
30	0xbeeef1df	-0.46668908
31	0x3ea53cd3	0.32272968
32	0x3d259252	0.040422745
33	0x3e6cc324	0.23121315
34	0xbc85a38e	-0.01631334
35	0xbed1e75d	-0.4099683
36	0x3cf46754	0.029834427
37	0x3e80ef1f	0.25182435
38	0xbeb60902	-0.35553747
39	0x3ee1bd43	0.44089708
40	0x3e7eee42	0.24895576
41	0x3ec7ce6e	0.3902468
42	0xbda7027e	-0.08154772
43	0xbec9fc6c	-0.39450395
44	0xbe37dfae	-0.17956421
45	0x3efb2f49	0.49059513
46	0xbdf3e1a2	-0.119082704
47	0x3ecb7ef1	0.39745286
48	0x3e04e4a6	0.12977847
49	0x3f12eaff	0.57389826
50	0x3dc59f82	0.09649564
51	0xbd1ec25a	-0.038759567
52	0x3ede8eae	0.4346823
53	0xbe73351d	-0.2375073
54	0xbefec3b6	-0.4975869
55	0xbdcd85be	-0.10035275
56	0x3dcd84a4	0.10035065
57	0xbe22e896	-0.15909037
58	0xbbdc3d3c	-0.006721167
59	0x3ec40c39	0.38290575
60	0xbf296631	-0.66171557
61	0x3e6b17ef	0.22958349
62	0x3e93d2ad	0.2887167
63	0x3eafce02	0.3433686
64	0xbea65ed4	-0.32494223
65	0xbe964ab6	-0.29353875
66	0xbe44aa4c	-0.19205588
67	0xbedf129a	-0.4356888
68	0xbf20f14f	-0.6286821
69	0xbec7bd73	-0.39011726
70	0x3ef1a04a	0.47192603
71	0xbec4b16e	-0.38416618
72	0x3f010b95	0.504083
73	0xbefa98d1	-0.48944715
74	0xbd99f5e1	-0.07517601
75	0xbefa9293	-0.48939952
76	0x3f1dcf53	0.61644477
77	0x3dff15af	0.12455308
78	0x3f20cd61	0.62813383
79	0xbe1db66f	-0.15401624
80	0x3ebb3db2	0.36570507
81	0x3eccc21b	0.3999184
82	0xbe0f387c	-0.13986391
83	0xbea0415a	-0.3129986
84	0x3efb2e18	0.49058604
85	0xbda8434e	-0.08215962
86	0xbc5e3729	-0.013562956
87	0x3db24691	0.08704866
88	0xbeb109be	-0.34577745
89	0x3e4fbf70	0.20287871
90	0x3d081994	0.03322752
91	0xbed8182b	-0.4220594
92	0xbf242f72	-0.64134896
93	0x3e7c0567	0.24611436
94	0x3e7f1c20	0.24913073
95	0xbea88f13	-0.32921657
96	0x3d16d560	0.036824584
97	0xbe785964	-0.2425285
98	0x3f1048da	0.5636116
99	0x3e59718e	0.21234724
100	0xbedfe29a	-0.4372757
101	0xbe558fc9	-0.20855631
102	0xbe923277	-0.28554127
103	0x3eccad31	0.39975885
104	0x3e0ce578	0.1375941
105	0xbedda6a2	-0.43291193
106	0xbdefc3d3	-0.117072724
107	0x3e11e3fc	0.14247125
108	0xbdb51b4b	-0.08843096
109	0xbda04384	-0.078253776
110	0x3ef7162e	0.4825911
111	0x3d97f712	0.07420172
112	0x3e6b698e	0.22989485
113	0xbda4ff49	-0.08056504
114	0x3dc40b29	0.09572441
115	0xbf10200e	-0.5629891
116	0x3f23542a	0.638003
117	0xbe86eb1c	-0.2635125
118	0xbd292f9b	-0.041305166
119	0x3e20e507	0.15712367
120	0x3f030921	0.51185805
121	0xbdfa30a8	-0.12216312
122	0x3e9af824	0.3026744
123	0x3e9dc592	0.30814797
124	0xbcbe3b6d	-0.023221696
125	0x3f08ce40	0.5343971
126	0xbed0dce3	-0.40793523
127	0xbd4520aa	-0.048126854
128	0x3eb1e8e7	0.34748003
129	0x3f1837ee	0.5946034
130	0x3e5bb8c4	0.21457201
131	0xbe134e14	-0.14385253
132	0x3f0c2a84	0.54752374
133	0xbea416bf	-0.32048604
134	0x3f174ff7	0.5910639
135	0xbf05e62f	-0.5230436
136	0x3d783962	0.0606016
137	0xbc1729ca	-0.009226272
138	0x3f1ca74d	0.6119278
139	0x3ee7aab5	0.45247427
140	0xbedbb296	-0.42909688
141	0xbeff5288	-0.49867654
142	0x3e90082f	0.28131244
143	0xbe549110	-0.20758462
144	0x3bd0a80d	0.0063676895
145	0xbeac7419	-0.33682325
146	0xbe088fcd	-0.13336106
147	0xbd3373a7	-0.043811467
148	0x3f2a387b	0.6649243
149	0x3db5c6bd	0.08875797
150	0xbc5e5f83	-0.013572576
151	0xbd9e37cd	-0.07725487
152	0xbec838cd	-0.39105836
153	0xbc8aa758	-0.016925499
154	0x3ed08c95	0.40732256
155	0xbefa7f8f	-0.48925444
156	0x3efd1b50	0.494349
157	0xbe7d9fda	-0.2476801
158	0x3dc2a446	0.09503989
159	0x3f0b6bd2	0.54461396
160	0x3ee78b23	0.4522334
161	0xbe868de4	-0.2628013
162	0x3eb23cf4	0.3481213
163	0xbeb88c49	-0.3604453
164	0xbe91bb3e	-0.28463167
165	0xbdb16253	-0.08661332
166	0xbe662368	-0.22474444
167	0x3e1e0fcb	0.15435712
168	0x3eb16511	0.3464742
169	0x3e1095ee	0.14119694
170	0x3e87894e	0.26471943
171	0x3d8844c2	0.066537395
172	0xbe5cf2b7	-0.21576963
173	0x3e23a290	0.15979981
174	0x3eb1c50e	0.34720653
175	0xbe5b9275	-0.21442588
176	0x3e38b861	0.18039085
177	0x3f0b8ade	0.5450877
178	0xbf0ddfe2	-0.55419743
179	0x3d982c07	0.074302725
180	0x3d61ce66	0.055128478
181	0xbd989c56	-0.07451694
182	0xbecaad93	-0.39585552
183	0x3f0f078e	0.558709
184	0x3e4f5714	0.20248061
185	0xbe3af964	-0.18259197
186	0x3f1d0b55	0.61345416
187	0x3e5073bb	0.20356648
188	0x3f305720	0.6888294
189	0x3ed599f6	0.41719025
190	0xbf0409d9	-0.51577526
191	0xbf071c1d	-0.5277727
192	0xbe9b8a6b	-0.30379042
193	0xbd5c4844	-0.053779855
194	0xbed43569	-0.41447
195	0x3e748c90	0.23881745
196	0x3f11100c	0.5666511
197	0x3f0899bb	0.53359574
198	0x3ef4bf8e	0.47802395
199	0x3ee7eb03	0.45296487

input_layer.0.bias f4 [100]
0	0x3ead1ff5	0.33813444
1	0xbe09d3da	-0.13459721
2	0xbf00fea5	-0.50388557
3	0x3df359d4	0.11882368
4	0x3f14482b	0.5792262
5	0x3ea9f4e0	0.33194637
6	0x3eb7408e	0.3579144
7	0xbed0890e	-0.40729564
8	0x3ed37f0f	0.41307876
9	0x3f13b687	0.5770039
10	0x3f30c8bd	0.690563
11	0x3f0e1bd2	0.555112
12	0xbe921f61	-0.28539565
13	0xbe5b6786	-0.2142621
14	0x3cfb2674	0.030657984
15	0xbefaecca	-0.4900878
16	0x3f0cfa0e	0.55069053
17	0x3d2911ef	0.04127687
18	0xbe21abed	-0.1578824
19	0x3c912d17	0.017721696
20	0xbef24419	-0.4731758
21	0x3ee3d718	0.4450004
22	0xbee16a45	-0.4402639
23	0xbed73665	-0.42033687
24	0xbf44b44f	-0.7683763
25	0x3e3dca05	0.18534096
26	0xbd2f9299	-0.042864416
27	0x3ea3531c	0.31899345
28	0xbf2e8166	-0.68166196
29	0x3efc8779	0.49322107
30	0x3f373ebc	0.715801
31	0xbe7da9e2	-0.24771836
32	0x3e1ce3ca	0.1532127
33	0x3f20f04c	0.62866664
34	0x3f3289e5	0.6974166
35	0xbe879f07	-0.26488516
36	0xbf030e9b	-0.5119416
37	0x3f19b544	0.60042214
38	0xbeb3d588	-0.3512385
39	0x3ead8b7b	0.33895478
40	0x3eedf61c	0.4647683
41	0x3e6cef58	0.23138177
42	0x3ebb6371	0.36599305
43	0x3e13a22d	0.14417334
44	0xbe6b07e5	-0.2295223
45	0x3e95e892	0.29279
46	0xbf301428	-0.68780756
47	0xbe0ffb3b	-0.1406068
48	0x3ec25f65	0.37963405
49	0x3e4f4820	0.20242357
50	0xbe85eead	-0.26158658
51	0x3f3d29ea	0.7389208
52	0xbd3452f6	-0.04402443
53	0x3e61b922	0.22043279
54	0xbec9e972	-0.39435917
55	0xbf276693	-0.6539089
56	0x3e57965f	0.21053456
57	0x3e1940be	0.14966103
58	0x3f345599	0.7044311
59	0xbec4bd6f	-0.38425776
60	0xbefe65d1	-0.49687055
61	0x3f072460	0.5278988
62	0x3ddd7a6f	0.10814368
63	0x3ef06ea1	0.46959403
64	0x3ee7d60d	0.45280495
65	0xbeb7f8f7	-0.35932133
66	0x3cafa420	0.021440566
67	0x3f4a1378	0.78935957
68	0xbece63ab	-0.40310416
69	0x3ed4f123	0.41590223
70	0x3ed8111f	0.42200562
71	0xbc9e4eac	-0.019324623
72	0x3f2b0bb1	0.66814715
73	0x3eb8e770	0.36114073
74	0x3e8c4be6	0.27401656
75	0xbe3e1b34	-0.18565065
76	0x3f115e61	0.56784636
77	0x3ee51de3	0.44749364
78	0xbda91d29	-0.08257515
79	0xbe8a3cb2	-0.26999432
80	0x3ea926f6	0.33037537
81	0x3c21ac95	0.009867807
82	0x3f1c9bfa	0.611755
83	0xbf29cf98	-0.6633239
84	0xbd9b7aad	-0.07591758
85	0x3e14f1d1	0.1454537
86	0x3b210477	0.0024569312
87	0xbd77dbb5	-0.060512263
88	0x3f235f67	0.6381745
89	0xbe4ca780	-0.19985771
90	0x3e3a568f	0.18197082
91	0xbf3f4502	-0.7471467
92	0x3f1ef1a5	0.6208747
93	0xbedd8282	-0.43263632
94	0x3e9a3d27	0.3012478
95	0xbf1073f0	-0.56426907
96	0x3ecc4a26	0.3990032
97	0x3f00889c	0.5020845
98	0x3f144943	0.5792429
99	0xbecb75fd	-0.39738455

DGM1.gate_Z.0.weight f4 [100, 102]
0	0xbd1aafc1	-0.03776527
1	0xbdb983f2	-0.0905837
2	0xbbee88c8	-0.007279489
3	0x3dc1dd59	0.09466047
4	0x3da26bbb	0.07930704
5	0xbc7a96d7	-0.015294752
6	0xbca261df	-0.01982206
7	0xbabd5946	-0.0014446161
8	0x3d8624a5	0.06549958
9	0xbd962796	-0.07331769
10	0xbd8abce8	-0.06774312
11	0xbce39788	-0.027782217
12	0xbddd82d7	-0.10815971
13	0x3d631bcb	0.055446427
14	0xbd8e54c0	-0.069497585
15	0xbda0b84a	-0.0784765
16	0xbd352513	-0.04422481
17	0x3dbf853f	0.093515866
18	0xbce4d0a6	-0.027931523
19	0xbce21389	-0.027597206
20	0x3d5db134	0.054124072
21	0xbd9bd5a1	-0.07609106
22	0x3d038475	0.032108743
23	0xbd84fda9	-0.06493694
24	0xbd88780a	-0.06663521
25	0xbd8b688c	-0.0680705
26	0x3ceee5f0	0.029162377
27	0xbd3b989e	-0.045799844
28	0xbdb3baf7	-0.08775895
29	0xbd55b31a	-0.052172758
30	0xbd33989e	-0.04384672
31	0xbd0b6841	-0.03403497
32	0x3ce54a52	0.02798954
33	0x3d29682d	0.041359115
34	0xbdc55988	-0.09636217
35	0xbce891e9	-0.028389888
36	0xbd69296c	-0.05692427
37	0x3d61afbd	0.055099238
38	0x3d9c736b	0.07639202
39	0x3d492a14	0.049112394
40	0xba6a224d	-0.0008931503
41	0x3cdf8bcc	0.02728834
42	0xbcc4db5a	-0.024030376
43	0xbd3ab14f	-0.04557925
44	0x3bd606bf	0.006531566
45	0x3db0aa1d	0.086261965
46	0xbd06614b	-0.03280763
47	0xbd2fa664	-0.04288329
48	0xbcfeb780	-0.031093359
49	0xbd8a6586	-0.06757645
50	0x3da6b2de	0.08139585
51	0xbc1e8952	-0.009676294
52	0xbde7b63b	-0.113140546
53	0xbd07f90f	-0.033196505
54	0x3d9e7426	0.07736997
55	0x3d49ae77	0.04923865
56	0x3d48f620	0.049062848
57	0x3c942ae1	0.018086853
58	0x3d93f4f0	0.072244525
59	0x3d88dd7d	0.066828705
60	0x3c81f01e	0.015861567
61	0x3d540077	0.051758256
62	0xbd96d5ed	-0.07365022
63	0x3df179d9	0.11790819
64	0x3d42f28d	0.047594596
65	0xbda33945	-0.07969908
66	0xbb5e22d7	-0.0033895278
67	0x3c17d55d	0.009267178
68	0x3d885ff3	0.06658926
69	0xbd6fc1aa	-0.0585343
70	0xbd80a76b	-0.062819324
71	0x3dd39121	0.103304155
72	0xbc79c053	-0.015243608
73	0xbd267767	-0.040641215
74	0x3d0f075f	0.03491914
75	0x3cfcfd74	0.030882575
76	0xbd23f3c1	-0.040027384
77	0x3de7cecd	0.11318741
78	0xbd03e693	-0.032202315
79	0xbd5957b4	-0.053062156
80	0xbce79bfd	-0.028272623
81	0x3d6de696	0.058081232
82	0xbd5531fd	-0.052049626
83	0x3db35805	0.08757023
84	0x3d34964e	0.044088654
85	0xbd5129f1	-0.05106539
86	0x3d13987a	0.036034085
87	0x3d4c1445	0.049824018
88	0xbc8d2bbc	-0.017232768
89	0x3c338612	0.010957258
90	0xbd7168e6	-0.05893793
91	0xbd9bc365	-0.07605628
92	0x3ce5ff35	0.028075794
93	0x3d70573a	0.058676936
94	0xbddc3602	-0.10752489
95	0x3b5ec5d0	0.0033992417
96	0x3c03fc18	0.008055709
97	0xbde3dad9	-0.11125726
98	0x3d8a8c4c	0.06765041
99	0x3be3d6d3	0.0069530993
100	0xbd562bd0	-0.052287877
101	0x3ddd7303	0.10812952
102	0x3d97c872	0.07411279
103	0xbd6dffd6	-0.058105312
104	0xbd716cb6	-0.058941565
105	0x3dc549fa	0.096332505
106	0x3d49fbae	0.049312286
107	0x3c8b3378	0.016992316
108	0xbbc1ba6b	-0.0059121153
109	0x3db82f13	0.08993354
110	0x3c439959	0.011938416
111	0x3b001f1e	0.0019549797
112	0x3dc5b66a	0.09653933
113	0xbc21deaf	-0.009879752
114	0x3d6cf0e1	0.057846908
115	0xbd98e837	-0.074661665
116	0x3d87646d	0.066109516
117	0xbd94d70f	-0.07267582
118	0xbdac4adc	-0.08412716
119	0x3d8315c8	0.06400639
120	0xbc7db12e	-0.015484137
121	0x3d10c5c0	0.03534484
122	0x3d62ccf0	0.055371225
123	0x3de47bd6	0.11156432
124	0x3d42b8a3	0.047539365
125	0x3d0ca3d1	0.034335915
126	0x3ce31349	0.027719157
127	0xba1bc265	-0.0005941748
128	0x3cfd0755	0.030887285
129	0xbc929266	-0.017892074
130	0xbc96c966	-0.018406581
131	0xbda23f60	-0.07922244
132	0x3d275a40	0.040857553
133	0x3ca6c55c	0.02035778
134	0x3b15e928	0.0022874568
135	0xbda31683	-0.07963278
136	0x3d6af64e	0.0573638
137	0x3d116975	0.035500962
138	0x3b81c516	0.003960262
139	0x3d84095b	0.06447097
140	0x3cf9f475	0.030512074
141	0x3d8f5a24	0.06999615
142	0xbd954fa8	-0.07290584
143	0xbdaac03b	-0.08337446
144	0x3d1f7317	0.038928118
145	0x3db0fec5	0.086423434
146	0x3d348506	0.044072174
147	0x3c646f8e	0.013942612
148	0xbd455cc1	-0.04818416
149	0xbc3dd1e7	-0.011585689
150	0x3d443623	0.04790319
151	0x3d8153de	0.063148245
152	0xbd0a4985	-0.03376152
153	0xbd5643d0	-0.052310765
154	0xbb86001a	-0.0040893676
155	0xbd9dc07f	-0.07702731
156	0xbd04f33a	-0.03245852
157	0x3d9113aa	0.07083829
158	0xbc9566fa	-0.01823758
159	0x3d9405c9	0.07227666
160	0x3d48a19f	0.04898226
161	0xbc921ec6	-0.01783694
162	0x3d1a9e35	0.037748534
163	0x3910f990	0.0001382588
164	0x3dc69dd0	0.09698069
165	0x3c519b2a	0.012793342
166	0xbdbb18df	-0.09135603
167	0x3da62ca7	0.081139855
168	0xbdc2f985	-0.09520248
169	0xbd2c951d	-0.042134393
170	0xbd8d64e4	-0.06904009
171	0xbde16999	-0.11006469
172	0xbcb695bf	-0.022288201
173	0xbd5a047e	-0.05322694
174	0xbcfc3da0	-0.030791104
175	0xbde118e7	-0.10991078
176	0xbe05a327	-0.13050519
177	0xbd140f2f	-0.036147293
178	0xbd1e326b	-0.0386223
179	0x3ca15c71	0.0196974
180	0x3c81ebbd	0.01585948
181	0x3d7440d2	0.05963213
182	0xbc392547	-0.0113003915
183	0x3da586b6	0.08082335
184	0xbc2e248a	-0.010628829
185	0xbdd0011d	-0.10156462
186	0xbd1875e6	-0.03722181
187	0x3d072798	0.032996744
188	0x3d577d4b	0.052609723
189	0xbd963b43	-0.07335522
190	0x3dcee0dc	0.10101482
191	0xbcf44db3	-0.029822206
192	0x3c649dc4	0.01395363
193	0xbd6f014b	-0.058350842
194	0x3d7ac967	0.06122723
195	0x3dc62b27	0.096761994
196	0x3cc39314	0.023873843
197	0xbd146377	-0.03622767
198	0x3d37175e	0.04470002
199	0x3d1d5eaf	0.038420375
200	0x3cec951e	0.028879698
201	0xbdb040a8	-0.08606082
202	0x3db35014	0.08755508
203	0xbb0380e1	-0.0020065831
204	0xbd299cff	-0.04140949
205	0xbc4355a2	-0.011922272
206	0xbdda4343	-0.106573604
207	0xbcf73dfd	-0.030180926
208	0x3de1d7f9	0.11027522
209	0x3d801224	0.0625346
210	0xbd9632ad	-0.073338844
211	0xbd724828	-0.059150845
212	0x3d873065	0.066010274
213	0x3d637a98	0.055536836
214	0xbd9e2a02	-0.07722856
215	0xbda8bdc0	-0.08239317
216	0x3bea1ca1	0.007144526
217	0xbbc0b079	-0.005880412
218	0x3db1a140	0.08673334
219	0xbda0354a	-0.07822664
220	0xbd873c50	-0.066033006
221	0x3d4a3a4d	0.049372006
222	0xbb604556	-0.0034221015
223	0xbd638948	-0.055550843
224	0x3d21274e	0.039344124
225	0xbd97e659	-0.07416982
226	0xbd5d7f03	-0.054076206
227	0xbd348ef8	-0.044081658
228	0xbceee2ce	-0.029160883
229	0x3cf8c9e1	0.0303697
230	0xbd01bf73	-0.03167672
231	0x3c0db3f3	0.00864886
232	0xbcf0abad	-0.029378736
233	0x3be90210	0.0071108416
234	0x3d9e88ae	0.07740913
235	0xbde718ca	-0.11284025
236	0xbd0128ee	-0.031533174
237	0x3dcb674f	0.09931814
238	0xbd0497f0	-0.03237146
239	0xbdb792c8	-0.08963543
240	0xbd99e0bc	-0.07513568
241	0x3d73613e	0.05941891
242	0xbc98b304	-0.018640049
243	0xbda74874	-0.08168116
244	0xbda63a55	-0.08116595
245	0xbd9c7f8e	-0.076415166
246	0xbc7db22d	-0.015484375
247	0xbd307bb3	-0.04308672
248	0xbde14a0e	-0.11000453
249	0xbdb50454	-0.08838716
250	0xbcb51c51	-0.022108229
251	0xbc48c6bd	-0.012254414
252	0x3da0bcb9	0.07848496
253	0xbcf84235	-0.030305007
254	0xbd54e7b6	-0.05197879
255	0x3c90d2cc	0.01767864

DGM1.gate_Z.0.bias f4 [100]
0	0xbd6b1ba5	-0.05739941
1	0x3d23a64f	0.039953526
2	0xbe2f391f	-0.17111634
3	0x3c88410b	0.016632577
4	0x3c7f6880	0.01558888
5	0x3d7ca137	0.061677184
6	0x3ccacd0b	0.024755975
7	0x3dce8933	0.100847624
8	0xbc0bd208	-0.008533962
9	0xbc2aaeda	-0.010417664
10	0x3d6ee334	0.058322147
11	0x3da1cad5	0.07900015
12	0xbd9f22d0	-0.07770312
13	0x3db613fb	0.0889053
14	0x3d65f3e4	0.056140795
15	0x3ccbb9a6	0.024868798
16	0xbd84394a	-0.064562395
17	0xbd6a2622	-0.057165273
18	0xbc7dfe2a	-0.015502492
19	0xbd00d223	-0.031450402
20	0x3d261b0a	0.04055313
21	0xbddb4d73	-0.10708132
22	0x3d959d9c	0.07305452
23	0x3c82e37a	0.01597761
24	0x3d4ec6b9	0.050482485
25	0xbe073862	-0.13205102
26	0x3d9db62f	0.077007644
27	0x3da1c151	0.078982
28	0x3d06ef11	0.032942835
29	0x3d0d0d10	0.034436285
30	0xbbc04f64	-0.005868839
31	0x3d141067	0.036148455
32	0x3d8e2edf	0.06942534
33	0xbd545212	-0.05183608
34	0xbc018e09	-0.007907399
35	0xbd3a757d	-0.0455222
36	0x3e001e50	0.12511563
37	0x3c7f9ffb	0.015602107
38	0xbde48914	-0.11158958
39	0x3d8a2c69	0.06746752
40	0xbd120e07	-0.03565791
41	0x3dcd3df5	0.10021583
42	0x3df084ed	0.117441036
43	0x3d45dede	0.048308246
44	0x3c8807e5	0.016605327
45	0x3cc63ed3	0.024199879
46	0xbcda1249	-0.026620047
47	0xbd91d092	-0.0711986
48	0xbd5e5a68	-0.054285437
49	0x3d543fa9	0.051818524
50	0x3db2b0ec	0.087251514
51	0x3dfd9a09	0.123828955
52	0x3dd18ce4	0.10231951
53	0xbd9310b3	-0.071809195
54	0xbdaf50b8	-0.08560318
55	0xbd07a807	-0.033119228
56	0xbd57db9b	-0.052699666
57	0x3d01e130	0.031708896
58	0xbdf19d46	-0.11797576
59	0x3d9eea78	0.07759565
60	0xbda466d5	-0.08027426
61	0xbc637bae	-0.013884468
62	0x3e20ad00	0.15690994
63	0x3dda4b60	0.10658908
64	0xbda982fe	-0.08276938
65	0xbde9d9b1	-0.114184745
66	0x3da4d4a2	0.08048369
67	0xbd90d1c0	-0.07071257
68	0x3cae540c	0.021280311
69	0x3e0851e8	0.13312495
70	0x3d883bf3	0.066520594
71	0xbdbca08a	-0.09210308
72	0xbddd9aa3	-0.1082051
73	0x3d17e891	0.037087027
74	0x3c7210ae	0.014774485
75	0x3dca4cba	0.09877916
76	0xbd4fb7dc	-0.05071245
77	0x3d0f7301	0.035021786
78	0x3b1d3a1c	0.0023990935
79	0xbcd3978f	-0.025829105
80	0x3d72395a	0.059136726
81	0xbcc00475	-0.023439625
82	0xbc229fce	-0.009925796
83	0x3e0140e0	0.12622404
84	0xbddb1151	-0.10696662
85	0x3ae60bce	0.0017551125
86	0x3d8cdd32	0.06878127
87	0x3d67773e	0.056510203
88	0xbd0db567	-0.034596827
89	0x3d810e2d	0.06301532
90	0x3bd5ff29	0.0065306616
91	0xbc3424da	-0.010995114
92	0x3cd56818	0.026050612
93	0x3da42769	0.080153294
94	0x3e222d38	0.15837562
95	0x3dcce60c	0.100048155
96	0x3d37e0a5	0.044891972
97	0xbc2614bf	-0.010136782
98	0x3d335e3e	0.04379105
99	0xbd53bd71	-0.051694337

DGM1.gate_G.0.weight f4 [100, 102]
0	0xbdc2fa07	-0.09520345
1	0xbba94f4d	-0.005166924
2	0xbc83d76d	-0.016093934
3	0x3da281d8	0.07934922
4	0xbe05e1f5	-0.13074477
5	0xbd311b84	-0.04323913
6	0x3dd994d8	0.10624093
7	0x397cc310	0.00024105259
8	0xbcc229fc	-0.02370166
9	0x3c1ae1e5	0.0094532715
10	0xbc8dc004	-0.017303474
11	0xbd9cc714	-0.07655159
12	0x3cc9a5ba	0.024615157
13	0x3dc4da3c	0.096119374
14	0xbd5b2145	-0.053498525
15	0xbd15f00e	-0.036605887
16	0x3dd4d2a9	0.10391743
17	0xbccfcaf5	-0.025365332
18	0xbd2a6a07	-0.04160502
19	0x3db65221	0.089023836
20	0xbe00ea34	-0.12589341
21	0xbd1d40c5	-0.038391847
22	0xbdfe14b9	-0.12406296
23	0x3db869e8	0.09004575
24	0xbc91a241	-0.017777564
25	0xbcd900bb	-0.026489606
26	0xbd4d4289	-0.05011228
27	0x3d6bb811	0.057548586
28	0xbd321008	-0.04347232
29	0xbd7f2896	-0.062294565
30	0xbdd9592d	-0.10612712
31	0x3acc9568	0.0015608491
32	0xbd2988a0	-0.04139006
33	0x3d2fe8e2	0.042946704
34	0x3dd36fb3	0.10324039
35	0x3df6cd0d	0.12050829
36	0x3de031c9	0.10946996
37	0x3dcb1138	0.099153936
38	0xbbd3a032	-0.0064583058
39	0x3de7ed31	0.113245375
40	0x3c5bd15a	0.0134166125
41	0xbd8eba96	-0.06969182
42	0x3d93991a	0.07206936
43	0xbd53b5ed	-0.05168717
44	0x3b0ab37b	0.0021164108
45	0x3ca9b01b	0.020713856
46	0xbdb9c48d	-0.09070692
47	0x3e05b61e	0.13057753
48	0xbdd0fc6a	-0.10204394
49	0xbca949e0	-0.02066511
50	0xbcc8f7fd	-0.024532313
51	0xbda2d625	-0.07951001
52	0x3b850625	0.0040595704
53	0xbbd9098c	-0.0066234525
54	0xbd005047	-0.03132656
55	0xbdcbaf7a	-0.09945579
56	0xbdb249bf	-0.08705472
57	0xbccab39e	-0.024743851
58	0xbcb9fb77	-0.022702916
59	0x3d83e425	0.064399995
60	0x3dd77ca5	0.10521821
61	0xbd9b5032	-0.075836554
62	0xbd84130f	-0.06448948
63	0x3da549c8	0.08070713
64	0x3d63edda	0.055646755
65	0x3dc56301	0.09638024
66	0xbd7e89ad	-0.062143017
67	0xbd4ffd85	-0.050778884
68	0x3d99cf85	0.07510284
69	0xbc57d0c2	-0.01317233
70	0xbe0a0b36	-0.13480839
71	0x3deaca0c	0.11464319
72	0x3db6238b	0.08893498
73	0xbd5b9e99	-0.053618047
74	0x3abadb2f	0.0014255996
75	0x3d799b89	0.060939346
76	0xbd1e1895	-0.038597662
77	0x3cadef18	0.021232173
78	0x3d5c392b	0.053765457
79	0xbcaad504	-0.020853527
80	0xbae97a36	-0.0017812911
81	0xbcf9e84a	-0.030506272
82	0x3d0adba1	0.03390086
83	0x3deec051	0.11657775
84	0xbcb06369	-0.021531777
85	0xbc92fbc0	-0.01794231
86	0xbd943c25	-0.07238034
87	0x3da0cf82	0.07852079
88	0xbc307393	-0.010769743
89	0x3dd4eb9a	0.103965
90	0xbd0c32f9	-0.0342283
91	0x3d57656b	0.052586954
92	0xbd73ab78	-0.059489697
93	0x3d3ea52e	0.046544246
94	0xbd68107c	-0.056656346
95	0xbcef1ba2	-0.029187981
96	0x3d82d76d	0.063887455
97	0xbd8d526a	-0.06900485
98	0x3b933bc6	0.0044932095
99	0x3dc1307c	0.09433076
100	0x3d36c481	0.044620994
101	0xbcca687d	-0.024708027
102	0xbd8dd34a	-0.06925066
103	0x3da15f7d	0.07879541
104	0x3cbad3c4	0.022806056
105	0x3c834367	0.01602335
106	0xbca244b7	-0.019808156
107	0xbd8a6526	-0.06757574
108	0x3ddb8cd1	0.10720218
109	0xbd320a2d	-0.043466736
110	0x3db055a7	0.08610087
111	0x3da579bb	0.08079859
112	0xbc3936b0	-0.011304542
113	0x3ddd28d5	0.10798804
114	0x3da48ec0	0.0803504
115	0xbd0dbdea	-0.034604944
116	0xbda2ab1b	-0.07942792
117	0x3d5d06e4	0.05396165
118	0x3d12ceea	0.03584186
119	0x3c8e62c4	0.01738108
120	0x3dd931c4	0.10605195
121	0x3da7adb6	0.081874296
122	0x3d954d77	0.07290166
123	0xbcdb8cd6	-0.026800554
124	0x3d8e0cda	0.06936045
125	0x3d151860	0.0364002
126	0x3d411dba	0.04714749
127	0xbc2ed8c2	-0.010671796
128	0xbd6a9bd7	-0.057277527
129	0x3ce1706e	0.027519431
130	0x3d02bbff	0.03191757
131	0xbd2c1a92	-0.042017527
132	0x3d2a4ae8	0.041575342
133	0x397026c8	0.00022902631
134	0x3d452237	0.048128333
135	0xbc27370c	-0.010205995
136	0x3d8be176	0.06830113
137	0xbd8ffaf5	-0.07030288
138	0xbd547fce	-0.051879697
139	0x3d920ab2	0.07130946
140	0x3d605a6a	0.054773726
141	0x3d533ef8	0.051573724
142	0x3dbe7db3	0.09301319
143	0x3d8fb6b5	0.070172705
144	0x3cbd59a0	0.023114026
145	0x3dd4be0c	0.10387811
146	0xbda109e1	-0.078632124
147	0xbd9bdca8	-0.07610446
148	0xbdcef333	-0.1010498
149	0x3d97c84d	0.07411251
150	0x3d0f4f66	0.03498783
151	0xbd2d3cbf	-0.04229426
152	0xbc6f79c1	-0.014616431
153	0x3d25ef73	0.04051156
154	0xbd8c2b9b	-0.068442546
155	0x3d827b22	0.06371142
156	0x3d483a42	0.048883684
157	0x3d7a212d	0.061066795
158	0xbdc04af8	-0.09389299
159	0xbc54662f	-0.012963816
160	0xbd42fb7e	-0.047603123
161	0x3d59aef1	0.053145353
162	0x3b8aedaf	0.00423976
163	0xbdbfce3d	-0.09365509
164	0xbcb0e846	-0.021595132
165	0x3d56ba38	0.052423686
166	0x3cf45889	0.029827373
167	0x3d13deaa	0.03610102
168	0x3dc9fc92	0.09862627
169	0xbd2b101f	-0.04176342
170	0x3d8df320	0.06931138
171	0x3dbb207a	0.09137054
172	0xbd00f121	-0.03147996
173	0x3ca329a9	0.019917326
174	0xbd2384fa	-0.03992174
175	0x3d808025	0.06274442
176	0x3d37dbe1	0.044887427
177	0x3e0c5c2d	0.13707037
178	0x3d2ff127	0.04295459
179	0xbc90cb7c	-0.017675154
180	0xbbbcfc67	-0.0057673934
181	0x3c8f879f	0.017520724
182	0x3cf745a8	0.030184582
183	0xbd9e85c3	-0.07740357
184	0x3ce66e65	0.028128812
185	0xbd47883d	-0.04871391
186	0x3d9e72b1	0.077367194
187	0xbde41d34	-0.111383826
188	0xbda8960c	-0.08231744
189	0xbc7f3ac9	-0.01557798
190	0x3daeccbb	0.08535143
191	0x3d2d575d	0.042319644
192	0xba65e0ac	-0.00087691355
193	0x3d08f16f	0.033433374
194	0x3c098dd3	0.00839563
195	0xbde146a3	-0.10999801
196	0xbb90b0f2	-0.004415625
197	0xbdacf786	-0.08445649
198	0xbd344788	-0.04401353
199	0xbd17ea6e	-0.037088804
200	0xbd993afe	-0.07481955
201	0x3c27bc4f	0.010237767
202	0xbd4fa1a9	-0.05069128
203	0x3ca46264	0.020066448
204	0xbd23fbc5	-0.040035028
205	0x3dd7aa6e	0.10530554
206	0xbd691ee7	-0.056914236
207	0xbdbbb36d	-0.09165082
208	0xbdf94915	-0.121721424
209	0xbd85ac2a	-0.06526978
210	0x3de655c6	0.11246829
211	0xbd4488e3	-0.047982108
212	0xbd97477d	-0.07386682
213	0xbcbe0169	-0.023194032
214	0x3da4d37c	0.0804815
215	0x3d9ed9fd	0.07756422
216	0x3cb777fd	0.022396082
217	0x3d000399	0.03125343
218	0x3d725e59	0.05917201
219	0x3d49ed13	0.049298357
220	0x3ddd6810	0.10810864
221	0xbd9bebcb	-0.07613333
222	0x3d8f0423	0.06983211
223	0x3db6be24	0.08922985
224	0x3d663d51	0.05621082
225	0x3d1d129a	0.038347818
226	0xbd250f1b	-0.04029761
227	0x3de69751	0.1125933
228	0xbbba19ef	-0.005679361
229	0x3db3b7fa	0.08775325
230	0xbc406a1f	-0.011744051
231	0xbd3aca34	-0.045602992
232	0xbc04714c	-0.008083653
233	0xbceab0f9	-0.02864884
234	0xbcc61972	-0.024182055
235	0x3d95bf2b	0.07311853
236	0x3d55816f	0.05212539
237	0xbd9efe07	-0.077632956
238	0x3d1d35f3	0.038381528
239	0x3d534460	0.05157888
240	0x3d2906dd	0.04126631
241	0xbcf8b7e3	-0.030361122
242	0x3d88a5e4	0.06672266
243	0xbb91b3d3	-0.0044464855
244	0x3d70ada8	0.05875936
245	0x3db86a1f	0.09004616
246	0xbd347955	-0.044061024
247	0x3b9f8b54	0.004868904
248	0x3deaca9f	0.11464428
249	0xbd641b35	-0.05569001
250	0xbdbc80ee	-0.09204279
251	0xbce5d049	-0.02805342
252	0xbd219f1f	-0.03945839
253	0x3d15fb3d	0.036616553
254	0x3d031d35	0.032010276
255	0x3de018f6	0.10942261

DGM1.gate_G.0.bias f4 [100]
0	0x3daac6eb	0.08338722
1	0x3c702144	0.014656369
2	0x3e10462a	0.14089265
3	0x3df0ba7d	0.1175432
4	0x3dd44864	0.1036537
5	0x3dda420c	0.10657129
6	0x3dffbd7f	0.124873154
7	0xbcef4875	-0.029209355
8	0xbba57f4c	-0.0050505754
9	0x3d4a0471	0.049320642
10	0x3d8646b4	0.06556454
11	0x3dd81c9c	0.10552332
12	0xbd2aacc9	-0.041668687
13	0x3c973e81	0.018462421
14	0x3c9559f7	0.018231375
15	0x3db597cf	0.08866846
16	0x3d7d38a4	0.061821595
17	0x3daf9c2c	0.08574709
18	0xbd3bded5	-0.045866806
19	0xbca3d2ea	-0.019998033
20	0x3dff4a0a	0.12465294
21	0xbcb0186d	-0.021496022
22	0x3d9703ab	0.073737465
23	0x3e153f64	0.14574963
24	0x3dcf69f4	0.10127631
25	0x3dba1a3f	0.09087037
26	0xbce4bd59	-0.02792232
27	0x3c436026	0.011924779
28	0x3d6006e3	0.054694068
29	0xbcdb9208	-0.026803032
30	0x3d7e27ec	0.06204979
31	0xbcc1ea30	-0.02367124
32	0x3e11a2be	0.14222237
33	0x3de3b6e1	0.11118866
34	0xbd3dc2ab	-0.046328228
35	0x3bca81be	0.0061800173
36	0x3d5eed8e	0.05442577
37	0x3dfb4cd8	0.12270516
38	0x3a78f92a	0.00094975776
39	0xbd55798e	-0.052117877
40	0xbabeee44	-0.0014566858
41	0xbc9e2550	-0.019304901
42	0x3c0f901e	0.008762388
43	0xbc5b3bc9	-0.013380953
44	0x3c7c06f6	0.015382519
45	0x3d90ecf4	0.07076445
46	0x3d1f3948	0.038872987
47	0x3d9be677	0.07612317
48	0x3cd300e5	0.025757262
49	0x3dbeb343	0.09311535
50	0x3ca06fa8	0.019584492
51	0x3d604796	0.05475577
52	0x3d1046e6	0.035223864
53	0x3d4cbbf2	0.049983926
54	0x3bf3bffc	0.007438658
55	0x3d4d1ae3	0.05007447
56	0x3d9a85a9	0.07545025
57	0x3ddfd824	0.109298974
58	0x3de68e6c	0.112576336
59	0xbc922d17	-0.017843766
60	0x3df7013a	0.12060781
61	0xbc6f26f8	-0.014596693
62	0xbd112330	-0.035433948
63	0xbd091ced	-0.03347485
64	0x3ddfee28	0.109340966
65	0x3d1728b5	0.036904056
66	0xbd99a015	-0.07501236
67	0x3d9d7082	0.07687475
68	0x3d80d76e	0.0629109
69	0x3e34a318	0.1764034
70	0xbd348232	-0.044069476
71	0x3e1909ab	0.14945094
72	0x3bdbfc65	0.0067134374
73	0x3da9ec83	0.08297064
74	0x3e1b87df	0.1518855
75	0x3df05ce8	0.117364705
76	0xbd943e01	-0.07238389
77	0x3d25b59b	0.040456396
78	0x3ddd2805	0.10798649
79	0x3e11b1f6	0.14228043
80	0x3d3e0dd0	0.04639989
81	0xbd15997c	-0.036523327
82	0x3dd3894c	0.10328922
83	0x3c654677	0.013993851
84	0xbcd3a1fc	-0.025834076
85	0x3e012c8e	0.12614653
86	0x3d9f8853	0.07789674
87	0x3d5d8208	0.054079086
88	0x3d6fd4cf	0.05855256
89	0xbcbf37f8	-0.023342118
90	0x3d9065ed	0.07050691
91	0x3e1b47c5	0.15164097
92	0x3e37ee83	0.17962079
93	0xba500c4f	-0.00079364044
94	0x3e1940ac	0.14966077
95	0xbcc5e425	-0.02415664
96	0xbd0e9d70	-0.034818113
97	0x3dd2586a	0.1027077
98	0x3db47946	0.088121936
99	0x3e20255f	0.15639256

DGM1.gate_R.0.weight f4 [100, 102]
0	0x3c3dc3b3	0.011582303
1	0xbd513178	-0.051072568
2	0xbdb520d4	-0.08844152
3	0x3da854ae	0.08219276
4	0xbd491a4c	-0.049097344
5	0xb9b5df41	-0.00034689347
6	0x3ca76c73	0.020437455
7	0x3d97be0f	0.07409298
8	0xbdb52a5e	-0.088459715
9	0x3d4b5eb0	0.049650848
10	0xbd03f5fa	-0.032217003
11	0xbd808d97	-0.06277006
12	0xbd506931	-0.05088157
13	0x3db15bf4	0.08660117
14	0x3c5c35e1	0.01344058
15	0xbdb8458d	-0.08997641
16	0x3d5bc17d	0.05365132
17	0x3cf711bb	0.030159822
18	0xbbeff9ed	-0.0073234946
19	0x3d4522c7	0.04812887
20	0xbd0fd94f	-0.03511935
21	0x3c42a733	0.011880684
22	0xbd73e4d2	-0.059544392
23	0x3cbd6c77	0.02312301
24	0x3dbe0511	0.0927831
25	0xbd5b8498	-0.053593248
26	0x3d10c52c	0.035344288
27	0x3cd36038	0.025802717
28	0x3c94728e	0.01812103
29	0x3c8320b1	0.0160068
30	0x3dc42eeb	0.095792614
31	0xbcb4d986	-0.02207638
32	0x3cf29567	0.029612256
33	0xbccf0130	-0.025269121
34	0xbd1ed3c0	-0.03877616
35	0x3c29e15d	0.010368672
36	0x3be3b67a	0.006949243
37	0x3da0f40a	0.07859047
38	0xbc69af0b	-0.014262925
39	0xbc42c66c	-0.011888128
40	0x3d9086d1	0.07056964
41	0xbd5fc6a8	-0.054632813
42	0x3db84cfc	0.089990586
43	0xbdc96ebf	-0.09835576
44	0xbc7faf6e	-0.015605791
45	0xbd8c0326	-0.06836538
46	0xbdac3e6e	-0.08410345
47	0x3d8c92ca	0.06863935
48	0x3d2e15c9	0.042501245
49	0x3d3f4492	0.046696253
50	0x3bae9e2b	0.0053289137
51	0xbdbd74c4	-0.09250787
52	0xbcac8656	-0.02106015
53	0x3da37263	0.07980802
54	0xbd3dac92	-0.046307154
55	0xbda9056a	-0.08252986
56	0xbd68515b	-0.05671821
57	0xbd11bb5a	-0.035579063
58	0xbd8565b3	-0.06513538
59	0x3cc35b16	0.023847144
60	0xbda5538e	-0.080725774
61	0xbd4e1607	-0.050313976
62	0x3d9bf881	0.07615758
63	0xbdb6d3cc	-0.08927116
64	0x3d405664	0.04695739
65	0xbc4f82ea	-0.01266549
66	0xbd841f8e	-0.06451331
67	0xbdb7e52c	-0.08979258
68	0x3d9b28fe	0.07576178
69	0x3c0cd06d	0.008594614
70	0xbd8e4a51	-0.069477685
71	0x3da39a1f	0.07988381
72	0x3d0ebfed	0.034851003
73	0x3d76f029	0.06028763
74	0x3d9060cd	0.07049713
75	0x3cc3963f	0.023875354
76	0xbce37946	-0.027767789
77	0xbd184391	-0.03717381
78	0xbd259acd	-0.040430833
79	0x3da79606	0.081829116
80	0xbd96eb97	-0.07369154
81	0xbd4f1426	-0.050556324
82	0x3cefc6e0	0.029269636
83	0x3c96b1f4	0.018395402
84	0x3da679f4	0.081287295
85	0xbae7f4dc	-0.0017696875
86	0xbd892a98	-0.06697577
87	0xbc9e932e	-0.01935729
88	0x3d83fa36	0.06444208
89	0x3acfef2c	0.0015864125
90	0x3de5a1df	0.11212515
91	0xbc624dc9	-0.013812491
92	0xbd0a8f90	-0.033828318
93	0x3d89effe	0.06735228
94	0xbd81b55b	-0.06333419
95	0x3c9f3fd3	0.019439613
96	0x3d82ede8	0.06393033
97	0xbdc5cfb9	-0.096587606
98	0x3d6dc4b3	0.058048915
99	0xbce6ac97	-0.02815847
100	0x3d91297f	0.07087993
101	0xbd771dc8	-0.060331136
102	0xbe07f4fb	-0.13277046
103	0x3d490f09	0.049086604
104	0xbdcb93ab	-0.09940275
105	0xbc9d59ad	-0.0192078
106	0x3d33e9a3	0.043923985
107	0x3cc2a3d9	0.02375977
108	0x3cce241c	0.025163703
109	0xbd7c99e2	-0.06167019
110	0xbc898f9b	-0.01679211
111	0xbd737ec3	-0.05944706
112	0xbd3362ff	-0.043795582
113	0xbc976b65	-0.018483827
114	0x3c6a4fac	0.014301222
115	0xbda83526	-0.08213262
116	0x3dba90fb	0.09109684
117	0xbdc65170	-0.09683502
118	0xbd51cf8e	-0.05122333
119	0x3cb6fb55	0.022336641
120	0xbc9eaa52	-0.019368324
121	0xbdb5f14d	-0.08883915
122	0x3daad1b6	0.083407804
123	0xbd5c0ac4	-0.053721204
124	0x3cc83414	0.024438895
125	0xbdbf99c3	-0.093554996
126	0x3d460eec	0.048354074
127	0xbcb03a88	-0.021512285
128	0xbd4780e2	-0.048706897
129	0xbd23fb7b	-0.040034752
130	0x3d4bd19e	0.049760453
131	0xbd6afb68	-0.057368666
132	0xbd8a35b8	-0.06748527
133	0xbd0702fb	-0.032961827
134	0xbdbb078b	-0.09132298
135	0xbda28edb	-0.07937404
136	0xbdc2482a	-0.094864205
137	0xbd7e73c3	-0.062122118
138	0xbda998eb	-0.0828112
139	0xbd3e110d	-0.04640298
140	0x3dc2bc33	0.095085524
141	0x3dc4d8eb	0.09611686
142	0x3d911850	0.07084715
143	0x3d8843b0	0.06653535
144	0x3d161c60	0.036648154
145	0xbc9d2c2f	-0.019186107
146	0x3cdc5611	0.026896508
147	0x3be2dbab	0.006923159
148	0x3c9d68bf	0.019214986
149	0x3da34c96	0.07973592
150	0xbdee6a8e	-0.116414174
151	0xbd7f08f1	-0.062264387
152	0xbcc5ac18	-0.024129912
153	0x3de1ff57	0.1103503
154	0xbd5742a7	-0.0525538
155	0xbdc95a71	-0.098317035
156	0xbc39eee3	-0.011348459
157	0xbdb9285d	-0.09040902
158	0x3cdd99e0	0.027050912
159	0x3d7671c3	0.060167085
160	0xbd517aab	-0.051142376
161	0xbb06b922	-0.0020557125
162	0xbb7f7469	-0.0038979298
163	0xbd118f55	-0.035537083
164	0x3d4d253b	0.050084334
165	0x3cc369ea	0.023854215
166	0x3d3dfc9b	0.04638348
167	0x3da72253	0.08160844
168	0x3ca2cb28	0.019872263
169	0xbd9730ec	-0.07382378
170	0x3cf42bf0	0.029806107
171	0x3d816941	0.06318904
172	0xbc14f192	-0.009090798
173	0xbc7fca4a	-0.015612194
174	0xbd028204	-0.031862274
175	0x3d613470	0.05498165
176	0xbcb89041	-0.022529723
177	0x3d483108	0.048874885
178	0x3d7c6b8b	0.061626
179	0xbc79b09f	-0.015239864
180	0x3d578104	0.052613273
181	0xbd37df2d	-0.04489057
182	0x3d089805	0.033348102
183	0xbd9e0acf	-0.07716905
184	0x3be60d95	0.007020662
185	0x3d55ae2e	0.052168064
186	0xbafef263	-0.0019450899
187	0x3d2e272f	0.042517837
188	0x3d491ddb	0.049100738
189	0xbcc2289e	-0.023701008
190	0x3d9b6cb3	0.07589092
191	0x3b02dbb1	0.0019967372
192	0x3d002186	0.03128197
193	0x3d3493be	0.04408621
194	0x3d5aeac5	0.05344655
195	0xbd0a00ee	-0.033692293
196	0x3c4146ee	0.011796696
197	0x3d21ff86	0.039550327
198	0xbc6a4751	-0.01429923
199	0x3d1a1cb0	0.037625015
200	0xbdb7438a	-0.08948429
201	0xbd9243a1	-0.071418054
202	0xbd522b05	-0.051310558
203	0x3dcf56a4	0.10123947
204	0xbd4eed0d	-0.050519038
205	0xbdc67b0e	-0.096914396
206	0x3d9ff8fc	0.07811162
207	0xbc308045	-0.010772769
208	0xbd5abb32	-0.05340118
209	0xbcfef54d	-0.031122828
210	0x3dc38fbd	0.095489
211	0xbd3576c6	-0.044302724
212	0x3dac0fa4	0.08401421
213	0xbceb25d3	-0.02870456
214	0xbdb31d08	-0.08745772
215	0x3d92efaf	0.07174622
216	0xbd6e7323	-0.05821527
217	0x3d3ba489	0.04581121
218	0xbda83eb1	-0.082150824
219	0x3cc74b61	0.024327936
220	0x3d90eb93	0.07076182
221	0xbc9a64e2	-0.018846933
222	0xbcf4799c	-0.029843144
223	0x3c1a72db	0.009426798
224	0xbcef1bb3	-0.029188013
225	0xbc33655f	-0.010949462
226	0x3dfe8b1b	0.12428876
227	0xbd5b8d12	-0.053601332
228	0x3d906889	0.070511885
229	0xbd9666d8	-0.07343835
230	0xbd4ce2e3	-0.050021064
231	0xbd533909	-0.051568065
232	0xbc8e0fc2	-0.017341498
233	0x3d6d80ec	0.057984278
234	0xbce5719a	-0.028008271
235	0x3b6aad28	0.0035808776
236	0x3a7753ae	0.00094347715
237	0xbd246a42	-0.040140398
238	0x3c1711fe	0.009220598
239	0x3c889c22	0.016676012
240	0xbd59d832	-0.053184696
241	0xbba20492	-0.0049443925
242	0x3d017de6	0.031614207
243	0xbd5ad76d	-0.053428102
244	0x3d4283c1	0.04748893
245	0x3ddb6908	0.107133925
246	0x3e00a8f1	0.12564446
247	0xbd3612b1	-0.04445142
248	0x3d88f52c	0.06687388
249	0xbd30d46d	-0.043171335
250	0xbb898089	-0.004196231
251	0xbddd67a5	-0.10810784
252	0xbdec0158	-0.11523694
253	0x3d9f4cc6	0.07778315
254	0xbd20c575	-0.03925081
255	0x3ce64489	0.028108852

DGM1.gate_R.0.bias f4 [100]
0	0xbd697038	-0.056991786
1	0xbda3aec2	-0.07992317
2	0xbbe2feaa	-0.006927331
3	0x3da9856e	0.08277403
4	0xbb0154b9	-0.0019734337
5	0xbd600cc7	-0.054699685
6	0xbd063a6c	-0.03277056
7	0x3d8c7c0f	0.068596
8	0x3d2f35f5	0.042776067
9	0xbc8b31c9	-0.016991513
10	0xbc87fbe3	-0.016599601
11	0x3d928e1c	0.071560115
12	0x3d6a0827	0.05713668
13	0xbd42b86e	-0.047539167
14	0xbd4a6e3a	-0.049421526
15	0xbd3662ed	-0.044527937
16	0xbd53f340	-0.051745653
17	0x3d2e498e	0.042550616
18	0xbbca4448	-0.0061726905
19	0x3c4722ec	0.012154322
20	0xbd95d0a7	-0.07315188
21	0x3ce266a1	0.027636828
22	0xbd62839b	-0.05530129
23	0x3c079328	0.008274831
24	0xbe29185d	-0.165132
25	0xbd073fea	-0.033019938
26	0xbce0b0c5	-0.02742804
27	0xbdfbd599	-0.122966
28	0x3d654c5a	0.055981018
29	0xbc42d8af	-0.011892482
30	0x3d8f3eff	0.069944374
31	0x3c444c0a	0.01198102
32	0x3d49ddc6	0.049283765
33	0xbde797de	-0.11308263
34	0x3df578ef	0.11985957
35	0x3d1a2798	0.037635416
36	0x3da3767b	0.07981583
37	0x3d6f43a2	0.05841411
38	0xbd1e2349	-0.03860787
39	0xbe0bf708	-0.13668454
40	0xbdf80884	-0.12110999
41	0xbd7b43c1	-0.061343912
42	0x3cdc8d4e	0.026922848
43	0x3d546c30	0.05186099
44	0xbd4fb84f	-0.05071288
45	0x3e014a09	0.12625898
46	0xbc228192	-0.009918587
47	0x3da605a6	0.08106546
48	0x3d5c4d52	0.053784676
49	0xbc8e9385	-0.017404327
50	0x3d53945a	0.05165515
51	0xbd772112	-0.060334273
52	0xbc829239	-0.015938865
53	0x3da70428	0.081550896
54	0xbd32c614	-0.043645933
55	0x3ca07eaf	0.019591657
56	0xbcac6b46	-0.021047246
57	0x3daac661	0.08338619
58	0xbdadb406	-0.08481602
59	0x3d84c1a2	0.06482245
60	0x3cd65dd8	0.026167795
61	0xbd62b7ec	-0.055351183
62	0xbd17decd	-0.037077714
63	0x3d63b7f9	0.055595372
64	0xbc1a398b	-0.009413133
65	0x3da977eb	0.08274826
66	0xbd5f390d	-0.054497767
67	0x3d1a973a	0.037741877
68	0xbc1c8652	-0.009553509
69	0x3db67074	0.089081675
70	0xbdacf3aa	-0.08444913
71	0x3d2647f3	0.04059596
72	0xbd3f7eab	-0.04675166
73	0xbd5132a1	-0.051073674
74	0x3c484413	0.012223261
75	0x3d86e6d2	0.06586994
76	0xbbdff09b	-0.0068341023
77	0xbd966146	-0.07342772
78	0xbd3495e3	-0.044088256
79	0xbd853a28	-0.06505233
80	0x3cc0aff5	0.023521403
81	0xbce62572	-0.028094027
82	0xbbdbb48b	-0.006704872
83	0xbde2ab41	-0.1106782
84	0x3d08d1f7	0.033403363
85	0x3d0df6d0	0.034659207
86	0xba63c592	-0.0008688803
87	0x3cf69b8f	0.030103473
88	0x3cc53f7f	0.024078129
89	0xbdc25562	-0.09488942
90	0xbc238bd0	-0.009982064
91	0xbe09d94b	-0.13461797
92	0x3d6e948e	0.05824714
93	0xbd76aa4c	-0.060221
94	0x3d2e5b39	0.042567465
95	0xbbfbbde2	-0.007682548
96	0xbc149791	-0.009069339
97	0xbdd5e5c9	-0.10444219
98	0xbd9e46c3	-0.077283405
99	0x3cdbffba	0.026855338

DGM1.gate_H.0.weight f4 [100, 102]
0	0x3c3cccae	0.011523409
1	0x3d87ac83	0.06624701
2	0xbbaaab86	-0.0052084355
3	0x3b65368e	0.0034975144
4	0x3d1a599f	0.037683126
5	0x3db50260	0.088383436
6	0x3d0f4004	0.03497316
7	0x3d87a49f	0.06623196
8	0xbdaad812	-0.083419934
9	0x3d45686d	0.04819529
10	0x3dc474e9	0.09592611
11	0xbbfc1b95	-0.0076937177
12	0xbd814dc6	-0.06313662
13	0xbd7e61cd	-0.06210499
14	0xbd8ef504	-0.06980327
15	0x3da3588e	0.07975875
16	0xbd06f467	-0.032947924
17	0xbba7b7db	-0.005118353
18	0xbd986899	-0.074418254
19	0xbcdb0e1a	-0.026740123
20	0x3d9a7f40	0.07543802
21	0x3c143143	0.009044948
22	0x3d83d5f4	0.06437293
23	0xbd2f4653	-0.042791676
24	0xbcae52f4	-0.02127979
25	0xbd902285	-0.07037834
26	0xbb4f8591	-0.0031665305
27	0xbd2010f0	-0.039078653
28	0x3d5d9a8c	0.054102466
29	0xbdcdd459	-0.10050268
30	0xbb8a4af4	-0.004220361
31	0xbcef80e7	-0.02923627
32	0x3cad2f1c	0.021140628
33	0xbdcac823	-0.09901454
34	0xbd68d2e7	-0.056841757
35	0xbd154913	-0.036446642
36	0xbe0c7fc9	-0.13720621
37	0xbd265eac	-0.04061763
38	0xbd71d516	-0.059041105
39	0xbcfe6967	-0.03105612
40	0x3d17c5d2	0.03705389
41	0xbd6b6529	-0.05746952
42	0xbd55251e	-0.05203735
43	0xbd1ff20b	-0.03904919
44	0x3d13565f	0.03597104
45	0xbdc0d9f7	-0.094165735
46	0x3d94fe74	0.072750956
47	0xbd3b27e5	-0.045692343
48	0xbd36d4df	-0.044636603
49	0x3da94ffa	0.082672074
50	0xbd8f3f67	-0.06994515
51	0xbdc4abbe	-0.0960307
52	0x3d84b71f	0.0648024
53	0x3d1fcebe	0.039015524
54	0x3d229f6e	0.039702825
55	0x3d5bace3	0.053631674
56	0xbd936f49	-0.0719896
57	0xbe02368f	-0.12716125
58	0xbc989cea	-0.01862951
59	0xbd9c4f69	-0.07632334
60	0x3c61a237	0.013771585
61	0x3d8b1ea4	0.067929536
62	0xbcbc956b	-0.023020467
63	0xbd33c075	-0.043884713
64	0xbd7aafa3	-0.061202656
65	0x3dec5975	0.115405
66	0x3cd388e0	0.025822103
67	0x3d2626c3	0.04056431
68	0x3c2accd6	0.010424813
69	0x3d9db229	0.07699997
70	0x3d2d130d	0.042254496
71	0x3bf1baa0	0.0073769838
72	0x3d83bbcd	0.064323045
73	0xbd91c254	-0.07117143
74	0x3dbb91e6	0.09158687
75	0xbcf8f664	-0.030390926
76	0x3ce95423	0.028482502
77	0x3aba4142	0.0014210122
78	0x3a4a5c3f	0.0007719434
79	0xbd901417	-0.07035082
80	0xbd381bd4	-0.044948414
81	0xbccf2556	-0.025286358
82	0x3d0cf235	0.034410674
83	0xbcf166dd	-0.029467994
84	0x3df76bfe	0.12081145
85	0x3d84a99d	0.06477664
86	0x3c2c1ed9	0.0105054015
87	0x3d7a3dd4	0.06109412
88	0xbd5d38f6	-0.0540094
89	0xbd73e60d	-0.059545565
90	0x3d135612	0.035970755
91	0xbc4def6d	-0.012569291
92	0x3d8c07a1	0.068373926
93	0xbda3d969	-0.08000452
94	0xbd67a785	-0.056556243
95	0xbd74019e	-0.059571855
96	0x3d01676b	0.031592768
97	0xbd6c9ebd	-0.057768572
98	0xbda1869c	-0.07887003
99	0xbc67b89f	-0.014143138
100	0xbd768204	-0.060182586
101	0xbddc5e48	-0.1076017
102	0x3d9210c9	0.07132108
103	0x3d0fa14a	0.035065927
104	0x3d101be3	0.035182845
105	0xbd31ff89	-0.043456588
106	0x3d2e3c38	0.042537898
107	0x3d752198	0.05984649
108	0xbc894df0	-0.016760796
109	0xbd78c5c3	-0.060735475
110	0x3dc47d0c	0.09594163
111	0xbd536ebd	-0.05161928
112	0xbdd7aa73	-0.105305575
113	0x3d9b2126	0.07574682
114	0xbd8ed41d	-0.06974051
115	0x3dc8fdc6	0.098140284
116	0x3d702b45	0.058635015
117	0xbd0d7079	-0.03453109
118	0x3d077f13	0.03308017
119	0x3d1d6675	0.03842779
120	0x3d9408e7	0.072282605
121	0xbd99c745	-0.07508711
122	0xbd974fe9	-0.073882885
123	0xbd640e00	-0.055677414
124	0x3cc13385	0.023584137
125	0x3dc1ef60	0.09469485
126	0xbd4443fd	-0.0479164
127	0x3d34dca9	0.04415575
128	0xbc826575	-0.01591752
129	0xbdcf26ab	-0.10114797
130	0x3dce255b	0.10065719
131	0x3b9c1171	0.0047628214
132	0xbd919913	-0.07109275
133	0x3d280608	0.041021377
134	0x3dbf424e	0.093388185
135	0x3c95cee4	0.01828713
136	0x3da0dc02	0.07854463
137	0x3c83e980	0.016102552
138	0x3cfb3412	0.030664477
139	0xbd041fc0	-0.03225684
140	0xbdaf3290	-0.08554566
141	0xbb9faf3e	-0.0048731854
142	0x3dbc76c0	0.09202337
143	0xbd64f09d	-0.05589353
144	0xbd65da11	-0.056116167
145	0x3c54048f	0.01294054
146	0xbd9198e3	-0.07109239
147	0x3b99866c	0.004685214
148	0x3da97cbe	0.08275746
149	0x3d9b00ec	0.07568535
150	0x3d1f8a01	0.03894997
151	0x3d370c22	0.044689305
152	0xbde64c4c	-0.11245021
153	0x3d643c98	0.05572185
154	0x3cb34f20	0.021888316
155	0xbda78d91	-0.081812985
156	0x3d83d3e5	0.064369
157	0x3daed65f	0.08536982
158	0x3cb164c2	0.02165449
159	0x3d019eab	0.03164546
160	0x3c9d8259	0.019227194
161	0x3d28da17	0.04122361
162	0xbd4362d0	-0.047701657
163	0x39f25e4c	0.00046228094
164	0xbd6c17da	-0.057639934
165	0x3d4306ee	0.04761403
166	0x3c997713	0.018733537
167	0xbc792314	-0.015206117
168	0x3d8b8067	0.068116
169	0x3d8154e3	0.06315019
170	0xbb51cc69	-0.0032012707
171	0x3cd45bbc	0.025922649
172	0x3da1eac0	0.07906103
173	0x3d27126f	0.040789064
174	0x3d61d9c9	0.055139337
175	0xbbc1ee24	-0.005918281
176	0xbd9a6738	-0.07539219
177	0xbd948c1e	-0.07253288
178	0xbc9da0d1	-0.019241722
179	0xbdd039bf	-0.10167264
180	0xbd04167b	-0.032248
181	0x3c9dbed4	0.019256033
182	0x3d90489b	0.070450984
183	0x3d92e384	0.071723014
184	0xbd7012e8	-0.05861178
185	0xbd0525a5	-0.032506604
186	0x3baa7b40	0.005202681
187	0xbdb83395	-0.089942135
188	0x3d8e34f0	0.06943691
189	0xbc9af21a	-0.018914271
190	0xbd8d6afb	-0.069051705
191	0x3db2cf0c	0.08730897
192	0xbcea3ca0	-0.028593361
193	0xbd6eac62	-0.058269866
194	0xbd58c68a	-0.052923717
195	0xbda2fc62	-0.079582945
196	0xbce9e254	-0.028550304
197	0xbd16f2d8	-0.036852688
198	0xbd0e5f6c	-0.03475897
199	0x3ca848b6	0.020542484
200	0xbd9486b5	-0.07252256
201	0x3d28641b	0.041111093
202	0xbdacd6b3	-0.08439388
203	0xbd2c909b	-0.042130094
204	0xbc58b88e	-0.013227595
205	0x3dc80f99	0.097686
206	0xbd9ac36c	-0.07556805
207	0xbd8e2186	-0.06939988
208	0x3ba2296b	0.004948785
209	0x3d366f70	0.04453987
210	0xbd5097be	-0.050925963
211	0xbd01dee3	-0.031706702
212	0x3d5d6620	0.054052472
213	0xbc02cccf	-0.0079834005
214	0x3db0864a	0.086193636
215	0xbd2e7620	-0.04259312
216	0x3d6ea763	0.0582651
217	0x3d90c004	0.07067874
218	0xbd74af66	-0.059737585
219	0xbdd24672	-0.102673426
220	0x3da786b7	0.08179992
221	0xbcdf1736	-0.027232748
222	0x3d6cd8d0	0.057823956
223	0xbd53af0c	-0.05168061
224	0xbc8ed7ef	-0.01743695
225	0xbd6935a8	-0.056935936
226	0xbda8fed8	-0.082517326
227	0x3becacb4	0.0072227363
228	0xba3110cd	-0.00067545177
229	0xbd02dbb5	-0.03194781
230	0xbd28dc55	-0.04122575
231	0x3dc7a680	0.09748554
232	0xbcfffbd4	-0.03124801
233	0xbcd04f55	-0.025428453
234	0x3da77724	0.08177021
235	0xbc9eaca5	-0.019369433
236	0xbd84fedf	-0.06493925
237	0xbc139e21	-0.009009869
238	0xbd8255ce	-0.06364022
239	0xbd619af0	-0.0550794
240	0x3c0fc1c6	0.0087742265
241	0xbd810fa0	-0.06301808
242	0xbd2e3e2c	-0.04253976
243	0x3d3b3e5d	0.04571377
244	0x3d0ab392	0.033862658
245	0x3d378c17	0.044811334
246	0xbc831fef	-0.016006438
247	0xbd0b4639	-0.034002516
248	0xbdcbad79	-0.09945197
249	0x3d5a002d	0.053222824
250	0xbdab7354	-0.083716065
251	0xbd13ce26	-0.03608527
252	0x3d99e61a	0.075145915
253	0xbcd0b562	-0.025477115
254	0x3cdf3d15	0.027250806
255	0xbd631501	-0.055439953

DGM1.gate_H.0.bias f4 [100]
0	0x3dcc1522	0.09964968
1	0xbdbc676d	-0.091994144
2	0xbbe05390	-0.006845899
3	0xbd386864	-0.04502143
4	0xbd85ef09	-0.06539733
5	0xbadf6beb	-0.0017045712
6	0xbc3f9f72	-0.01169573
7	0xbd9bba62	-0.07603909
8	0x3d53d892	0.05172021
9	0xbdbfcd60	-0.09365344
10	0xbd857a47	-0.06517463
11	0x3d550df4	0.05201526
12	0x3d808a04	0.062763244
13	0x3d0fb725	0.03508677
14	0x3cce48bd	0.025181169
15	0xbcc5e0e8	-0.024155095
16	0xbc74bf45	-0.01493818
17	0x3ccc9041	0.02497113
18	0x3e0c77c1	0.13717557
19	0xbd8fe270	-0.070256114
20	0x3d6a311b	0.057175737
21	0xbd2aa7b1	-0.04166383
22	0x3d83adbc	0.064296216
23	0x3d61163a	0.054952838
24	0xbdce6918	-0.10078639
25	0xbcb78acc	-0.02240505
26	0x3d1c6e37	0.038191047
27	0xbbe86cac	-0.007093033
28	0xbdf5429b	-0.119755946
29	0xbc9249b7	-0.017857416
30	0xbcaeeba3	-0.021352595
31	0xbd6f7dc1	-0.058469538
32	0xbd861322	-0.06546618
33	0xbdabbd36	-0.083856985
34	0x3dbe08dc	0.092790335
35	0xbd3dfb87	-0.046382453
36	0xbd603936	-0.05474206
37	0x3be8e56f	0.0071074287
38	0x3d607779	0.054801438
39	0xbd8acc37	-0.06777232
40	0x3d66f349	0.05638436
41	0xbd9dc738	-0.077040136
42	0xbdebf8ab	-0.11522039
43	0x3bd3d87e	0.006465017
44	0xbda229f3	-0.079181574
45	0x3ceeca1c	0.029149108
46	0xbc8921d2	-0.01673976
47	0x3d85dd92	0.06536402
48	0xbd895e1d	-0.06707404
49	0x3c4dcec2	0.012561502
50	0x3d99d62f	0.075115554
51	0x3c9b3893	0.018947875
52	0x3dbbe56d	0.09174619
53	0xbc1b9517	-0.009495995
54	0x3e058888	0.13040364
55	0x3d9a6fa1	0.07540823
56	0xbd11dd20	-0.03561127
57	0x3da98530	0.082773566
58	0x3dadaed0	0.084806085
59	0xbd6078e9	-0.05480281
60	0x3c240011	0.010009781
61	0x3d2b29e2	0.04178799
62	0x3d8416af	0.06449639
63	0x3d9aac06	0.07552342
64	0x3da0ddd3	0.078548096
65	0xbd5ab8a1	-0.053398732
66	0x3d871335	0.0659546
67	0xbccc3562	-0.024927799
68	0x3d9a9c1a	0.07549305
69	0xbd9881eb	-0.07446655
70	0x3de99360	0.11405063
71	0x3db6f92d	0.08934245
72	0xbdaa024c	-0.08301219
73	0xbcbc95cb	-0.023020646
74	0xbceaf755	-0.02868239
75	0xbdd9439d	-0.10608599
76	0x3e0ae2ae	0.13563034
77	0xbdc774c9	-0.09739072
78	0xbd5c8c1a	-0.05384455
79	0xbd72f112	-0.059311934
80	0xbdeacb0e	-0.11464511
81	0xbcd674ec	-0.0261788
82	0x3d172d25	0.036908288
83	0xbd0c3372	-0.03422875
84	0x3c603f0a	0.013686905
85	0xbcda2f4a	-0.026633877
86	0xbdbf2cd9	-0.09334726
87	0xbdaf630c	-0.085638136
88	0xbc92fcdd	-0.01794284
89	0xbd34b03a	-0.044113375
90	0x3dbcb3be	0.092139706
91	0xbd686eed	-0.056746412
92	0xbb3448e8	-0.0027509276
93	0x3a093641	0.000523422
94	0x3d9a5e39	0.07537503
95	0x3d8f7e5a	0.070065215
96	0x3dcafb75	0.09911243
97	0xbc882504	-0.016619213
98	0x3d1b7bd9	0.037959907
99	0xbc93d6a3	-0.018046683
