trained_models/trained_cost_functional_no_control.pth (torch, 506274 bytes, 27 tensors)

input_layer.0.weight f4 [100, 2]
0	0xbd98c1c5	-0.074588336
1	0xbd8adcb7	-0.06780379
2	0xbbf4dabf	-0.0074723656
3	0x3bb52ffe	0.0055294028
4	0x3cba0065	0.022705266
5	0x3cfa3eb3	0.030547475
6	0x3c6c0013	0.014404315
7	0x3c99d1d9	0.018776821
8	0xbb9df4af	-0.0048204283
9	0x3c5b2de2	0.0133776385
10	0x3c89495c	0.016758613
11	0xbca7159e	-0.02039605
12	0xbb949f09	-0.00453556
13	0xbd72eae9	-0.05930606
14	0x3c14f7a8	0.009092249
15	0xbb3b79e7	-0.0028606595
16	0xbce62e92	-0.028098378
17	0x3c292ce6	0.010325646
18	0x3c134452	0.008988457
19	0x3c0655f1	0.008199201
20	0xbdb8e85d	-0.09028695
21	0xbd778083	-0.060425293
22	0xbd389315	-0.045062143
23	0x3d6d1843	0.057884466
24	0x3c4a9b53	0.012366134
25	0x3c89ff10	0.016845256
26	0xbdcf6667	-0.101269536
27	0x3e45f7a0	0.19332743
28	0xbd1fcffa	-0.0390167
29	0x3d8b7e5f	0.06811213
30	0xbc1de49c	-0.009637024
31	0x3cee72d4	0.029107489
32	0xbdc2d4ef	-0.0951327
33	0xbdbc4edc	-0.09194729
34	0xbd23bd3b	-0.039975386
35	0x3d97b177	0.074068956
36	0x3c063939	0.008192354
37	0xba372f38	-0.0006987932
38	0xbcd6ca16	-0.026219409
39	0xbc80930d	-0.01569512
40	0xba3c6c71	-0.000718779
41	0x3cc8e804	0.024524696
42	0x3d97b677	0.07407849
43	0xbe66bc8a	-0.2253286
44	0x3d0aa7fa	0.0338516
45	0x3c950cd6	0.018194597
46	0xbc89c2bc	-0.01681649
47	0xbb9c286e	-0.004765562
48	0x3e3e4c6d	0.18583842
49	0x3ce44799	0.027866172
50	0xbe0e6c31	-0.13908459
51	0x3e24a57c	0.16078752
52	0x3c3a186b	0.011358361
53	0x3c805540	0.01566565
54	0x3dcb2bb9	0.09920449
55	0x3caecc78	0.021337733
56	0x3c9a2027	0.01881416
57	0xbc59e753	-0.013299781
58	0x3e00747b	0.12544434
59	0x3b2c0563	0.0026248328
60	0xbdf3e19e	-0.119082674
61	0x3d80b0de	0.06283735
62	0x3df9b561	0.121927984
63	0xbcdea81e	-0.027179774
64	0xbc32a373	-0.010903227
65	0xbb8086ea	-0.003922333
66	0xbe00cf46	-0.12579069
67	0xbe0cc75a	-0.13747922
68	0xbda2d425	-0.079506196
69	0x3ccbac8d	0.024862552
70	0x3c775b10	0.015097395
71	0x3c6a4d06	0.01430059
72	0xba110482	-0.0005531983
73	0x3d8c5ad0	0.068532586
74	0xb9d40c40	-0.00040444918
75	0xbc85cb11	-0.016332181
76	0xbd1853fa	-0.03718946
77	0x393782fb	0.00017501034
78	0x3c3625e7	0.011117435
79	0xbb79e2c9	-0.003812956
80	0x3cca8399	0.024720954
81	0xb93a0daf	-0.0001774344
82	0xbe467a96	-0.193827
83	0x3de827b4	0.11335698
84	0xbc8a6068	-0.016891673
85	0xbc2907bf	-0.010316788
86	0xbd181c32	-0.037136264
87	0x3c19055d	0.009339658
88	0x3c898087	0.01678492
89	0x3d8d8406	0.06909947
90	0x3c4c5c77	0.012473217
91	0x3ccc22df	0.024918972
92	0xbcd378e9	-0.02581449
93	0x3c4b0aa0	0.01239267
94	0x3c2ab6ab	0.010419528
95	0xbb1a4547	-0.0023539828
96	0xbbd2a81c	-0.0064287316
97	0x3b1347ec	0.0022473289
98	0x3c908c2a	0.01764496
99	0x3bd999a9	0.006640632
100	0xbbe865a9	-0.007092197
101	0xbb4a0b9e	-0.0030829678
102	0xbbda8ba6	-0.0066694794
103	0xbb19abbd	-0.0023448311
104	0xbccfcff6	-0.025367718
105	0x3c3d552a	0.011555949
106	0x3db48e44	0.088161975
107	0x3d8485e1	0.06470848
108	0xbd9f43af	-0.077765815
109	0x3e1a39d2	0.15061119
110	0xbcfe9395	-0.031076232
111	0xba8126d6	-0.0009853493
112	0x3dcd80bc	0.1003432
113	0x3e6cfeb7	0.23144041
114	0x3d652751	0.0559457
115	0x3dec4957	0.11537426
116	0xbc748355	-0.01492389
117	0x3c4dd8de	0.012563912
118	0xbc78fea9	-0.015197434
119	0xbd01b39f	-0.03166544
120	0x3c37e953	0.011225062
121	0x3b46623c	0.0030270955
122	0xbdb50ce0	-0.08840346
123	0x3debafc6	0.115081355
124	0x3d65c439	0.056095336
125	0x3d6cddde	0.057828777
126	0x3c294281	0.010330797
127	0xbc47cfb8	-0.01219552
128	0xbc42260b	-0.01184989
129	0xba92817c	-0.0011177505
130	0xbcf6139c	-0.030038647
131	0xbbe4a7d6	-0.0069780154
132	0xbc91dcc1	-0.017805459
133	0xbd5a73cc	-0.05333309
134	0x3b113fcb	0.0022163268
135	0x3c372f18	0.011180662
136	0xbca52747	-0.02016033
137	0x3b1e80b3	0.0024185597
138	0xbdf57617	-0.119854145
139	0x3ae60336	0.0017548564
140	0xbcb142b3	-0.02163825
141	0xbbb63723	-0.005560772
142	0x3d8532c7	0.06503826
143	0x3d1fd739	0.03902361
144	0x3d8a33c1	0.067481525
145	0x3d400c8f	0.046886977
146	0x3d61d389	0.055133376
147	0x3dfa51ca	0.12222631
148	0xbd5ca549	-0.053868566
149	0x3d50d568	0.05098477
150	0x3bdcd069	0.0067387116
151	0xbc709367	-0.014683581
152	0x3c0fd515	0.00877883
153	0x3cd62160	0.026138961
154	0xbd08a30e	-0.033358626
155	0xbb2b5c43	-0.0026147522
156	0x3ce4a972	0.02791283
157	0x3ca6a67a	0.020343054
158	0xbcb87ad9	-0.022519516
159	0x3bb2a569	0.0054518473
160	0xbd51fbbd	-0.051265467
161	0xbcf39833	-0.02973566
162	0xbd77d7c3	-0.0605085
163	0xbdf6d5cb	-0.120524965
164	0x3e68e1ae	0.2274234
165	0xbda97195	-0.08273617
166	0x3c95a4a3	0.018266981
167	0x39de24ff	0.00042370704
168	0x3d4a080c	0.04932408
169	0xbc3eec09	-0.011652955
170	0x3dafc00e	0.085815534
171	0xbdf2006c	-0.11816487
172	0x3cbcd1fa	0.023049343
173	0x3d273fb8	0.04083225
174	0x3c2fb84a	0.01072509
175	0x3c5345f6	0.012895098
176	0x3a9a3b11	0.0011766871
177	0xbbbb5f0f	-0.005718119
178	0xbd922c71	-0.07137383
179	0xbb1a55f8	-0.0023549777
180	0xbc5d6da6	-0.013514912
181	0xbd0fb8fb	-0.03508852
182	0x3b1e0912	0.0024114293
183	0xbc97548b	-0.01847293
184	0x3c4600b8	0.012085132
185	0xba24dded	-0.0006289173
186	0xbc298886	-0.010347491
187	0x3b911411	0.004427441
188	0xbbf41f9b	-0.0074500567
189	0x3cfe1093	0.031013763
190	0xbd8c0507	-0.068368964
191	0x3dc101b3	0.09424152
192	0x3b4226b5	0.0029625122
193	0x39805665	0.0002447843
194	0x3b319304	0.0027095685
195	0x3cc2bf1d	0.02377277
196	0x3bc548d4	0.0060206447
197	0x3b8a0683	0.004212202
198	0x3bbb737a	0.005720553
199	0xbb03d9ba	-0.0020118789

input_layer.0.bias f4 [100]
0	0x3d2b9c37	0.041897025
1	0x3c4e4328	0.0125892535
2	0x3eab1805	0.33416763
3	0x3e4ffa48	0.20310318
4	0x3c33f50d	0.010983718
5	0x3e35e4b1	0.1776302
6	0xbe857bbd	-0.26070967
7	0x3e04ce00	0.12969208
8	0x3bccfcaa	0.006255706
9	0x3e2ecf2c	0.17071217
10	0xbf303f75	-0.6884683
11	0x3d272ff0	0.0408172
12	0xbd458750	-0.048224747
13	0xbf0452f0	-0.5168905
14	0x3e215efc	0.1575889
15	0xbecab782	-0.3959313
16	0x3f06db82	0.5267869
17	0x3ee20910	0.4414754
18	0x3ebec1c9	0.3725722
19	0xbe6f0047	-0.2333995
20	0xbcd3cdb1	-0.025854917
21	0xbf2a3ab2	-0.6649581
22	0x3f01d06f	0.5070867
23	0xbd125447	-0.035724904
24	0x3f49dc87	0.78852123
25	0xbf3b3134	-0.73121953
26	0xbe4cf995	-0.20017083
27	0xbf31c482	-0.6944047
28	0xbda937d2	-0.082626
29	0x3e473522	0.19453862
30	0xbe0de37c	-0.1385631
31	0x3f02638b	0.5093314
32	0x3afd189c	0.0019309702
33	0xbed6e4b7	-0.4197137
34	0xbee57073	-0.44812354
35	0xbcfbef5b	-0.030753782
36	0x3ee434eb	0.44571623
37	0x3df6eb9b	0.12056657
38	0xbe83eccd	-0.25766602
39	0xbdfe0550	-0.12403357
40	0x3c493fef	0.012283309
41	0x3f1b302b	0.60620373
42	0xbd90093d	-0.07033012
43	0xbf098909	-0.53724724
44	0x3f013947	0.50478023
45	0x3e0c9182	0.13727382
46	0x3ec797d7	0.38983032
47	0xbd052569	-0.03250638
48	0x3caa65b3	0.020800447
49	0x3ede8f32	0.43468624
50	0xbd11d6c4	-0.035605207
51	0xbe2234b8	-0.15840423
52	0x3e00c5d1	0.12575461
53	0x3d0f1348	0.034930497
54	0xbec74f42	-0.38927656
55	0xbc2ba72e	-0.01047687
56	0xbf4e0b38	-0.8048587
57	0x3d2b6fe6	0.04185476
58	0xbe9f1657	-0.3107173
59	0x3b894276	0.004188831
60	0x3f2af367	0.6677765
61	0xbd43892d	-0.047738243
62	0x3dccdac3	0.10002663
63	0x3eeea34b	0.46608958
64	0x3d610e17	0.054945078
65	0xbd2b80ee	-0.041871004
66	0xbdaa2800	-0.08308411
67	0xbca31a5a	-0.019910026
68	0x3d1a47df	0.037666198
69	0x3d9679c3	0.07347443
70	0x3e8de955	0.2771708
71	0x3dba8f7f	0.09109401
72	0x3dc90253	0.098148964
73	0x3f4807e4	0.7813704
74	0x3d8ccd95	0.06875149
75	0x3d85a786	0.06526093
76	0x3d8e9606	0.069622084
77	0x3eba8950	0.36432886
78	0xbec1ac5b	-0.3782681
79	0xbb414242	-0.0029488956
80	0xbc4f9860	-0.012670606
81	0x3e76f695	0.24117501
82	0xbf244439	-0.641666
83	0xbea00b92	-0.31258827
84	0x3e43dde7	0.19127618
85	0x3dc1b229	0.094578095
86	0x3c657223	0.014004263
87	0xbcb87bf0	-0.022520036
88	0x3d9c54a4	0.076333314
89	0xbe2f5ca0	-0.17125177
90	0x3ea16215	0.31520143
91	0x3ddf4014	0.10900894
92	0xbde2a391	-0.11066354
93	0xbd83162a	-0.06400712
94	0x3e70a033	0.23498611
95	0x3ef9da73	0.48799476
96	0xbdad3e2c	-0.08459124
97	0xbce8ddf1	-0.028426142
98	0xbd953736	-0.07285921
99	0xbca18180	-0.01971507

DGM1.gate_Z.0.weight f4 [100, 102]
0	0xbe0bf45d	-0.13667436
1	0xbe477d76	-0.19481453
2	0x3d0125a3	0.031530034
3	0x3d9d7aac	0.076894134
4	0xbc3ba977	-0.011453978
5	0xbddbfbbe	-0.107413754
6	0x3d1ad314	0.037798956
7	0xbcb16f2b	-0.021659454
8	0xbd4ea6f8	-0.050452203
9	0xbcfd021e	-0.030884799
10	0xbd70a03c	-0.05874656
11	0xbdd4db34	-0.10393372
12	0x3e238704	0.15969473
13	0x3d61ac92	0.055096216
14	0x3dc9dec8	0.09856945
15	0xbda719a3	-0.08159187
16	0x3db30d08	0.0874272
17	0xbcc3b7bd	-0.023891324
18	0x3d8986d3	0.06715169
19	0x3c62bb43	0.013838592
20	0x3de01cb5	0.109429754
21	0x3ac60d85	0.001511023
22	0x3dab07ad	0.083510734
23	0xbc801210	-0.015633613
24	0xbd6a0009	-0.05712894
25	0xbcc5240c	-0.02406504
26	0xbce986b8	-0.028506622
27	0xbdd876fb	-0.10569569
28	0x3c918c58	0.017767116
29	0xbe07dbc6	-0.1326743
30	0xbcfc5393	-0.03080157
31	0xbd8d80c8	-0.06909329
32	0xbcd719ca	-0.026257414
33	0xbe2401d7	-0.16016327
34	0x3c99f93f	0.018795608
35	0xbce449ca	-0.027867217
36	0xbcf81250	-0.03028217
37	0xbc8bbc85	-0.017057667
38	0x3bfdc9bb	0.0077449954
39	0x3c8b4eed	0.017005408
40	0x3d16e5bf	0.036840197
41	0x3ac5d899	0.0015094458
42	0x3d8220b3	0.06353893
43	0x3cfb9eb3	0.030715322
44	0x3d305f9e	0.043059938
45	0x3d84b056	0.06478946
46	0xbadb4af7	-0.0016730715
47	0x3d77184b	0.060325902
48	0xbd8bf2fb	-0.06833454
49	0x3d2cedd2	0.04221899
50	0xbbc70386	-0.006073418
51	0xbcfc8a37	-0.030827625
52	0x3bb6f23c	0.005583076
53	0xbc4b0303	-0.012390855
54	0x3d8911d6	0.06692855
55	0x3dfe6d56	0.12423198
56	0xbdbdba8c	-0.092640966
57	0xbd319ac3	-0.043360483
58	0xbd9498df	-0.0725572
59	0xbd763790	-0.060111582
60	0x3cf8c9aa	0.030369598
61	0xbd07aedf	-0.033125754
62	0xbd5fd9e6	-0.054651164
63	0x3cb8bbb5	0.022550443
64	0x3cc43a3c	0.02395355
65	0x3da8abc4	0.08235887
66	0xbcae2dcb	-0.02126207
67	0xbd7025c9	-0.058629785
68	0xbd3bf807	-0.045890834
69	0x3d399b71	0.045314256
70	0xbcc181fa	-0.023621548
71	0x3d04da12	0.03243453
72	0x3c593cbb	0.013259108
73	0xbd2cfce2	-0.042233355
74	0xbaa8ca89	-0.0012877743
75	0xbc9669b4	-0.01836095
76	0x3d5d81c5	0.054078836
77	0x3d343b17	0.044001665
78	0x3dabe76f	0.08393752
79	0x3cd43e41	0.025908591
80	0x3d190bdd	0.03736483
81	0xbda6126f	-0.08108985
82	0xbe227703	-0.15865712
83	0xbd306f61	-0.04307497
84	0x3da1d4d8	0.07901925
85	0xbcc1db90	-0.023664266
86	0xbd0997da	-0.033592083
87	0x3b4ad6de	0.0030950825
88	0x3d89088a	0.06691082
89	0x3cbdfe61	0.023192586
90	0xbbc78da0	-0.006089881
91	0xba7098e2	-0.0009178055
92	0xbd76dfe9	-0.06027213
93	0x3d270569	0.040776644
94	0xbc8d2102	-0.017227653
95	0xbd19303c	-0.037399516
96	0x3dd61b14	0.104543835
97	0x3d6af9a4	0.057366982
98	0xbde14097	-0.10998648
99	0xbdc43d93	-0.09582057
100	0x3c968010	0.018371612
101	0x3cb08dc6	0.021551978
102	0x3c8a7dad	0.01690563
103	0xbd90d8ba	-0.07072587
104	0xbda67e1f	-0.081295244
105	0xbd88f883	-0.06688025
106	0x3df7d8ee	0.12101923
107	0x3d26c9ae	0.04071968
108	0x3cf7398d	0.03017881
109	0x3cea5d3d	0.028608913
110	0xbd93e0ed	-0.072206356
111	0xbcb019c7	-0.021496667
112	0xbd2d2c21	-0.042278413
113	0xbde86185	-0.113467254
114	0xbd412138	-0.04715082
115	0xbd8835d6	-0.066508934
116	0xbd32e477	-0.043674912
117	0x3cf5ff6b	0.03002902
118	0x3e38b2ff	0.18037032
119	0xbcebc6f1	-0.028781386
120	0x3da2e803	0.07954409
121	0xbc92b1f1	-0.017907115
122	0xbd005d92	-0.031339236
123	0xbd821fb8	-0.06353706
124	0xbd119ec0	-0.035551786
125	0xbd67b1d7	-0.056566086
126	0xbdff18c7	-0.12455898
127	0x3d94d626	0.07267408
128	0xbd62861f	-0.05530369
129	0x3c022b83	0.007944944
130	0xbe2d3ced	-0.16917773
131	0x3d21495d	0.039376605
132	0xbe1f9e1a	-0.15587655
133	0xbdd62a10	-0.104572415
134	0xbd0a29b3	-0.033731174
135	0xbd1fed50	-0.03904468
136	0xbd631d35	-0.055447776
137	0xbd9708c7	-0.07374721
138	0x3e1d67cd	0.15371628
139	0xbd7c450c	-0.061589286
140	0x3d09962c	0.03359048
141	0xbc918dbb	-0.017767778
142	0xbde580cb	-0.11206206
143	0xbc041955	-0.00806268
144	0x3e40755f	0.18794774
145	0xbc07bb52	-0.008284407
146	0x3dfbf678	0.123028696
147	0x3c7dabe6	0.015482878
148	0xbc9032ab	-0.017602285
149	0xbce95578	-0.028483137
150	0xbc2a77cd	-0.010404539
151	0xbe2a8a12	-0.16654232
152	0x3c4d5eb8	0.01253479
153	0x3d8a53d9	0.06754274
154	0xbe0c2e2c	-0.13689488
155	0xbe0500d0	-0.12988591
156	0xbdd85fc9	-0.105651446
157	0xbe0e4a61	-0.13895561
158	0x3c08ec96	0.008357188
159	0xbe104b7e	-0.14091298
160	0x3d2838da	0.041069843
161	0x3df4204b	0.11920222
162	0x3ca6f4e9	0.020380454
163	0x3dd6f64b	0.104961954
164	0xbd35d391	-0.04439122
165	0xbcf9776c	-0.030452453
166	0xbc67a043	-0.01413733
167	0xbd2f9f06	-0.042876266
168	0xbd7e8e96	-0.0621477
169	0x3e148acd	0.14506073
170	0xbe058ab7	-0.13041197
171	0xbcdc2715	-0.026874105
172	0x3d69b97d	0.05706166
173	0x3d88b3d2	0.06674923
174	0xbd4c49b8	-0.04987499
175	0xbdd566ab	-0.10419973
176	0x3d9892bc	0.07449862
177	0x3e026d1b	0.12736933
178	0x3e37c8e2	0.17947724
179	0x3d8f1614	0.06986633
180	0x3e3ce781	0.18447687
181	0x3dbcc785	0.09217743
182	0x3ce4ac55	0.027914206
183	0xbd92276e	-0.07136427
184	0xbae9ce90	-0.001783805
185	0xbe08de5f	-0.13366078
186	0x3d84c603	0.0648308
187	0x3c5dc24b	0.013535093
188	0x3e141638	0.14461601
189	0xbd99311f	-0.07480072
190	0xbcd692d0	-0.026193053
191	0x3e11eea2	0.14251187
192	0xbd038034	-0.032104686
193	0xbe1777ef	-0.14791845
194	0x3d15dad6	0.03658565
195	0x3e00b5c1	0.12569334
196	0xbd3b38cb	-0.04570846
197	0xbd3c9450	-0.04603988
198	0xbb3cbc9b	-0.002879894
199	0xbd0df88f	-0.034660872
200	0x3db97646	0.09055762
201	0x3e4f4acc	0.20243376
202	0xbda680c3	-0.08130028
203	0xbde55767	-0.11198311
204	0xbc24d2ca	-0.010060022
205	0x3b085635	0.0020803337
206	0x3dbf18d7	0.0933091
207	0xbcdacb20	-0.026708186
208	0xbd281615	-0.041036684
209	0x3bb956b9	0.00565609
210	0x3dbfde4e	0.09368573
211	0xbc25188f	-0.010076656
212	0x3d98b752	0.074568406
213	0x3cbd1a15	0.023083726
214	0xbd3f016e	-0.046632223
215	0x3d6ac1b0	0.05731362
216	0xbb955dd0	-0.0045583025
217	0x3d2a462d	0.04157083
218	0x3dad7741	0.084700115
219	0x3d648407	0.055789974
220	0xbdc704b7	-0.09717696
221	0x3d888d93	0.06667628
222	0x3bf9adfa	0.0076196166
223	0xbe09cc22	-0.13456777
224	0x3d5d83ba	0.054080702
225	0xbddf1600	-0.10892868
226	0x3cdc9ebd	0.026931161
227	0x3e3599ee	0.17734501
228	0xbc85dc74	-0.016340472
229	0xbd603f09	-0.054747615
230	0x3d06aa49	0.03287724
231	0xbc77415d	-0.015091267
232	0xbd9d867a	-0.07691665
233	0xbdc64f25	-0.09683064
234	0xbcf7fa68	-0.03027077
235	0x3e109353	0.141187
236	0x3c9a4f81	0.018836739
237	0x3dac5bbf	0.08415937
238	0x3d59912e	0.05311697
239	0xbd3dbf5b	-0.04632507
240	0x3dcdc481	0.10047246
241	0xbb9be409	-0.0047574085
242	0x3d2404e5	0.04004373
243	0xbe33f461	-0.17573692
244	0x3b7c0efc	0.003846108
245	0xbbe3ac87	-0.006948057
246	0xbccb2afa	-0.024800766
247	0x3d672939	0.056435797
248	0xbd8da359	-0.06915922
249	0x3db61a6c	0.08891758
250	0x3a8cf7ae	0.0010754967
251	0x3c33f28b	0.01098312
252	0xbdce5d37	-0.10076373
253	0xbdc13a54	-0.09434953
254	0x3d412208	0.047151595
255	0x3d923df7	0.07140725

DGM1.gate_Z.0.bias f4 [100]
0	0xbd58d6fd	-0.052939404
1	0x3e36a49a	0.17836228
2	0xbc940b6c	-0.018071853
3	0x3d2c9a0d	0.0421391
4	0x3d9c2606	0.0762444
5	0xbc7ba04b	-0.015358041
6	0xbdee65d8	-0.11640519
7	0x3d456c78	0.048199147
8	0x3d9821ae	0.07428299
9	0xbd093dee	-0.033506326
10	0x3d370e46	0.044691347
11	0xbd5bb54d	-0.0536397
12	0x3c04fa59	0.008116328
13	0xbd4ae6ba	-0.049536444
14	0xbdb2558b	-0.08707722
15	0x3c4a8a7c	0.012362119
16	0xbe74a03c	-0.2388925
17	0xbcfce071	-0.03086874
18	0xbdd542d4	-0.10413137
19	0xbd056c62	-0.032574065
20	0xbd05e65d	-0.032690395
21	0x3e6ed5be	0.23323724
22	0x3e01d8cf	0.12680362
23	0xbc707913	-0.014677304
24	0x3dc8a549	0.09797151
25	0x3ea31930	0.31855154
26	0xbc307219	-0.0107693905
27	0x3cd5671d	0.026050145
28	0x3cc70b05	0.024297247
29	0xbda03e2e	-0.0782436
30	0x3d33d065	0.043899912
31	0xbd83f624	-0.06443432
32	0xbd7bc858	-0.06147036
33	0xbd868f93	-0.06570353
34	0x3dae1eab	0.08501943
35	0xbcc1d8fb	-0.023663035
36	0x3dc9f095	0.098603405
37	0x3d67026c	0.056398794
38	0xbb4adc88	-0.00309542
39	0xbde6e6ef	-0.11274516
40	0x3c241d72	0.010016786
41	0xbe3f632e	-0.18690178
42	0xbd6f3148	-0.058396608
43	0x3dd27733	0.10276642
44	0xbdafe48f	-0.08588516
45	0xbd17b14f	-0.03703433
46	0xbd2b6b6a	-0.041850485
47	0xbd42d60f	-0.047567423
48	0xbb818031	-0.003952049
49	0x3d602913	0.05472667
50	0xbd53fefa	-0.051756836
51	0x3df57322	0.119848505
52	0xbce30c81	-0.027715923
53	0xbca66b69	-0.020314889
54	0xbd30e39d	-0.04318582
55	0x3cfe4e42	0.031043176
56	0xbe2a76b5	-0.16646846
57	0xbda19abf	-0.078908436
58	0x3d9671f1	0.07345951
59	0x3b05e4f8	0.0020430665
60	0x3d11f426	0.03563323
61	0x3de305b5	0.11085073
62	0xbd510771	-0.051032487
63	0xbd504b33	-0.050852966
64	0x3c65072a	0.013978759
65	0x3bae1a14	0.0053131673
66	0xbd8e1556	-0.06937663
67	0xbd6e7af5	-0.05822273
68	0x3de3937e	0.11112116
69	0xbdc795e2	-0.09745385
70	0xbdbbab58	-0.091635406
71	0xbb2086a8	-0.0024494324
72	0x3bf0af64	0.007345127
73	0x3e395281	0.18097879
74	0x3d8ec315	0.06970803
75	0x3e081901	0.13290788
76	0x3e190429	0.14942993
77	0x3cc3642b	0.023851475
78	0xbd89c5ec	-0.06727204
79	0xbd0b31d6	-0.033983074
80	0x3cafa690	0.021441728
81	0x3e5b0b86	0.21391115
82	0x3df65e05	0.120296516
83	0x3bb17e2d	0.0054166527
84	0x3d9ff536	0.07810442
85	0x3da61c30	0.08110845
86	0x3d4641f7	0.048402753
87	0xbd503add	-0.050837386
88	0xbd136b98	-0.03599128
89	0xbd36280c	-0.044471785
90	0x3b7343ff	0.0037119386
91	0xbd553e07	-0.052061107
92	0xbbf46f22	-0.007459537
93	0xbe6b1e04	-0.22960669
94	0xbdee90ef	-0.11648738
95	0xbd67e645	-0.056616087
96	0x3cc63cc5	0.024198899
97	0xbd92c86c	-0.07167134
98	0x3b2fae25	0.002680668
99	0xbd080642	-0.033209093

DGM1.gate_G.0.weight f4 [100, 102]
0	0xbd72db6b	-0.059291285
1	0xbd4e0b07	-0.050303485
2	0xbd69ed1d	-0.057110894
3	0xbd2bbf54	-0.04193051
4	0x3e6c97d6	0.23104796
5	0x3e1d4492	0.15358189
6	0x3d8d2d9d	0.06893466
7	0x3b0fad7e	0.0021923478
8	0xbdf6d5f9	-0.12052531
9	0x3c28db59	0.010306203
10	0xbd44434c	-0.04791574
11	0xbd3e4011	-0.046447817
12	0xbda53202	-0.08066179
13	0x3c199096	0.009372851
14	0xbdb19e98	-0.086728275
15	0xbc494c3d	-0.012286243
16	0xb986b0a5	-0.00025690082
17	0xbe14c956	-0.14529929
18	0x3deb4ac8	0.11488873
19	0x3dc632ea	0.0967768
20	0x3c7df252	0.015499668
21	0xbe2af94e	-0.16696665
22	0x3c7cdfca	0.015434215
23	0xbe3e2cc7	-0.18571769
24	0x3e1a17f1	0.15048195
25	0x3c83f293	0.01610688
26	0x3d7394ee	0.059468202
27	0xbdf82559	-0.121164985
28	0xbdc48600	-0.09595871
29	0xbcea7a2e	-0.028622713
30	0xbd7811bd	-0.06056379
31	0x3d787cbb	0.060665827
32	0xbd4b222b	-0.049593132
33	0x3cee7ddc	0.029112749
34	0xbc8f5fe9	-0.017501788
35	0xbcc4a504	-0.024004467
36	0x3c9cbff4	0.0191345
37	0x3d2446d2	0.040106602
38	0x3e2469bd	0.16055961
39	0x3dbcad19	0.09212703
40	0xbddad8f3	-0.10685911
41	0xbd6f3b6d	-0.058406282
42	0xbd594030	-0.05303973
43	0x3ccacdfa	0.02475642
44	0xbd24752e	-0.040150814
45	0xbe27fc5f	-0.16404866
46	0x3e0dd97a	0.13852492
47	0xbcc6a4f3	-0.024248576
48	0x3e538e97	0.20659862
49	0xbcb48ffc	-0.022041313
50	0xbcc3868b	-0.023867866
51	0x3d96683b	0.07344099
52	0xbd34fc8c	-0.04418616
53	0x3c3b9ae8	0.011450507
54	0xbcc5e1f4	-0.024155594
55	0x3c1bcf23	0.009509834
56	0x3cb97b20	0.022641718
57	0xbd866f48	-0.06564194
58	0xbd43d266	-0.047808073
59	0x3d96a280	0.07355213
60	0xbd7f7016	-0.062362753
61	0x3d790d73	0.06080384
62	0x3dc01fcf	0.09381067
63	0x3dbc4f32	0.09194793
64	0x3e16f985	0.14743622
65	0x3d1dcaf6	0.038523637
66	0xbca82233	-0.02052412
67	0xbdd17d8d	-0.10229025
68	0xbc5c4d58	-0.013446175
69	0x3d51c908	0.05121711
70	0x3d4c931a	0.049944974
71	0x3d820279	0.06348128
72	0xbcdceaf7	-0.026967509
73	0x3e179769	0.14803852
74	0x3e3da4eb	0.18519942
75	0x3e26d67e	0.1629276
76	0x3d828cb9	0.06374497
77	0x3d391e39	0.04519484
78	0x3dd54d4f	0.10415136
79	0xbc9149fe	-0.017735478
80	0xbe25e523	-0.1620069
81	0x3d833666	0.0640686
82	0x3e08e52a	0.13368669
83	0x3ddf706b	0.10910114
84	0xbdd77206	-0.10519795
85	0xbe30e7bf	-0.17275904
86	0x3deee0d7	0.116639785
87	0xbc4719e7	-0.012152172
88	0x3d347a7e	0.04406213
89	0x3d423f48	0.04742363
90	0x3e0318ea	0.12802473
91	0xbd83136e	-0.0640019
92	0x3c816e4a	0.01579966
93	0x3c0433b9	0.008068972
94	0xbd915350	-0.07095969
95	0x3cb5079e	0.022098359
96	0x3c67301c	0.014110591
97	0x3e1dfaec	0.1542775
98	0xbc91df12	-0.017806564
99	0x3c84902b	0.016182026
100	0xbdbcfc36	-0.09227793
101	0xbd2c9b71	-0.042140428
102	0xbd85385b	-0.065048896
103	0xbd8436df	-0.06455778
104	0x3d95f0ca	0.073213175
105	0xbdf36703	-0.11884882
106	0x3e08ba09	0.13352217
107	0x3e75cb8e	0.24003431
108	0x3d04987d	0.032371987
109	0x3dcfc22b	0.101444565
110	0xbdb9804f	-0.09057676
111	0x3dae4342	0.08508922
112	0xbcf1a5b7	-0.029497964
113	0xbc0fcb4d	-0.008776498
114	0xbeae84e0	-0.3408575
115	0x3e1e2f0f	0.15447639
116	0xbdfc8b3b	-0.123312436
117	0xbcde7d40	-0.027159333
118	0x3e45cef8	0.19317234
119	0xbd34596f	-0.044030603
120	0x3e17ced1	0.14824988
121	0x3e5264cf	0.20546268
122	0x3e156d8b	0.14592569
123	0xbe18a78b	-0.14907663
124	0x3cc82f95	0.024436751
125	0xbe055ac9	-0.13022913
126	0x3e5b237c	0.21400255
127	0x3d04760d	0.032339144
128	0x3eae3211	0.34022573
129	0xbe33854a	-0.17531314
130	0xbe1f30ea	-0.15546003
131	0xbe62789d	-0.22116323
132	0xbe885c4f	-0.26632926
133	0x3d1d872f	0.038459
134	0xbd4ca7ae	-0.0499646
135	0x3e3702d1	0.17872168
136	0xbda152d1	-0.07877124
137	0xbe6a4255	-0.22876866
138	0xbce50934	-0.02795849
139	0xbc89f906	-0.016842376
140	0x3df02e24	0.117275506
141	0xbd9c835b	-0.076422416
142	0xbe35f942	-0.17770866
143	0xbe48f7b7	-0.19625746
144	0xbd3d32a2	-0.046190865
145	0x3e5e290d	0.21695347
146	0xbd8ec585	-0.069712676
147	0xbe02d149	-0.12775148
148	0x3e3d0982	0.18460658
149	0x3e179b02	0.14805225
150	0x3e40b9bb	0.1882085
151	0xbe102712	-0.14077404
152	0x3e8fb24b	0.28065714
153	0x3e698724	0.22805458
154	0xbe51cf8d	-0.2048933
155	0xbe467f40	-0.1938448
156	0xbd05df80	-0.03268385
157	0x3c9e732c	0.019342028
158	0xbe71ead0	-0.2362473
159	0xbd80ef41	-0.06295634
160	0xbe6b2f48	-0.22967255
161	0xbd04ad3b	-0.032391768
162	0xbdf7e6d6	-0.12104575
163	0xbbfbc7c5	-0.0076837265
164	0x3d44cdf4	0.048047975
165	0x3d9bfbca	0.07616384
166	0x3dc4e134	0.096132666
167	0x3e91ac3b	0.28451714
168	0x3d89f80f	0.067367665
169	0xbd066927	-0.032815125
170	0xbd929e8a	-0.07159145
171	0xbe3325b1	-0.17494847
172	0x3da83dd6	0.08214919
173	0x3d747529	0.059682045
174	0x3dcdca24	0.10048321
175	0x3e0883f3	0.13331585
176	0x3e3c1791	0.18368365
177	0x3e5523dc	0.2081446
178	0x3e0ec439	0.1394204
179	0x3db4844e	0.088142976
180	0x3e4bd76c	0.19906396
181	0x3e2b8ed8	0.1675371
182	0xbe5e0e4f	-0.21685146
183	0xbe2724ef	-0.16322683
184	0x3d86f024	0.06588772
185	0x3d42faaa	0.047602333
186	0xbe062101	-0.13098527
187	0xbe46f922	-0.19430974
188	0x3e243c5a	0.16038647
189	0xbd6d7ff6	-0.05798336
190	0x3cff8ebd	0.031195993
191	0x3e24b815	0.16085847
192	0x3e929545	0.2862951
193	0xbe1966a1	-0.14980556
194	0x3d183e54	0.037168816
195	0x3dda4555	0.10657755
196	0xbd3f2ffb	-0.046676617
197	0xbdd46368	-0.10370523
198	0x3e3b52f8	0.18293369
199	0x3e2bfaa7	0.16794835
200	0xbd845296	-0.064610645
201	0x3c7cb159	0.015423142
202	0xbe31d8d2	-0.17367867
203	0x3d900917	0.07032984
204	0xbd19c511	-0.037541453
205	0x3d2595ce	0.040426068
206	0xbd5ba03c	-0.05361961
207	0x3d17c9cf	0.037057694
208	0x3dd8a3c3	0.1057811
209	0x3e40ab15	0.18815263
210	0xbd4f7a76	-0.050653897
211	0xbc5ca79e	-0.013467697
212	0xbcb14244	-0.021638043
213	0x3e3f1269	0.18659367
214	0x3d56ad8b	0.052411597
215	0x3da9093d	0.08253715
216	0xbe77c5ab	-0.24196498
217	0x3e066490	0.13124299
218	0x3dad35d9	0.08457536
219	0xbe207fd8	-0.15673769
220	0xbd472f85	-0.048629303
221	0xbe204f28	-0.15655196
222	0x3b90a740	0.004414469
223	0xbc93dd2b	-0.018049797
224	0xbbc9e401	-0.0061612134
225	0xbd2dad2d	-0.04240148
226	0x3d1e41ba	0.0386369
227	0xbd089c29	-0.03335205
228	0x3d5b9619	0.05360994
229	0xbd8e2c0f	-0.06941997
230	0x3dec6966	0.11543541
231	0x3c54552f	0.0129597625
232	0xbdc62f38	-0.09676975
233	0xbd916d13	-0.071008824
234	0xbda2c0c5	-0.07946924
235	0x3bef5ae9	0.0073045385
236	0x3d376024	0.04476942
237	0x3e1021f8	0.14075458
238	0xbd96e373	-0.07367601
239	0xbd9f420b	-0.077762686
240	0xbe176cdd	-0.14787622
241	0xbdcac23d	-0.09900329
242	0x3e19e25e	0.15027758
243	0x3df1b991	0.11802972
244	0xbe474850	-0.19461179
245	0xbb9980a9	-0.004684527
246	0x3cf1a41b	0.029497197
247	0x3dc616fd	0.096723534
248	0xbcbc70d1	-0.023003014
249	0x3c1b7afd	0.009489772
250	0x3e31aead	0.1735179
251	0x3e0eb6ae	0.13936874
252	0x3c127886	0.008939868
253	0x3a67f73f	0.0008848793
254	0xbba1c2ad	-0.0049365372
255	0x3db39f2c	0.08770594

DGM1.gate_G.0.bias f4 [100]
0	0x3d7e4c17	0.062084284
1	0x3e84d948	0.25947022
2	0x3d7ecf73	0.062209558
3	0x3e92d524	0.28678238
4	0x3ea68539	0.32523516
5	0x3daaced8	0.083402336
6	0x3d8d6512	0.06904043
7	0x3de7d044	0.113190204
8	0x3e4d5465	0.20051725
9	0x3dfae485	0.12250618
10	0x3da38584	0.079844505
11	0x3ddfd182	0.10928632
12	0x3e3951c5	0.18097599
13	0x3e62a68f	0.2213385
14	0x3e318ef6	0.17339692
15	0x3e6e93bb	0.23298542
16	0x3da674fd	0.081277825
17	0x3e7ec248	0.248788
18	0x3e3baa6a	0.18326727
19	0x3e1b6bde	0.15177867
20	0x3d770aab	0.06031291
21	0x3e13347f	0.14375494
22	0x3dc268c0	0.09492636
23	0x3e48e8dd	0.1962008
24	0x3e249b7a	0.16074935
25	0x3e8de650	0.27714777
26	0x3e1c1b9a	0.15244904
27	0x3df7f403	0.121070884
28	0x3d590a7a	0.052988507
29	0x3e3432f1	0.17597558
30	0x3dae5c1c	0.08513662
31	0x3e0042e2	0.12525514
32	0x3dfd8897	0.12379568
33	0x3e4f4083	0.20239453
34	0x3c628e0b	0.013827811
35	0x3e6d7915	0.2319072
36	0x3e5af701	0.21383287
37	0x3e3d3f2c	0.1848113
38	0x3e4d1f94	0.20031577
39	0x3dbbcb8d	0.091696836
40	0x3d98056b	0.074229084
41	0x3e2940b4	0.16528589
42	0x3ede3c56	0.43405408
43	0x3e6febbe	0.23429772
44	0x3dff3dc3	0.12462952
45	0x3e34795d	0.17624421
46	0x3e28562c	0.16439122
47	0x3e540ef9	0.20708837
48	0x3e30349b	0.17207567
49	0x3d8f87a8	0.07008296
50	0x3dd50d36	0.104029104
51	0x3e291812	0.16513088
52	0x3d78676c	0.060645506
53	0x3d691708	0.05690673
54	0x3ceba00b	0.028762838
55	0x3f18388e	0.59461296
56	0x3e3ed6ac	0.18636578
57	0x3db4b901	0.08824349
58	0x3e085b55	0.1331609
59	0x3d815a0b	0.063160025
60	0x3dd8e467	0.10590439
61	0x3e8a69ee	0.27033943
62	0x3dce582d	0.10075412
63	0x3e52fa56	0.20603308
64	0x3e3a25cf	0.18178485
65	0x3e4ce262	0.20008233
66	0x3e56555f	0.20931004
67	0x3d804515	0.06263176
68	0x3ce55767	0.027995778
69	0x3e4706a2	0.19436124
70	0x3e4608a5	0.19339235
71	0x3e38f1da	0.18061009
72	0x3d88f5b6	0.06687491
73	0x3e76fb26	0.24119243
74	0x3dda76f5	0.106672205
75	0x3d82be34	0.063839346
76	0x3d8dfea9	0.06933338
77	0x3e6196cc	0.2203018
78	0x3deb160b	0.11478814
79	0x3de22429	0.11042053
80	0x3e31120d	0.17292042
81	0x3e20998b	0.15683572
82	0x3e4395cd	0.19100113
83	0x3d827786	0.063704535
84	0x3d6a5310	0.05720812
85	0x3e29c4f3	0.16579036
86	0x3d77b11f	0.06047165
87	0x3e1db14c	0.15399665
88	0x3e5578be	0.2084684
89	0x3e455549	0.19270815
90	0x3e272fc5	0.16326816
91	0x3d872c19	0.06600208
92	0x3dacde92	0.084408894
93	0x3e003740	0.12521076
94	0x3e00505d	0.12530656
95	0x3e239c0c	0.15977496
96	0x3d32f965	0.043694872
97	0x3ec2f491	0.38077214
98	0x3d4ce949	0.050027166
99	0x3e6c6594	0.23085624

DGM1.gate_R.0.weight f4 [100, 102]
0	0xbc75b5a2	-0.014996918
1	0xbd5bf89b	-0.053703886
2	0x3dcb9744	0.09940961
3	0x3c07af9e	0.0082816165
4	0x3cf101cd	0.029419804
5	0xbd82ffaf	-0.06396424
6	0x3cb44376	0.022004824
7	0xbe19d7c0	-0.15023708
8	0xbda8711c	-0.08224699
9	0xbd106c21	-0.03525937
10	0xbd5a22ec	-0.05325596
11	0xbd42461b	-0.04743014
12	0x3d882182	0.06647016
13	0xbd960267	-0.07324677
14	0xbd81395c	-0.063097686
15	0x3d097726	0.033560894
16	0xbcfb2b79	-0.030660378
17	0xbe033c19	-0.12815894
18	0x3ccc16f2	0.024913285
19	0x3d1863d0	0.037204564
20	0xbc74202c	-0.0149002485
21	0x3c2e87ea	0.010652522
22	0x3d144c7e	0.03620576
23	0xbdb75caf	-0.08953225
24	0x3d9a71e6	0.07541256
25	0x3bb62488	0.005558554
26	0xbdc32223	-0.095279954
27	0x3d3a57a2	0.04549373
28	0x3d835513	0.06412711
29	0xbe1d6a2d	-0.15372534
30	0x3c65b759	0.014020764
31	0xbd328723	-0.043585908
32	0x3ce4cae2	0.027928773
33	0xbd8e9491	-0.069619305
34	0xbdccfac8	-0.1000877
35	0xbb84f0cc	-0.0040570255
36	0xbdccbccf	-0.0999695
37	0x3d403447	0.046924856
38	0x3e07f78e	0.13278028
39	0x3db4cc62	0.088280454
40	0xbe16f8c1	-0.1474333
41	0xbca3233e	-0.019914266
42	0xbb39117a	-0.0028239177
43	0x3d9721f1	0.07379521
44	0xbdb33e53	-0.08752122
45	0x3da1767e	0.07883929
46	0xbcf17a9c	-0.02947741
47	0x3e18d7ac	0.14926022
48	0x3d5d7dda	0.0540751
49	0x3d8a2a02	0.067462936
50	0x3d94df7d	0.072691895
51	0x3d95ef98	0.073210895
52	0xbca20c33	-0.019781208
53	0x3c981492	0.018564496
54	0xbd3ff3f5	-0.046863515
55	0xbcd63d88	-0.026152387
56	0x3cca4e5d	0.02469557
57	0x3dec0cea	0.11525901
58	0xbbce5ecf	-0.006297923
59	0xbdcea41e	-0.100898966
60	0xbd0f91b6	-0.03505107
61	0x3df40fde	0.11917089
62	0xbb41348c	-0.0029480783
63	0xbc20cdc5	-0.009814684
64	0x3dae5fe5	0.08514384
65	0x3da32dd8	0.079677284
66	0x3d6696de	0.056296222
67	0xbe25bb51	-0.16184737
68	0xbd249dad	-0.040189434
69	0x3d4c5b74	0.049891904
70	0x3db9339c	0.09043047
71	0x3d75baf9	0.059992764
72	0xbcc2ade4	-0.023764558
73	0xbb67d1e6	-0.0035372912
74	0x3cd69e32	0.02619848
75	0x3d711608	0.0588589
76	0xbdff747b	-0.12473389
77	0x3d447c74	0.04797025
78	0xbc5e66b7	-0.013574294
79	0x3d41077d	0.047126282
80	0xbd97c003	-0.0740967
81	0xbaa72b70	-0.0012754034
82	0x3d2d7cab	0.04235522
83	0x3d16d5e1	0.036825065
84	0x3ca82f6f	0.02053043
85	0x3d9f90b1	0.077912696
86	0xbd9374ba	-0.07199998
87	0xbd3b1c0b	-0.04568104
88	0x3c017dcf	0.00790353
89	0x3d59a3cf	0.053134736
90	0xbd447d72	-0.047971196
91	0x3da2b6fe	0.07945059
92	0x3d93f771	0.0722493
93	0xbdb4e722	-0.088331476
94	0xbb1311e6	-0.0022441088
95	0xbdde1806	-0.10844426
96	0x3df37070	0.1188668
97	0x3df52b0c	0.11971101
98	0xbd8d67d5	-0.0690457
99	0xbde54273	-0.11194315
100	0x3d441b51	0.047877613
101	0x3d410f70	0.047133863
102	0xbdc5718d	-0.09640799
103	0x3c4257fb	0.0118617965
104	0x3d65ddf7	0.056119885
105	0x3db0311f	0.08603119
106	0x3c60594c	0.013693165
107	0x3cf7c53d	0.030245418
108	0xbd404aec	-0.04694645
109	0x3c38e44f	0.011284902
110	0x3db1acd4	0.086755425
111	0xbdd37230	-0.10324514
112	0x3d250bd2	0.040294476
113	0xbd89b545	-0.067240275
114	0xbd1804ea	-0.03711406
115	0x3dc3cab2	0.095601454
116	0x3d379bc6	0.04482629
117	0xbda42219	-0.08014316
118	0x3ccc3ebb	0.024932256
119	0x3cef4ac9	0.029210465
120	0xbdc4962d	-0.09598956
121	0xbcc61ba6	-0.024183106
122	0x3d6adbd0	0.057338536
123	0xbcacb2c5	-0.021081338
124	0x3d56c60f	0.052434977
125	0x3de77354	0.11301294
126	0x3d08e748	0.033423692
127	0x3d85e600	0.0653801
128	0xbdadf3d3	-0.084937714
129	0x3d133bee	0.035945825
130	0xbc02d518	-0.007985376
131	0xbc154dd4	-0.009112794
132	0x3c57f86b	0.013181786
133	0xbd28e75d	-0.04123627
134	0x3caef00b	0.021354696
135	0x3ced73e2	0.028985921
136	0xbc85beb3	-0.016326284
137	0xbdb1a3a9	-0.08673794
138	0x3bc76b74	0.0060858075
139	0xbdb388c4	-0.0876632
140	0x3cb07a82	0.021542791
141	0xbd2e8158	-0.04260382
142	0x3d06db05	0.032923717
143	0xbd110e90	-0.03541428
144	0xbd44fad6	-0.04809078
145	0xbe012e81	-0.12615396
146	0x3d6d7c6e	0.057979994
147	0x3db0763c	0.086163014
148	0x3c410134	0.011780072
149	0x3d492b93	0.04911382
150	0xbdd43e4f	-0.10363447
151	0x3bc757fc	0.0060834866
152	0x3d0a3218	0.03373918
153	0x3c8c609e	0.017135914
154	0x3ddea2d8	0.10870904
155	0x3c2ac455	0.010422786
156	0x3d475f86	0.048675083
157	0xbd02af42	-0.03190542
158	0x3dee0ee2	0.116239324
159	0xbd822344	-0.06354383
160	0x3c8e3fea	0.017364461
161	0xbd63eae4	-0.05564393
162	0x3dd3a316	0.103338405
163	0xbddecc9e	-0.108788714
164	0x3cd9aa78	0.026570544
165	0x3da4a8c7	0.08040004
166	0xbdb29fc9	-0.08721883
167	0xbcf70f60	-0.030158699
168	0x3d9206a0	0.0713017
169	0x3dadff74	0.084959894
170	0xbd8cbe6f	-0.0687226
171	0xbd16e742	-0.03684164
172	0x3d6aaf57	0.057296123
173	0xbd186c99	-0.03721294
174	0x3d4a7dae	0.049436264
175	0xbdc33bdd	-0.095329024
176	0x3d7d4f10	0.061842978
177	0xbd265b4c	-0.04061441
178	0xbca9569a	-0.020671178
179	0xbbfb7061	-0.0076733087
180	0xbdb4bc48	-0.08824974
181	0xbdcdfc00	-0.10057831
182	0x3d6d4724	0.057929173
183	0x3c2fac15	0.01072218
184	0xbd8bbef1	-0.068235286
185	0x3da4a7e6	0.080398366
186	0x3da0509d	0.07827876
187	0xbd167afb	-0.036738377
188	0xbd6306d8	-0.05542645
189	0xbc684bb6	-0.014178207
190	0x3d3e94e0	0.046528697
191	0xbcdea474	-0.027178027
192	0x3dc6ea33	0.09712639
193	0x3d486149	0.048920903
194	0x3bce1ca5	0.006290036
195	0x3c9a28f9	0.018818365
196	0x3d9d8bbd	0.076926686
197	0xbc374bec	-0.011187535
198	0x3d819022	0.06326319
199	0xba8f26be	-0.001092158
200	0x3ca9ef38	0.020743951
201	0xbcf3d4dd	-0.029764587
202	0xbb829a2a	-0.003985663
203	0x3bcc1f51	0.006229319
204	0xbd892d1f	-0.06698059
205	0x3e0a8a0a	0.1352922
206	0xbd2bfc7e	-0.041988842
207	0xbd784da2	-0.06062091
208	0x3d2cc6b8	0.0421817
209	0x3d8eaa88	0.0696612
210	0xbd1f6b0a	-0.03892044
211	0x3d12ca07	0.0358372
212	0xbcc9e445	-0.02464498
213	0xbc957d96	-0.01824836
214	0x3dc9cd74	0.0985364
215	0xbd0aeef3	-0.033919286
216	0xbdbb2d5d	-0.09139512
217	0x3de366fb	0.11103626
218	0x3c8e1a84	0.017346628
219	0xbc265877	-0.010152928
220	0x3d877d2b	0.06615671
221	0xbd1d7a84	-0.038446918
222	0x3d8f6f7d	0.070036866
223	0x3ce9606c	0.02848836
224	0x3d78ed95	0.06077345
225	0xbd05d533	-0.032674026
226	0xbd2bc93e	-0.041939966
227	0xbd22c653	-0.039739918
228	0x3dcebfb1	0.10095156
229	0x3c89a3b5	0.016801694
230	0x3dd46ece	0.10372697
231	0x3d06d0f0	0.032914102
232	0xbbffdaac	-0.00780805
233	0xbe104ea2	-0.14092496
234	0x3c697cb8	0.014250927
235	0x3d560a64	0.052256003
236	0x3c89953b	0.016794791
237	0x3d50ed8e	0.0510078
238	0x3c594be7	0.013262725
239	0x3d451e9c	0.048124894
240	0xbce446fd	-0.027865881
241	0x3d21edd6	0.03953346
242	0x3df5054e	0.119639024
243	0x3db2d7d4	0.08732572
244	0xbd01f290	-0.031725466
245	0xbd13f1c3	-0.036119234
246	0xbd86a525	-0.065744676
247	0x3d0169fb	0.03159521
248	0x3d8f416b	0.06994899
249	0xbdea4129	-0.114382096
250	0x3dad378e	0.08457862
251	0x3cc67143	0.02422393
252	0x3cee9e7c	0.029128306
253	0x3d050583	0.03247596
254	0xbe038424	-0.12843376
255	0xbd62170c	-0.05519776

DGM1.gate_R.0.bias f4 [100]
0	0x3c3b9d12	0.011451023
1	0x3d12575b	0.03572784
2	0xbc84bb00	-0.01620245
3	0xbd175c4a	-0.036953248
4	0x3dc85698	0.097821414
5	0x3d802cd3	0.062585495
6	0x3ea916a8	0.33025098
7	0xbb26b437	-0.0025437006
8	0x3d2cbecd	0.04217415
9	0x3e09483d	0.13406463
10	0x3d54f3ee	0.051990442
11	0xbd9783aa	-0.0739816
12	0x3e262b44	0.16227442
13	0xbcbc43e4	-0.022981592
14	0x3dc8c065	0.09802321
15	0x3e2f896b	0.17142265
16	0x3e0a3f3b	0.13500683
17	0x3da807f2	0.082046404
18	0x3d8723b7	0.06598609
19	0x3e0140bb	0.12622349
20	0x3dc5eee9	0.09664709
21	0xbbcfb9df	-0.0063392962
22	0xbe136f4e	-0.14397928
23	0x3de3df92	0.11126627
24	0xbd0ab33d	-0.03386234
25	0x3bb07f99	0.0053863046
26	0x3da47e40	0.08031893
27	0x3da4dafd	0.08049581
28	0xbd38b4a2	-0.04509414
29	0x3e180978	0.14847362
30	0xbd54f0f2	-0.051987596
31	0xbdff5dd6	-0.1246907
32	0x3c9050bf	0.017616628
33	0xbdf8dd7d	-0.121516205
34	0xbd0490bd	-0.032364596
35	0x3d682612	0.05667693
36	0xbdfdf877	-0.124009065
37	0xbdc87af7	-0.09789079
38	0x3c812f05	0.015769491
39	0xbd20ae9d	-0.039229024
40	0xbba354ec	-0.0049844887
41	0x3d12f55d	0.035878528
42	0xbcf64fae	-0.030067291
43	0xbcc519a5	-0.02406008
44	0x3bd42a3f	0.0064747627
45	0x3c5b2854	0.013376314
46	0x3b970afd	0.004609464
47	0xbc2851b5	-0.010273387
48	0x3e072d1d	0.13200803
49	0x3a9e6532	0.0012084602
50	0x3d31e849	0.043434415
51	0xbc39da1f	-0.011343508
52	0x3c9cef52	0.019157086
53	0xbd9e3d24	-0.077265054
54	0xbc473bdf	-0.0121602705
55	0xbe07c52e	-0.13258812
56	0xbe48c299	-0.19605483
57	0x3cbf3ab1	0.023343416
58	0xbbe5524b	-0.0069983355
59	0xbdfc9db8	-0.1233477
60	0xbca1853e	-0.019716855
61	0x3a4dfeef	0.00078581175
62	0xb9a7c53e	-0.0003199968
63	0xbd0d8279	-0.034548257
64	0x3dd50862	0.104019895
65	0xbc96af83	-0.018394237
66	0xbc88f5ad	-0.01671871
67	0xbd127547	-0.035756376
68	0xbde81e87	-0.11333948
69	0xbc2f445a	-0.010697449
70	0x3c80b91f	0.015713273
71	0x3e0bc2a7	0.13648473
72	0x3e1cea51	0.1532376
73	0xbd9438a8	-0.07237369
74	0x3cb5cc81	0.022192242
75	0x3e0bcb40	0.13651752
76	0xbd3387a1	-0.043830518
77	0x3d9c3507	0.07627302
78	0xbdcf29a5	-0.10115365
79	0x3c9ab9ba	0.01888739
80	0xbcc60f78	-0.024177298
81	0x3c55a7df	0.013040512
82	0xbd8f185f	-0.0698707
83	0x3e2c6986	0.16837129
84	0x3c985420	0.018594801
85	0xbcd8241f	-0.026384411
86	0x3c947e79	0.018126713
87	0x3d0e0301	0.034670833
88	0x3d686baa	0.0567433
89	0x3c6c0afd	0.014406917
90	0x3d0686d2	0.03284342
91	0x3c918593	0.017763888
92	0x3da83465	0.082131185
93	0x3d0e3ebd	0.0347278
94	0x3c112c66	0.008860683
95	0x3e62547d	0.22102542
96	0x3d12c4d3	0.035832237
97	0xbd81a8b1	-0.063310035
98	0xbc15b575	-0.009137501
99	0xbd467308	-0.048449546

DGM1.gate_H.0.weight f4 [100, 102]
0	0xbccea7af	-0.025226442
1	0xbd5d9291	-0.054094855
2	0x3da18ad4	0.078878075
3	0xbde6642b	-0.11249574
4	0xbd24041b	-0.040042978
5	0x3dac459f	0.08411717
6	0x3d1789d8	0.036996692
7	0xbc76941f	-0.015049963
8	0xbba440d4	-0.005012611
9	0xbc743dc4	-0.014907304
10	0xbc96a376	-0.018388491
11	0xbd18ed7d	-0.03733586
12	0x3e22edca	0.15911022
13	0xbd7b99fc	-0.061426148
14	0xbdb86e06	-0.0900536
15	0xbd845966	-0.06462364
16	0xbac2a685	-0.0014850652
17	0x3d6cc9ca	0.05780963
18	0xbc00d1d5	-0.007862528
19	0xbdbad34d	-0.09122334
20	0xbd0c526e	-0.0342583
21	0x3d07bff2	0.033142038
22	0xbc8239f8	-0.015896782
23	0x3c95b3f7	0.01827429
24	0x3dec70b0	0.11544931
25	0xbcd2f1e0	-0.0257501
26	0x3da990df	0.08279585
27	0xbd9a6650	-0.07539046
28	0x3c7979b6	0.015226772
29	0x3ce69c73	0.028150773
30	0xbd698adc	-0.057017192
31	0x3dc5695e	0.09639238
32	0xbd8fd144	-0.07022336
33	0x3c95cc70	0.01828596
34	0xbd6002b7	-0.05469009
35	0xbc9d3d5a	-0.019194294
36	0x3d9db108	0.07699782
37	0x3cd6831b	0.026185563
38	0xbcbf58f8	-0.023357853
39	0x3d28aaa7	0.04117837
40	0xbe7d70f3	-0.24750118
41	0xbdb63f3f	-0.08898782
42	0xbdec3e3b	-0.11535307
43	0xbdcd5b3d	-0.10027168
44	0xbdfa65e8	-0.12226468
45	0xbc4e6b53	-0.01259883
46	0xbd2a5bf7	-0.04159161
47	0xbdda5437	-0.10660594
48	0x3cde9884	0.027172334
49	0xbdab473a	-0.08363195
50	0x3d834986	0.06410508
51	0x3a5d7f56	0.00084494555
52	0x3c91b453	0.01778618
53	0xbca1fabb	-0.019772878
54	0xbd337516	-0.043812834
55	0xbd0c7eee	-0.034300737
56	0xbd2ef565	-0.042714495
57	0x3d4a2ecb	0.04936103
58	0xbd6bddf8	-0.057584733
59	0xbc6d4865	-0.014482592
60	0x3d164206	0.03668406
61	0x3dc5f9cd	0.09666786
62	0xbd7cac23	-0.0616876
63	0x3e18d4b2	0.14924887
64	0x3d725b86	0.059169315
65	0xbc3683fd	-0.011139867
66	0xbd58b34b	-0.052905362
67	0x3d1c1a2a	0.03811089
68	0x3da9e793	0.082961224
69	0x3d9c250d	0.076242544
70	0x3d77b0e1	0.06047142
71	0x3e121079	0.14264096
72	0xbbdf7c7f	-0.006820261
73	0x3d6d9514	0.0580035
74	0xbd560aef	-0.05225652
75	0x3dad6b83	0.08467772
76	0xbe054271	-0.13013627
77	0xbd5d3185	-0.054002304
78	0xbd2cae8f	-0.04215866
79	0x3c9782f9	0.01849507
80	0xbcbc5499	-0.022989558
81	0xbc6317b1	-0.013860629
82	0xbd2bc526	-0.041936062
83	0xbd3437a9	-0.043998394
84	0xbd41c467	-0.047306444
85	0xbdec1de3	-0.11529138
86	0xbc6c38d4	-0.014417846
87	0xbd869afa	-0.06572528
88	0xbcf487ac	-0.02984985
89	0xbccaa01f	-0.024734555
90	0x3cad5c8a	0.02116229
91	0xbbce358b	-0.006293004
92	0xbdb76a8a	-0.089558676
93	0xbd6369a9	-0.055520687
94	0xbd3fdf23	-0.04684366
95	0x3ce27d5c	0.027647667
96	0xbdbc5642	-0.0919614
97	0xbe0e490f	-0.13895057
98	0xbd142898	-0.036171526
99	0x3c5bf51f	0.013425141
100	0x3d9e0e0b	0.07717522
101	0x3d3bafd7	0.04582199
102	0x3d2478e0	0.040154338
103	0xbb824050	-0.003974952
104	0xbd1ca699	-0.038244817
105	0xbd40883e	-0.04700493
106	0x3a54dd33	0.00081201195
107	0xbd1c27ca	-0.038123883
108	0x3db9e2dc	0.09076473
109	0xbd693fca	-0.0569456
110	0x3e3d7a21	0.1850362
111	0x3cfd811a	0.03094535
112	0x3d196040	0.037445307
113	0xbb9fcd46	-0.0048767654
114	0x3dceed33	0.10103836
115	0x3d316a3b	0.0433142
116	0x3d46d31d	0.048541177
117	0xbab82a2e	-0.0014050656
118	0xbe3276df	-0.17428158
119	0xbcd6a060	-0.02619952
120	0x3d0322c7	0.032015588
121	0xbdb6045a	-0.08887549
122	0xbd320fe7	-0.043472197
123	0xbd07f410	-0.03319174
124	0xbe5df922	-0.21677068
125	0xbe526c84	-0.20549208
126	0x3c333000	0.010936737
127	0x3d8a03db	0.067390166
128	0x3da845a6	0.082164094
129	0x3c9461b7	0.018113
130	0x3d82b14b	0.06381472
131	0x3ddb71b3	0.10715046
132	0x3d1d3221	0.038377885
133	0x3c82e7db	0.015979698
134	0x3d88d075	0.06680385
135	0x3dd54c9f	0.10415005
136	0xbcb24043	-0.021759158
137	0x3c88bcad	0.01669153
138	0xbd963224	-0.07333782
139	0xbd2dc14c	-0.04242067
140	0x3d7c7fe0	0.06164539
141	0xbd8303e5	-0.06397227
142	0xbccd8595	-0.025088111
143	0x3d65684f	0.05600768
144	0xbc46854d	-0.012116742
145	0xbd96ddd6	-0.073665306
146	0x3dcdd88b	0.10051068
147	0xbd2823ba	-0.041049697
148	0xbd77d521	-0.06050599
149	0xbca1e61b	-0.019763043
150	0x3da66287	0.08124261
151	0x3e1ca660	0.15297842
152	0xbddfc23e	-0.10925721
153	0xbdaa163d	-0.08305023
154	0x3d0bf572	0.03416962
155	0xbdab0c0f	-0.08351909
156	0xbd71bb95	-0.059016783
157	0x3dd4c809	0.10389716
158	0x3dd988db	0.10621806
159	0x3d14c875	0.036323983
160	0xbd8efb35	-0.06981508
161	0x3d24c215	0.040224154
162	0x3d077715	0.03307255
163	0x3e28fe5f	0.16503285
164	0x3c722640	0.014779627
165	0xbdcd1a12	-0.10014738
166	0x3d78822a	0.06067101
167	0x3dc5cee1	0.096586
168	0xbcedc243	-0.029023295
169	0x3d6bed42	0.057599314
170	0x3d5bae95	0.05363329
171	0xbdcc54e7	-0.09977131
172	0x3c955a60	0.01823157
173	0xbd1beea3	-0.03806938
174	0xbca62ca9	-0.020284967
175	0xbd966c2b	-0.0734485
176	0xbcd7fc61	-0.02636546
177	0x3d88689b	0.06660577
178	0xbdac6fa0	-0.08419728
179	0xbc66ed28	-0.014094628
180	0xbc291aa7	-0.010321296
181	0x3ba44995	0.0050136545
182	0xbd8b8e54	-0.06814256
183	0x3c040cc8	0.008059688
184	0xbc3b47a2	-0.011430653
185	0x3d64b2fb	0.05583475
186	0x3d94373a	0.07237096
187	0x3e07afad	0.13250609
188	0xbd9b4d38	-0.07583088
189	0x3dbeebff	0.093223564
190	0x3d40ff4e	0.047118478
191	0xbc44648f	-0.011986866
192	0xbd735bee	-0.059413843
193	0x3df4bafc	0.11949727
194	0x3d707f57	0.05871519
195	0xbe2f1c05	-0.17100532
196	0xbd0fb8f6	-0.035088502
197	0x3dbe1079	0.09280486
198	0xbd4b9333	-0.049700927
199	0xbe1956a6	-0.1497446
200	0x3df73ad4	0.120717674
201	0x3d2f6115	0.042817194
202	0xbd7b4ee5	-0.061354537
203	0xbb661ff2	-0.0035114256
204	0x3d392d89	0.04520944
205	0x3ccbf04a	0.024894852
206	0x3d635af2	0.055506654
207	0xbda0bec9	-0.078488894
208	0xbd9c604a	-0.07635553
209	0xbd0f5681	-0.034994606
210	0x3d54c51e	0.051945798
211	0xbd434df0	-0.04768175
212	0xbd6e3fe4	-0.0581664
213	0xbdc0d0a6	-0.094147965
214	0xbaddce5f	-0.0016922465
215	0xbd172448	-0.036899835
216	0xbcca5545	-0.024698863
217	0x3d32fb9e	0.043696992
218	0xbd861e37	-0.06548732
219	0x3c80cced	0.015722716
220	0xbcb22939	-0.021748172
221	0x3dbeee27	0.09322768
222	0xbd2f0063	-0.04272498
223	0x3d868aa7	0.065694146
224	0xbde020a9	-0.109437294
225	0x3d8274bb	0.06369921
226	0xbd1152b9	-0.03547928
227	0xbd46f627	-0.048574593
228	0x3e11e4f4	0.14247495
229	0x3de554c5	0.11197809
230	0x3c6f146e	0.014592273
231	0xbe473211	-0.19452693
232	0xbcf3896e	-0.029728618
233	0xbe2a5f93	-0.16638021
234	0xbd9d0d63	-0.07668569
235	0xbd996b5f	-0.074911825
236	0xbdb6afcc	-0.08920249
237	0x3c8427c1	0.016132237
238	0xbdd5adb1	-0.1043352
239	0xbdb46d31	-0.08809889
240	0xbc8ff8b0	-0.017574638
241	0xbdd51b1c	-0.10405561
242	0xbd7202d3	-0.059084725
243	0x3db3b7a9	0.08775265
244	0xbd68ad43	-0.05680586
245	0xbca126b6	-0.01967178
246	0xbce2538e	-0.027627733
247	0x3c4be4af	0.012444659
248	0x3d16d282	0.03682185
249	0x3d3a37c5	0.045463342
250	0x3d0621c7	0.032747056
251	0x3d38f82d	0.045158554
252	0xbd0c7e98	-0.034300417
253	0x3d13d4cd	0.036091615
254	0xbd913c24	-0.07091549
255	0x3d92fe80	0.07177448

DGM1.gate_H.0.bias f4 [100]
0	0x3d94d7ec	0.07267746
1	0xbdab1738	-0.08354038
2	0xbabc34f5	-0.0014359044
3	0x3a1b89e2	0.0005933327
4	0x3a5e259b	0.00084742316
5	0xbd41e373	-0.047336053
6	0x3cea9e7c	0.028640024
7	0x3c455267	0.012043572
8	0x3c6f2749	0.014596769
9	0x3c93a127	0.01802118
10	0x3cae20ab	0.021255812
11	0x3d135735	0.03597184
12	0xbdaa2278	-0.08307356
13	0x3d014832	0.03156299
14	0xbbed55e7	-0.0072429064
15	0x3d7a3d29	0.061093483
16	0x3cd0f941	0.025509479
17	0xbdcbaf9c	-0.09945604
18	0x3c80b766	0.015712451
19	0xbc586096	-0.013206622
20	0xbb9ed4d1	-0.004847147
21	0x3bdfc490	0.006828852
22	0xbc8805a2	-0.016604248
23	0xbdc352aa	-0.09537251
24	0x3bf1de69	0.0073812497
25	0xbdb1aa61	-0.08675075
26	0x3c8554dd	0.016275818
27	0x3c5b934a	0.013401816
28	0x3dabe557	0.083933525
29	0x3cafc36e	0.021455493
30	0x3d1ec0b3	0.03875799
31	0x3c834586	0.016024362
32	0xbe08aa74	-0.13346273
33	0xbe0cd232	-0.13752058
34	0xbd50e3bc	-0.050998434
35	0xbb1ae25b	-0.0023633454
36	0xbc89ebcd	-0.016836071
37	0xbce3f44e	-0.027826454
38	0x3d80d60a	0.06290825
39	0xbda6e1c4	-0.0814853
40	0x3d57e3ca	0.05270747
41	0xbde2835e	-0.110602126
42	0xbd5d17d3	-0.0539778
43	0x3d8d6318	0.06903666
44	0xbdcab4b3	-0.09897747
45	0x3d9888ba	0.074479535
46	0x3d8cf7b8	0.06883186
47	0xbd9a1ca1	-0.07524992
48	0x3d675936	0.056481563
49	0xbba9c7e4	-0.0051812995
50	0xbba6a67c	-0.0050857645
51	0x3bb28635	0.0054481276
52	0x3d26bf78	0.040709943
53	0xbca522a2	-0.020158116
54	0xbd39bbd9	-0.04534516
55	0xbd04d8e4	-0.032433406
56	0xbd377680	-0.044790745
57	0xbd859573	-0.06522646
58	0xbd4c1572	-0.04982514
59	0x3d9bd478	0.076088846
60	0xbb90ebbd	-0.0044226334
61	0xbda3a099	-0.07989616
62	0x3c825a36	0.015912157
63	0x3c467831	0.012113617
64	0xbc2ade59	-0.010428988
65	0xbcbe373d	-0.023219699
66	0x3d89f740	0.06736612
67	0x3d1d23d8	0.03836426
68	0x3cb1ccf5	0.021704176
69	0xbdad2ca2	-0.08455779
70	0xbdb082ac	-0.08618674
71	0xbc93893a	-0.01800977
72	0xbd050aac	-0.03248088
73	0x3c885c57	0.016645594
74	0xbdad7f89	-0.08471591
75	0x3d881321	0.066442735
76	0x3ca396cd	0.019969368
77	0x3dea5185	0.1144133
78	0x3d954f08	0.07290465
79	0x3cd28140	0.025696397
80	0xbd58e281	-0.052950386
81	0x3ca5bcf2	0.020231698
82	0x3c7b36b9	0.015332871
83	0xbc16f401	-0.0092134485
84	0x3d4d341a	0.050098516
85	0x3d998c3e	0.07497452
86	0xbe0fe454	-0.14051944
87	0xbd704396	-0.058658205
88	0xbdc11c02	-0.0942917
89	0x3d08d499	0.033405874
90	0x3dd9ae13	0.10628905
91	0xbc223488	-0.00990022
92	0x3d374b18	0.04474935
93	0xbaf2bdc8	-0.0018519694
94	0x3d19a7b0	0.037513435
95	0x3c492a6e	0.012278182
96	0x3da3b97b	0.07994362
97	0x3cd4bfdb	0.02597039
98	0x3d3188b7	0.043343272
99	0x3d933ea4	0.07189682
