trained_models/trained_cost_functional_with_control_mu.pth (torch, 507010 bytes, 27 tensors)

input_layer.0.weight f4 [100, 2]
00000000: cf3a 0abf 0bdc 023f 268d d2bd 5e8b c9be
00000010: 4886 04be 790a 74be fc37 943e fb42 a1be
00000020: acac 173e 069e 373d fadc 393e ab00 07be
00000030: cb35 abbe 35b2 f2bc 601b 463e 092e 423d
00000040: cf61 e43e a612 753e c67d f33e bb10 653d
00000050: 111a 66be 7144 473e 1aab 113e 03f2 093f
00000060: f71c 403e f398 003f 2b56 03bf 9d81 12bf
00000070: a4d3 eebe 2a1a 46be b164 683e 1838 b93e
00000080: 9170 8c3d 52f9 e4be 2f1c 383d fb84 6fbe
00000090: ce75 b73d f8da 023f 20b7 00be 5b30 043e
000000a0: 1c09 4bbe 2177 bfbd 2344 04bd cdc6 5cbe
000000b0: 940c f33e 2d4a 043c 6ae8 7abd 8d6c dcbe
000000c0: eacf b13e 27a0 80be 2480 c7be af4a c83c
000000d0: a2aa 5d3e 8e10 98be b19d c33d dbca aabe
000000e0: 36cc 8fbe 18b5 28be 108c 6bbe c93b c13e
000000f0: bbd4 623e 8797 573d 9b26 aebe 7307 523e
00000100: 58cb 91be fe5f a9bc 1c4a 5dbe b835 74be
00000110: 1dbb 9cbe a05b b03e ebd4 2cbe 0582 bebd
00000120: cb16 0d3f eb58 1e3f ee07 12be a213 9dbe
00000130: 5dd7 553e 5a57 e0bd ecfa 59be 4f0c 26be
00000140: b072 4e3d 0883 be3e 58e6 31bc a5df 433e
00000150: 9937 a4be 5534 5e3e 37b8 d9be 86c1 cc3e
00000160: b6e4 483e e9d9 f33d f9cf 8f3d 060b 123f
00000170: e717 84bd 30d3 a63d f751 78be ae31 0d3f
00000180: 13c4 1e3f 1871 093f 6860 83be f23c 1d3d
00000190: 8083 32be 9970 9a3e 7d82 ae3c 411e b7be
000001a0: 0258 5d3d b434 9dbe fe56 52be d706 fd3e
000001b0: aa20 aabe d199 243f fb0f 033f 4717 0abf
000001c0: 642a c83e b61b 81bd 8e4b a3be 98de 12bf
000001d0: 7fbf d1be e844 173f 6a86 69be b925 cabe
000001e0: 860a 063f bbc8 97be 3e29 d13d 5ab2 873e
000001f0: fc6d f3be 3f25 16bf fdf2 f4be 1dc3 8ebe
00000200: 9d74 d9be 05b6 83be 41de 593c cdf7 023f
00000210: a9e8 b53e 6ea9 103f 53db a7be 95c0 34be
00000220: 0168 8c3d c4d4 84be d001 2bba eac5 ccbe
00000230: 0916 023f 63b2 a53e ebc5 9cbe a96f 08be
00000240: ddb4 fb3e 41ea 91bd 4e00 ebbe fbfd 243d
00000250: 7f58 fabe fbde 963e 7cd0 0bbe 84eb 0f3e
00000260: 101f 343d a213 743e 3702 ab3d f056 3b3e
00000270: e70f 143d 3bff 313e 4dc2 39be 9e12 a0bd
00000280: 07fc 75be 2efb 10bf e580 9e3e 889f 16bf
00000290: 017c 453c 2b73 bd3c 9429 d33d 58a5 03bf
000002a0: 24f4 db3e da99 8a3e 4ccd 5f3b cbd3 febe
000002b0: 18cc 92be d2a3 f5bd fa1d a5be ea9b 38be
000002c0: 726d 1b3d 95a4 4fbe 66eb 81be 4430 81be
000002d0: 33f7 d4bd da8e af3e cc71 86be 69ef 10bf
000002e0: c6be 2fbe 430a ba3d 6325 933e 1ea3 423d
000002f0: 1516 823e cb69 a13d ccd8 e83e c132 063f
00000300: e8d1 8f3e 2769 28be b276 003f cc01 c53e
00000310: 9c48 8d3e 1e62 983e 69b2 d33e 8958 df3c
-0.53995985 0.5111701 -0.10280828 -0.3936414 -0.12941849 -0.2383212 0.28948963 -0.31496415
0.14811963 0.044828437 0.18150702 -0.13183849 -0.33439478 -0.029625991 0.1934638 0.047407184
0.44605872 0.23932895 0.47556895 0.05592416 -0.22470881 0.19459702 0.14225426 0.53884906
0.18761049 0.5023338 -0.51303357 -0.57229024 -0.46645844 -0.19345918 0.2269466 0.3617561
0.06857408 -0.44721466 0.044948753 -0.23390572 0.08958016 0.5111537 -0.12569857 0.12909071
-0.19827694 -0.09348894 -0.032291543 -0.21560211 0.47470534 0.0080743255 -0.061256804 -0.43051568
0.34728938 -0.25122187 -0.3896495 0.024449674 0.21647123 -0.2970013 0.095515616 -0.3335789
-0.28085488 -0.16475332 -0.23002648 0.37740925 0.22151463 0.052634742 -0.3401383 0.20510654
-0.2847545 -0.020675655 -0.21610302 -0.23848617 -0.30611506 0.34444904 -0.16878097 -0.09302143
0.55112904 0.6185443 -0.14260837 -0.3067904 0.20882936 -0.10954161 -0.21287125 -0.16215633
0.050402343 0.37209344 -0.010858141 0.19128282 -0.32073668 0.2169965 -0.42523357 0.39991397
0.19618496 0.119067974 0.070220895 0.5704807 -0.064498715 0.081457496 -0.24250017 0.5515393
0.62017936 0.5368819 -0.2565949 0.0383882 -0.17432976 0.3016403 0.021302456 -0.3576527
0.05403901 -0.30704272 -0.20540997 0.4941928 -0.33228046 0.64297205 0.5119626 -0.5394177
0.3909484 -0.063041136 -0.3189358 -0.573709 -0.40966412 0.5908952 -0.22805181 -0.39481905
0.5235981 -0.29645333 0.102129444 0.2650326 -0.4754485 -0.58650583 -0.47841635 -0.27883235
-0.4247178 -0.25724807 0.013297618 0.51159364 0.35529068 0.5650853 -0.3278452 -0.17651589
0.06855775 -0.25943577 -0.00065234024 -0.39994746 0.5081487 0.3236266 -0.3061975 -0.13323845
0.49161425 -0.071247585 -0.4589867 0.040281277 -0.48895642 0.29466996 -0.13653749 0.14054686
0.043974936 0.23835614 0.08350032 0.18294883 0.03614798 0.17382519 -0.18140526 -0.07816051
-0.24021922 -0.5663327 0.30957714 -0.58837175 0.012053491 0.023126205 0.10310665 -0.5142417
0.42959702 0.27070504 0.0034149466 -0.4977096 -0.28671336 -0.11994137 -0.32249433 -0.18028226
0.037946172 -0.20277627 -0.25374907 -0.25232136 -0.10398712 0.34288675 -0.26258695 -0.5661531
-0.17162618 0.090839885 0.2873946 0.047518842 0.25407472 0.078815065 0.45477903 0.52421194
0.28089833 -0.16446362 0.50181115 0.38477933 0.2759446 0.29762357 0.41347054 0.027263897

input_layer.0.bias f4 [100]
00000000: 1f1e 99be 6b5c 8b3e abd4 f03e e458 38bf
00000010: a9e7 d93e 4182 e73e bf96 ecbe 85ad d6be
00000020: afa3 043f ba1b 0b3c 3c61 db3e 35c2 f3bd
00000030: d631 4abf f7ec fd3e 9615 3e3e 271b b2be
00000040: f283 b2bd 324a d63e 9b63 1a3f 7705 c7be
00000050: 9640 083f 459c 9cbe f1fb d33e 2c29 ec3e
00000060: e89d 303f 494b 023f 3442 8c3e 09e4 843e
00000070: 69f4 7dbe 2d20 de3d 0695 aebd 29f6 0a3f
00000080: 0caf cbbe 8b0a e2be 0f07 3fbe e7c7 233f
00000090: c311 96be d773 27be ec12 24bf 9d39 133f
000000a0: 1b4c 2abf 1738 69be 84fe 19bf 5b42 f63d
000000b0: 3025 333e f618 de3e e5ab 4d3e aedc 1dbf
000000c0: 50ce 6ebe 5603 df3e 7ab1 24bf 1a65 4e3d
000000d0: 6a33 10be 8cbd 22be 3289 bcbe ba3c 133f
000000e0: f381 1abf 7bd2 083f 31f5 043f a899 2fbc
000000f0: 3230 a0bc 29f4 1abe 9d38 f23e 75cd 27be
00000100: 3818 e8be 697c 2bbe 17ad 32bd 9539 78be
00000110: 0f50 d43b a7db 863d 49f7 be3e b3b3 213d
00000120: a4ed e13e 96c1 1e3f b890 3e3f 942c ebbe
00000130: 55a8 053e df88 93be 4595 f2bd 8d20 f2bc
00000140: 5fb7 963e 73f3 043f 2346 60be 63a8 04bf
00000150: 0896 25bf 67be 0e3f b435 093f 9504 f33d
00000160: ea90 89be 66f2 9b3e 7616 8d3e 3353 823e
00000170: c334 393e ada2 953e 1d23 513e 152e 27bf
00000180: 5662 dd3e d363 fabe ef08 cdbe a2ee ef3e
-0.29905793 0.27218947 0.47037253 -0.72010636 0.42559555 0.45216563 -0.4620876 -0.4192926
0.5181226 0.008490497 0.4284762 -0.119022764 -0.78982294 0.49594852 0.18562922 -0.3478634
-0.08716573 0.41853482 0.60308236 -0.38871357 0.5322355 -0.30587974 0.41403154 0.46125162
0.68990946 0.50896126 0.2739426 0.25955227 -0.24800266 0.10845981 -0.08524518 0.5428186
-0.39781988 -0.4414867 -0.18655036 0.639769 -0.29310426 -0.16352783 -0.6409137 0.57509786
-0.6652238 -0.22775303 -0.60153985 0.12024375 0.17494655 0.4337842 0.20085104 -0.61664855
-0.2332089 0.43557233 -0.6433331 0.050389387 -0.14082113 -0.15892619 -0.36823422 0.57514536
-0.60354537 0.5344617 0.5193663 -0.010717787 -0.019554231 -0.15132202 0.47308818 -0.1638697
-0.45330977 -0.16746677 -0.043622103 -0.24240716 0.0064792703 0.06584864 0.3729804 0.039478015
0.44126618 0.6201414 0.74439573 -0.45932448 0.13052495 -0.28815362 -0.11844877 -0.029556537
0.29436776 0.51933974 -0.21901755 -0.5181944 -0.64682055 0.5575928 0.5359757 0.11866108
-0.26868373 0.30458373 0.275562 0.254541 0.18086533 0.29225674 0.20423551 -0.6530469
0.43239087 -0.48904285 -0.40045878 0.4686175

DGM1.gate_Z.0.weight f4 [100, 102]
00000000: 68c2 09bd 6a2b a2bd 2621 ccbb 1027 8cbd
00000010: 262e 373d 1c74 69ba 524b d03c 3e54 553d
00000020: af77 913d d9f1 813c 1e19 87bc 7182 dfbd
00000030: aebe 163d 1798 9a3d ebbe 4fbd adb5 a6bd
00000040: 30aa d43d d385 72bd 4f01 10bc 9199 90bd
00000050: 2c43 20bd 8c04 b13c 89ee a4bd 38ce cf3c
00000060: b180 07bd ab95 3dbc e168 efbc 83ca f4bc
00000070: b556 06bd c380 403d 893f 6a3d f0f9 a8bc
00000080: f674 65bd b5e7 61bd d662 bfbd 3ee5 953d
00000090: 5e49 3d3c 5f87 7a3d 140a 593d 9a33 ac3c
000000a0: d05d 8dbd 2be5 88bc 8bb8 223d b661 cdbc
000000b0: f082 0fbd e545 a8bd 1e97 1cbd 9165 cf3d
000000c0: 7ad4 e23d fd29 883c 75cd 4b3d 7050 28bd
000000d0: 265d 00be fd76 243d 46d8 413d d17c 973c
000000e0: 265c 8e3d baa6 543d c662 6ebd c23a 93bc
000000f0: 7766 393b b940 babd fafc 253d 5e7e 1ebd
00000100: ee25 e0bc 7d7d 013c bd3a 993d 3c2a 9abc
00000110: 7214 913d dec0 af3d eb72 633d 342c 89bd
00000120: 79d7 0e3d e2d6 a93d 1943 f9bc 887e 30bd
00000130: 1fd5 02bd da0c 28bd 4e54 d53b 50e8 d93c
00000140: 2942 1b3d afc6 65bd 40e1 f6bd d5f8 993d
00000150: f424 bdbc 407a b13c 5a6d e03c b418 c3bc
00000160: 78bf 513d 52bd a23d dbc7 22bd e3e4 92bc
00000170: 7a6e 803c 65eb df3c d81a 55bc c2fc 883d
00000180: da3d 1abd e27c 2c3d 7cf9 4abc c84b eb3c
00000190: 08ae 96bd bd8d c33c 92a9 f1bd c0b0 153e
000001a0: 40f5 223d 4118 16bd 0605 693d 86aa 0e3d
000001b0: 282f 003e 8ca5 ca3d b2c7 2dbe e7a6 0dbd
000001c0: 8014 f23d ce0b 26bc 11e5 003e 42c1 923d
000001d0: aae5 483d de86 59bd 3a8d ca3d 579d ee3c
000001e0: 2d07 89bd 5354 2c3e cc43 ec3d 78b1 1abd
000001f0: 15c5 b03d 735b 13bd d276 843d a3fa 5cbd
00000200: 769d 273e 373b 0cbd 604e 48bd 48a2 0d3d
00000210: f97f d5bd 4d33 01bb d027 353d 0f3f 07bd
00000220: 3733 35be 9e85 f7bd ca1b ee3b 7475 d03d
00000230: e5bf b2b8 241d 7f3c 392c d33c f4a7 1e3e
00000240: 7c2d 2cbc afb8 8fbd c00b e1bc fca1 84bd
00000250: 3c6a 183e 1b0f 39bc 8916 ce3d 400e c5bd
00000260: ff21 bebd 2994 b13c 3c6f f8bc 8533 03be
00000270: d689 3cbd 5723 213d 2ac0 3abd 8107 65bc
00000280: 9bb9 d0bd b871 3d3d 4e82 babc f057 6fbd
00000290: 9143 68bd a903 c83d 465f 893d b413 8abd
000002a0: e687 5dbd f517 4d3d 029f 76bc 6a6a 1cbe
000002b0: aa16 efbd acc5 f4bd 4d65 a7bb 420c 4e3d
000002c0: db1b 013e 6a92 973d beb9 613d 33ec 15be
000002d0: fd55 083c 4017 e2bb e597 fabb 1e7e 36bd
000002e0: cfaa e63c f316 49bd f3d0 b03b 546e 3a3d
000002f0: ca16 ce3c 9221 3e3d 0a52 0c3e 70d9 7e3d
00000300: 8be7 a0bc 596d c23d 8634 473d ee5d 7abd
00000310: 7659 c33d 6fd0 ee3d 886e 1a3e aeb6 9fbc
00000320: 1f73 273d 93f0 47bc a06a c4bc ed3e 03b9
00000330: 8129 0ebd 2958 7c3d 39c2 92bc f094 903c
00000340: 7785 d6bd f704 583d 5ba8 adbd f4f5 31be
00000350: 56f6 063e 897d b03d b903 f3bd a2f4 b1bc
00000360: 46fc 9abc 1324 c43d 379a 073e 5dc2 8d3c
00000370: c61c 523b 5592 c33d ebe7 66bd c7dd 7e3c
00000380: 5b1d 8abd ea8e 493e 019f 0fbd 0867 143e
00000390: 1308 45be 46d6 1cbe f55a 24bd d7f4 9ebc
000003a0: 44bf 23bd 25c3 e83c ebde 203e df28 963d
000003b0: 3cc0 c3bd 3475 bfbd 7740 293e 09e4 a13e
000003c0: fe8e b03c 55dc afbd 175c 5fbd 0d98 be3d
000003d0: bbc6 2c3e 191b 87bd 61dd 093e f632 2bba
000003e0: 881e 3a3e 0ce8 a7bc ab19 52be b200 c0bb
000003f0: 5380 21be e052 3e3e 7ee1 343d ffcd 09bd
-0.033632666 -0.07918437 -0.0062295375 -0.06843388 0.044721745 -0.0008905546 0.02542654 0.052082293
0.07102906 0.015862392 -0.016491469 -0.109135516 0.03680294 0.0754854 -0.050719183 -0.08140121
0.10384023 -0.059209656 -0.0087893745 -0.070605405 -0.03912656 0.021608613 -0.080533095 0.025366887
-0.033081714 -0.011571328 -0.029224815 -0.029881721 -0.032797534 0.046997797 0.057189498 -0.020626992
-0.056019746 -0.055152614 -0.09345023 0.07319115 0.011553137 0.061164256 0.052988127 0.0210207
-0.06902659 -0.016710838 0.039726775 -0.025071006 -0.03503698 -0.08216456 -0.038230054 0.10126794
0.11075683 0.016621584 0.049756486 -0.041092336 -0.12535533 0.04015254 0.047325395 0.018492134
0.0695117 0.051916815 -0.058199666 -0.017972354 0.0028289834 -0.09094376 0.04052446 -0.038694732
-0.027361836 0.007903454 0.074819066 -0.018818967 0.07083978 0.08581708 0.055529516 -0.06697884
0.03487346 0.08292939 -0.030427502 -0.04308942 -0.03194153 -0.04102788 0.006510294 0.026600033
0.037904892 -0.056097683 -0.12054682 0.07518164 -0.02308891 0.021664739 0.027395893 -0.02381549
0.05120799 0.07946266 -0.03974138 -0.017931407 0.01567768 0.027333925 -0.013006888 0.06688835
-0.037656642 0.042111285 -0.012388583 0.028722659 -0.073574126 0.023871297 -0.11799921 0.14618206
0.03978467 -0.036644224 0.056889556 0.034830593 0.12517989 0.09894857 -0.16970709 -0.034583
0.11820316 -0.01013465 0.12587382 0.07165767 0.04904715 -0.053107135 0.09890218 0.02912776
-0.06690822 0.16829042 0.11536369 -0.037766904 0.086313404 -0.035975885 0.06467976 -0.053949963
0.1636866 -0.03423616 -0.04890287 0.03457859 -0.104247995 -0.0019714416 0.04422742 -0.03301912
-0.17695318 -0.12086032 0.0072664963 0.101786524 -8.5234446e-05 0.0155709125 0.025777923 0.15493757
-0.010508891 -0.070176475 -0.027471423 -0.064762086 0.14884275 -0.011295105 0.10062892 -0.096218586
-0.09283828 0.021677094 -0.030326478 -0.12812622 -0.046029888 0.039340343 -0.04559342 -0.01397884
-0.101916514 0.04625103 -0.022767212 -0.058433473 -0.05670506 0.09766323 0.06707625 -0.06742039
-0.05408468 0.050071675 -0.015052559 -0.15274969 -0.11674245 -0.119517654 -0.0051085115 0.05030466
0.12608282 0.07400973 0.05510878 -0.14640884 0.008321282 -0.0068997443 -0.007647502 -0.04455387
0.02815762 -0.04909415 0.0053960024 0.045515373 0.025157351 0.046418734 0.1370317 0.062219083
-0.019641658 0.09493513 0.048634075 -0.061124735 0.09538548 0.11660849 0.15081227 -0.019496288
0.040881272 -0.012203353 -0.023976624 -0.00012516575 -0.03470755 0.061607514 -0.017914878 0.017649144
-0.10474675 0.05273911 -0.08479377 -0.1737898 0.13179907 0.08617694 -0.118659444 -0.021723095
-0.018919121 0.09577193 0.13242422 0.017304594 0.0032060607 0.09549395 -0.056373518 0.0155558055
-0.0674388 0.19683424 -0.035063747 0.14492428 -0.19241361 -0.15316114 -0.040125806 -0.019403858
-0.039977327 0.028413365 0.15710036 0.07332014 -0.0955815 -0.093485266 0.16528498 0.3161929
0.021552559 -0.08586947 -0.054531183 0.09306345 0.16872685 -0.06596965 0.13463356 -0.0006530726
0.18175709 -0.02049639 -0.20517604 -0.005859458 -0.15771608 0.18586302 0.04416036 -0.03364372

DGM1.gate_Z.0.bias f4 [100]
00000000: a579 b83d 5de2 ac3d c6d4 0abe d5bd a8bc
00000010: d225 b43c b792 21bd ccf9 a1bd dd40 a4bd
00000020: b8b4 f1bc 5bc7 c6bd 5b39 303d 19ed a1bd
00000030: 17c4 e0bd 632b 1cbe 9d64 ddbb 1734 7fbd
00000040: a145 7d3d 4569 0abd b4cd 103e b305 143e
00000050: 9960 9dbd 49ef 34bc 4f27 a9bd afdc 9d3d
00000060: bd4b bcbb a7b3 0dbe 3a7e 50bd 4353 c83d
00000070: bf32 9b39 0130 103c 35a7 3f3c 291d f53c
00000080: 31e3 ad3d 154e d6bd db6b bcbc ab6e 253d
00000090: 5570 3cbd e89e 55b8 489c 443d bbb9 823c
000000a0: 2dc9 fb3d a0e3 9d3d 7859 9fbd 8cae a53d
000000b0: 70ce 07be c1db 8c3d 40ad b9bd 08b1 4c3d
000000c0: eff2 423c a645 293d 8363 32be f98b a13d
000000d0: 45dc e3bd 6174 f2bc c07d b9bd 82d7 653d
000000e0: 6983 96bd 6cee 50bd cee9 91bd 6201 663d
000000f0: afcb a1bd 4d8f 453d 5b7d aa3c afa0 7a3d
00000100: 6587 e53c 8900 613d 9c15 af3d acc8 31bd
00000110: 069c acbd 3bfd 5fbd c77d babd 353e c33c
00000120: 9138 1dbd 9dae e83d 1c80 ebbd 9950 c23c
00000130: 827a 933d 5742 e4bd 3bad 8fbb cd10 16bd
00000140: 699c 613c 4c13 3f3d 7e35 e6bb 8d04 e1bd
00000150: 6660 2cbc ca6f 01bd fee1 ecbd 14f4 da3c
00000160: caae ba3d 474b bfbd 8775 20bc 6686 efbd
00000170: 7636 273d bd9d 683d 94fa b3bd 1e79 c6bd
00000180: 91ea 08be 9e94 053e a95f 283c 02ce 4d3d
0.09007577 0.08441613 -0.13557729 -0.020598331 0.02199069 -0.03944656 -0.07908973 -0.08020184
-0.029505119 -0.09705993 0.04302345 -0.07906551 -0.10974901 -0.15250926 -0.006756379 -0.062305536
0.06183398 -0.0337918 0.1414097 0.14455299 -0.0768444 -0.011043378 -0.08259451 0.07708108
-0.0057463334 -0.13838063 -0.05090163 0.09781506 0.00029601713 0.0088005075 0.01169758 0.029921131
0.08490599 -0.10464112 -0.023000648 0.040388744 -0.046005566 -5.093115e-05 0.048000604 0.015957704
0.122942306 0.07709432 -0.07780737 0.08089933 -0.13262343 0.06877852 -0.09066248 0.049973518
0.01189874 0.041326188 -0.17420773 0.07888026 -0.111259975 -0.02959651 -0.09057188 0.056113727
-0.07349283 -0.051008627 -0.07124673 0.056153663 -0.07900178 0.048232365 0.020811727 0.061188396
0.028018663 0.05493215 0.085490435 -0.043404266 -0.084281966 -0.05468486 -0.091060214 0.023833374
-0.038384024 0.1136143 -0.11499044 0.023720073 0.07201101 -0.11145466 -0.0043846644 -0.036637116
0.013770201 0.046649262 -0.0070254197 -0.10987196 -0.01052103 -0.03160075 -0.11566542 0.026727714
0.091153696 -0.0934053 -0.009793646 -0.11695556 0.040823422 0.056791056 -0.08788028 -0.0969107
-0.1337073 0.13044974 0.010276713 0.050245292

DGM1.gate_G.0.weight f4 [100, 102]
00000000: c207 99bd 4e45 8dbc e6d7 32be 36ca 023e
00000010: 855f fe3d a514 52be 11b5 2f3e 4542 453e
00000020: 414a 77be 10bc 00be 0363 2a3d 2647 f0bc
00000030: 58d1 483e 1001 f5bb 5ba3 abbd 8de1 dd3d
00000040: 48d7 513b 6252 86ba 340e 77bc 4f4c 513e
00000050: 8ee2 853d 3cca 1dbe aaac b23d 23fe 46be
00000060: 4761 b73d e565 003e f16b 233e 4190 943d
00000070: b57d af3c 7f84 3dbc d5b1 b13b 8082 14bd
00000080: 3586 d6bc 0828 b23d 3e4d 7abe 95f4 01be
00000090: 9569 2fbe 22b4 eb3d d292 933d 18b4 87bd
000000a0: 54eb 8fbd 2d0e 613e df36 e2bd 6ca8 22bd
000000b0: e959 5cbd 4058 873d f8c8 b9b9 197e 3a3c
000000c0: 4c87 953d d684 04be 99b7 c3bb b063 483e
000000d0: dbbd b3bd 4644 aebb 473b 053d efeb 69bd
000000e0: bbef 93bd ee42 273e 2742 d2bd 5941 f53d
000000f0: 916a 2f3e 633f 833d cd67 18bd de28 d3bc
00000100: d3b2 6dbc 8b4b 6bbd e959 2ebe 3ed4 383d
00000110: 889b 97bc 67ed e9bd baf9 613d b7ca 08bd
00000120: cb32 a13d 5deb 9dbd 403e 283e a4a8 943d
00000130: f751 253e d660 76be d175 25bd 08d2 4abe
00000140: a219 01bd 8366 89bd cdc8 5a3c 74e5 b13c
00000150: 4456 25be 5840 40be e5f5 2bbd 43ef 193d
00000160: e721 743e 48a0 bb3d 6c60 94bd 1aae 083d
00000170: 9e57 a63d 33d5 0cbd 5afd 663c 4635 103d
00000180: 1e04 0dbd 8099 dfbd fc26 543e 28de 8ebd
00000190: 5a52 3dbe 1f61 9a3d e67a 96bd f164 b1bd
000001a0: c51a 29bd 0325 573c 31d2 613d ada0 dfbd
000001b0: 28ca 003d a9b0 613d fb9c 2cbd 5d2d 0bbd
000001c0: 2f63 4b3d 00fd 213d d9e8 04bd ae74 8ebc
000001d0: b9e4 913d ee19 053d 7fa8 a63c f675 6f3b
000001e0: 9e4e ccbd 1e42 023e 79dc 05bd b262 8ebd
000001f0: 55ae 2abb 66fe 043c 936d 663c 188b 803c
00000200: b749 c43d 186d 42bd 4abc 35bd 6f0e 38bc
00000210: 259a a9bc 28a4 69bc 0473 bdbd ab8a e53d
00000220: 5e7c 23bc e02c e8bd cd56 e3bc 735d 973d
00000230: e8c0 d13c 238d 6b3d 83b7 f3bd 30da 5d3d
00000240: 17ec 0abe eb30 acbc abee d23a 58c2 7dbd
00000250: 30da b23d 56d2 7dbc 025d 873b 5f0f a63d
00000260: 2d46 70bd 286b ff3c d618 0ebe f98f c13d
00000270: 8410 3abc 34ad 7abd 1b6c 0ebc 5030 923d
00000280: bbb5 f73b 51b3 41bc 1ea1 f13d 8914 a93d
00000290: 0d35 d7bd 70b7 c2bd 435a 7a3d c820 033d
000002a0: 1898 c6bd 1321 69bd 6e48 033d 5e28 b6bd
000002b0: 667a debc f2db 183d 8318 74ba acd6 f0bc
000002c0: 04b7 3ebd 572e 92bc ba7e 1abb 2765 213c
000002d0: 6997 613d 7138 5dbe 302f 84bc fd4f c03c
000002e0: cc5c 1f3d 6fc7 b0bd b86c d4bd a0ac babc
000002f0: 4a89 00be f899 88bd 060f 893d 8d64 3bbd
00000300: 5820 823c f639 71bd 58e5 413d e1b7 563d
00000310: 87bb 7dbc f6b6 47bd 3678 fb3d 8227 0a3d
00000320: c2b4 82bd 2158 00bd fb8b 8dbd bde8 b0bd
00000330: 80e5 a6bd cbfb 80bc 4a59 5dbd 4eb2 28bd
00000340: 94da cc3c e518 a0bd 9448 673d 5552 b43c
00000350: 630c cb3d b4f5 e53d 8475 b23d 17c7 d63b
00000360: fc01 7e3c 310f 8d3d 6b0d 8a3c 1db7 3ebd
00000370: 6db6 cdbc 6102 893c 277a 9c3c 19a3 02bd
00000380: 8381 9cbc 72f9 fb3c e7b3 a7bd e560 513c
00000390: 2ffa e4ba 4599 0abe 4618 0fbe 275f d9bd
000003a0: 108e 5e3d 4947 d0bd cb3b ef3c 3b68 a8bc
000003b0: 0d1d 82bd 73cc 8fbc 67b0 80bc 72bc acbd
000003c0: b561 c63d 7c49 a43c b0a0 cabc 52d6 05bc
000003d0: 05e0 07bd ec06 c8bc c3a7 26bc c1c9 903d
000003e0: 0f52 16bd f7a5 a03d 5617 78bd 0943 bc3d
000003f0: 04ee fabc 0672 b73d 2e58 58bc 3ef4 bcbd
-0.07472183 -0.017244961 -0.17465171 0.1277245 0.12420563 -0.20515688 0.17158915 0.19263561
-0.2414942 -0.1257174 0.04159833 -0.029330801 0.19611108 -0.0074769333 -0.08380767 0.10834036
0.0032019187 -0.0010247941 -0.01507907 0.20439266 0.065373525 -0.15409178 0.08724339 -0.19432883
0.08954101 0.1253887 0.15959145 0.07254077 0.021422246 -0.011567234 0.0054228106 -0.036257267
-0.026187042 0.086990416 -0.24443528 -0.12690957 -0.1713012 0.11508967 0.07205738 -0.06626147
-0.07027307 0.21978064 -0.11045622 -0.0397114 -0.053796683 0.06608629 -0.00035435683 0.011382603
0.073011965 -0.12941298 -0.0059728143 0.19569278 -0.087764464 -0.0053181974 0.032527234 -0.05710977
-0.07223459 0.16334125 -0.10266524 0.11975355 0.17130496 0.064085744 -0.037208367 -0.025776323
-0.014507967 -0.05744509 -0.17026486 0.045124285 -0.01850678 -0.11422234 0.0551698 -0.03339645
0.07871016 -0.077109076 0.16429996 0.07258728 0.16144548 -0.24060377 -0.04039556 -0.19806683
-0.031518586 -0.06709006 0.013353539 0.021715857 -0.16146189 -0.18774545 -0.04198255 0.037581693
0.23841058 0.091614306 -0.072449535 0.03336916 0.081221804 -0.03438301 0.01409849 0.035207056
-0.034427755 -0.1091795 0.20717996 -0.06975967 -0.18488446 0.07538056 -0.0734766 -0.08661831
-0.041285295 0.013131383 0.055132095 -0.10919318 0.03144279 0.055100117 -0.042141896 -0.03397881
0.049655136 0.03954792 -0.032448623 -0.017389622 0.071237035 0.03249543 0.020344017 0.0036538816
-0.099759325 0.12720534 -0.032680962 -0.069524184 -0.0026043851 0.008117294 0.0140642105 0.015691325
0.095843725 -0.04746732 -0.04436902 -0.01123391 -0.020703385 -0.014260329 -0.09250453 0.112080894
-0.009978382 -0.11336684 -0.02775135 0.07390871 0.02560468 0.057507645 -0.119002365 0.054163158
-0.13566624 -0.02101942 0.0016092857 -0.06195292 0.08733022 -0.0154920425 0.0041309604 0.081084006
-0.058660675 0.031179026 -0.13876662 0.09451289 -0.011356477 -0.061200336 -0.008692767 0.07138121
0.0075595058 -0.0118225375 0.11798309 0.0825587 -0.105081655 -0.09507644 0.061121237 0.032013685
-0.09696978 -0.056916308 0.032051496 -0.08894418 -0.027157973 0.03731913 -0.0009311514 -0.029399239
-0.046561256 -0.017844362 -0.002357407 0.009850777 0.055076037 -0.21603562 -0.016135782 0.023475641
0.038906857 -0.08631789 -0.10372299 -0.022787392 -0.12552372 -0.06669992 0.066923186 -0.04575019
0.015884563 -0.058893166 0.04733786 0.052421454 -0.0154866045 -0.04875847 0.12278788 0.033729084
-0.06382133 -0.031334046 -0.06911465 -0.08638141 -0.081492424 -0.015745064 -0.05404023 -0.04118567
0.02500657 -0.07817248 0.0564657 0.022011915 0.09914472 0.11228505 0.087138206 0.006554495
0.015503403 0.06887663 0.016852101 -0.04656135 -0.025111401 0.016724767 0.019101216 -0.031893823
-0.019104725 0.030758593 -0.081886105 0.012779449 -0.001746958 -0.1353503 -0.13974103 -0.10613852
0.0543347 -0.101698466 0.029203316 -0.020557513 -0.06353197 -0.017553544 -0.015709115 -0.084343806
0.09686605 0.020054571 -0.024734825 -0.008168774 -0.033172626 -0.024417363 -0.010171833 0.070697315
-0.03669935 0.07844155 -0.06056913 0.091924734 -0.030631073 0.08957295 -0.013204617 -0.09226273

DGM1.gate_G.0.bias f4 [100]
00000000: 0117 2f3e b69c a03d 54b8 b8bd 4d44 2e3e
00000010: 8bf8 0d3e 715c cc3d d527 603d 9c63 1c3e
00000020: 4edd 0b3d 6d45 ae3d 1bba b13d ddc8 4dbc
00000030: 623e 69bb 6eb2 55bc 9a2c aa3d 9390 5939
00000040: 391e dc3d 861b c93c f098 13bc 83b6 9b3d
00000050: 76d8 a63c b325 c73c 4b41 993c 38ea 283e
00000060: 88d7 b33d 255d 0b3e 55dd a13b 290d 273e
00000070: 40cd 8ebb 96a9 043c 25e7 c7bc fc72 373c
00000080: 9a9b d93d a1a3 413d 71a9 993c 979d c23c
00000090: 4cb1 a4bd 400e bb3d 41a8 a73d cad1 263e
000000a0: 0ca9 87bd 4fa8 113e 0721 283e fb8f 2b3e
000000b0: c7b4 f03d 7102 5dbd 117c 763d 070b a13d
000000c0: 2d2f d9bc 95c4 b83d a2aa d2bb 3e6a d4bb
000000d0: f3c4 ec3d a279 353e bf8b 343e 7974 243d
000000e0: 9c8b 363c 843e 193d 8fa4 d6bc 1d81 1ebd
000000f0: 4b0f d73d e435 c83d feaa 53bd 9047 2d3e
00000100: 6c8b bb3d 0ec0 a03d 49d4 e83d 492e 9e3d
00000110: 7e9e 4b3d 7b9f 123d 3303 f13d c0a6 a43d
00000120: c8f6 5b3e e0fe b73d 88e7 483e 6466 613d
00000130: fc50 183d 661e debb cf40 253e b9fe afbc
00000140: 7af7 3e3d 2add 233c f201 9c3d 7e12 9b3d
00000150: f5de 523e 6c99 0a3e 77b3 a0bd 1eb8 c53c
00000160: 269c ab3d 3a12 f43c 0eee 053e d288 0d3e
00000170: 2366 af3d c531 7a3e ee89 313e c906 2e3e
00000180: 60bb b83c 2683 ec3d 3cbf d63d b516 063e
0.17098619 0.0784239 -0.09019533 0.17018242 0.13864343 0.09978569 0.054725487 0.15272373
0.0341466 0.08509336 0.08678075 -0.012560097 -0.0035590162 -0.013043029 0.08309288 0.00020748591
0.10747952 0.024549257 -0.009008631 0.07603171 0.020366888 0.024309969 0.018707892 0.16495597
0.08781344 0.1360975 0.004939715 0.16313614 -0.004357964 0.008097073 -0.02440221 0.011196848
0.10625382 0.04727519 0.018757554 0.023756785 -0.08041629 0.09133577 0.08186389 0.16290966
-0.0662404 0.14224361 0.16418849 0.16754143 0.117532305 -0.053957406 0.060176913 0.078634314
-0.026511753 0.0902187 -0.0064290324 -0.0064823916 0.115610026 0.1772218 0.17631434 0.04015014
0.011141684 0.037413135 -0.026201515 -0.03869735 0.10500964 0.09775904 -0.051676743 0.1692183
0.09157452 0.078491315 0.11368615 0.07723672 0.049711697 0.035796624 0.11768188 0.080396175
0.21480858 0.089841604 0.19619572 0.055029288 0.037186608 -0.006778526 0.16138004 -0.021483766
0.04662273 0.01000146 0.076175585 0.075718865 0.20592864 0.13535088 -0.0784673 0.024135645
0.08379392 0.029793847 0.13079092 0.13821724 0.08564403 0.24433048 0.17337772 0.16994776
0.022550285 0.11548452 0.10485694 0.130946

DGM1.gate_R.0.weight f4 [100, 102]
00000000: f474 9fbd 57f4 133d 16de bd3d 22a4 dd3d
00000010: f729 89bd cb67 8e3d c034 993d 017b 40bd
00000020: a36f 86bd 5520 903d 8456 30bc b93c 10bc
00000030: bca9 32bd f2a5 05be f946 4ebd 3a2c ab3c
00000040: 8953 ab3c fcc8 0ebd 99b7 1a3b 6818 dbbd
00000050: 1b1a 44bd 684c e43d 6925 e33d ee83 97bb
00000060: afe8 4a3d 4d03 8ebd b75a d03c 7bbc 293d
00000070: 1bfd fbbb 6826 813d 6702 bc3d ad8d 36bd
00000080: 9097 fe3c 1948 063e 6c06 3ebd 3dc8 2dbd
00000090: 39dc 21bd 9caa 9ebd ca4e 30bc 20db 3cbc
000000a0: ee63 72bd 3c69 0abd f876 d83d c879 6d3c
000000b0: 40dc 36bd 62cb 293d 275a 71bc e5f4 88bd
000000c0: 3ce9 a8bd 984b 373d 8df3 9f3a 72db 453d
000000d0: 6c8c e33d bc0e b9bc 97aa d43d fb7b 893d
000000e0: 6524 bcbc 75f9 2dbd e7b6 95bd 57c6 163d
000000f0: 9f52 2ebd 67f9 47bd 3614 dabd f4ad 02bc
00000100: dc75 e03d 3922 73bc 3911 81bd cc21 a2bc
00000110: 1ec6 a2bd 634f 4fbd 055a b1bd 1165 72bd
00000120: 0429 1b3d 5382 1abd 3171 1ebd 5a9d 943d
00000130: 0cc5 3dbd ee2c 833d 3d9b 503d b662 b3bd
00000140: 6708 eb3c 419d cd3d ec2f 43bd 6b1c c83b
00000150: 68d4 53bd 2c49 aabc bbd8 a8bd 89fd 40bd
00000160: a554 0a3b 82da c1bc ebaf e73d 4957 8b3d
00000170: b1dd 0bbc 6b04 0e3e cbea 85bc fbe4 f6bd
00000180: 5ccb 87bd 6537 f6bd f289 553d 4547 5bbd
00000190: 36eb 07be 246b 813d 3ccb db3d 980b cb3d
000001a0: 93db 2e3c 5328 36bd 115f 6d3c a5bf acbd
000001b0: 4559 e8bc 8953 aebd 9976 573d 474c 4a3b
000001c0: 9758 d9bc 081a 5fbd e1a8 903d 7838 4ebd
000001d0: e402 67bd 1538 bd3d 7df8 833d 664f 7a3d
000001e0: 82e2 bc3d bbfa 8d3c 5bf1 ddbd c7fb 00bd
000001f0: eb94 2b3c 15eb 2c3b 90a7 103d 312b 63bd
00000200: 61d7 96bd 8a37 91bd 145f cf3b 7870 69bd
00000210: a676 64bd ad70 a43b 6572 313d 5d13 0e3c
00000220: fd8c b53d 1bba 523c 69fa 123d ccdc 0dbc
00000230: 60b9 5b3d 5c00 0abd c0a1 c43d 3c51 9dbc
00000240: 8413 9d3d 3df1 92bb c5ea 173a de24 003d
00000250: 0240 8f3d a194 80bd 378a 87bd fb51 5abc
00000260: d1ab 173d 5ce8 1dbc 9488 b43d 35aa 9c3d
00000270: 380b 6fbd 1345 9fbd c8e2 0c3d c0d8 c33d
00000280: d7fd de3c 553f 72bd 849e 8abd c9a7 a6bd
00000290: 7536 883c e5e7 bf3c 6e90 a7bc 5fcd 8abd
000002a0: 8c37 a23d 2ef5 c1bc e563 f7bb 29d0 bf3d
000002b0: ca3e 673d 2688 463b f07d dcbc 0d67 9f3d
000002c0: bf8d 153c 5627 983d e9c4 903d 0605 b53d
000002d0: bdcf bebb c83e f1b8 9a86 fa3a 2f00 543c
000002e0: 6210 803d e5db b0bd cb1a e53c 915a 90bd
000002f0: ae64 6bbd d6c0 3abd f246 333b 0272 983d
00000300: 4164 97bd 5c10 833c 240b 48bd 159b e93d
00000310: 0ce0 b43d e29f 3a3d 88e9 b93c aa4e bdbc
00000320: fa5a 34bd 9de0 813d ead9 9cbd 5fcb a1bd
00000330: b370 ca3c 0d75 603d d785 7a3d 38e0 d7bd
00000340: 5519 213c 269f 143d ecbf fcbd 9121 b7bd
00000350: 1fc6 8a3d cb97 6f3c 4bca 463d b2ef 8ebd
00000360: f97a e7bd 8548 683c 5504 0c3e 9540 c6bd
00000370: 0eca 2cbd c372 b8bc 01a0 9a3c 127f bf3c
00000380: 7de5 5c3c 8de5 8c3d 3a36 d1bd 050d 993d
00000390: 3770 b7bd 50ea 14bd fe52 46bd 05f7 efbd
000003a0: 1ff3 9cbd 081e e6bc e4a0 ae3b 1ca3 ccbd
000003b0: 44b9 253d d6af b4bb c01a e23d 3b3e 363d
000003c0: ff75 77bd 3424 67bb 6fdc 24bd 8ba5 953d
000003d0: 8828 043d 0148 00be d49f c83d f52b 263c
000003e0: cb81 ea3c a07f 713c f3d5 9bbd eb67 7cbd
000003f0: 4bc9 35be 2419 51bd 18a2 7b3d 0c73 8dbd
-0.07785979 0.036121693 0.09270875 0.108223215 -0.06697457 0.06953391 0.074807644 -0.046992306
-0.06564262 0.07037417 -0.010762814 -0.00880354 -0.043618903 -0.13051584 -0.050360654 0.020895112
0.020913856 -0.034859642 0.0023607968 -0.106980145 -0.04787646 0.11147386 0.1109112 -0.0046238815
0.04953831 -0.06934223 0.025433881 0.041439515 -0.0076900846 0.063061535 0.09180146 -0.044568706
0.03107813 0.1311344 -0.046392843 -0.04242729 -0.03951666 -0.07747385 -0.010760972 -0.011526853
-0.05917733 -0.033791766 0.105695665 0.014494367 -0.04464364 0.041453727 -0.014730967 -0.06687335
-0.08247611 0.044749826 0.0012203321 0.048304982 0.11110768 -0.022590034 0.103841 0.067131005
-0.022966573 -0.04247423 -0.073102765 0.036810245 -0.042559262 -0.048821833 -0.10648386 -0.007976044
0.1095998 -0.014839702 -0.06302113 -0.019791506 -0.07947944 -0.05061282 -0.08659748 -0.059178416
0.037880912 -0.037721943 -0.038682166 0.07256575 -0.046330497 0.06405054 0.050929297 -0.08759062
0.02869053 0.100397594 -0.047653124 0.0061069033 -0.05171624 -0.020786844 -0.08244463 -0.04711679
0.002110758 -0.023663763 0.113128506 0.06803758 -0.008536742 0.13868873 -0.01634731 -0.12055393
-0.066305846 -0.120222844 0.052133508 -0.053534765 -0.1327332 0.063192636 0.10732123 0.09914321
0.010672468 -0.04447205 0.014487998 -0.08434991 -0.02836288 -0.08512027 0.052603338 0.0030868219
-0.0265315 -0.054468185 0.07063461 -0.05034682 -0.05639924 0.092392124 0.0644388 0.061110877
0.092228904 0.017331472 -0.108370505 -0.031490114 0.0104725165 0.0026385237 0.03531605 -0.055461112
-0.07365299 -0.07090671 0.006328473 -0.056992024 -0.055777214 0.005018315 0.043321986 0.008671609
0.08864782 0.012861754 0.03588334 -0.008658599 0.053643584 -0.03369175 0.09601164 -0.019203775
0.07669738 -0.0044843243 0.0005795176 0.03128516 0.069946304 -0.06278349 -0.06618159 -0.01332521
0.03702909 -0.009637918 0.08815113 0.07649652 -0.05836031 -0.07776847 0.034395963 0.09562826
0.02722065 -0.05914243 -0.06768516 -0.08137471 0.01662753 0.023426006 -0.020454612 -0.06777453
0.07920751 -0.023676481 -0.00754975 0.09365875 0.056456365 0.0030293553 -0.02691552 0.07783327
0.009128033 0.07429378 0.07068808 0.08838849 -0.005823104 -0.000115034694 0.0019113601 0.012939497
0.06253125 -0.086356916 0.027966877 -0.07048524 -0.057469063 -0.04559406 0.002735552 0.0744362
-0.07392169 0.015999012 -0.04883875 0.11406533 0.08831796 0.045562632 0.022694364 -0.023108799
-0.044032075 0.0634167 -0.07658751 -0.07900118 0.024711942 0.05479913 0.061162796 -0.10540813
0.0098327 0.03628459 -0.12341294 -0.08941949 0.0677607 0.014623593 0.048532765 -0.06979312
-0.11302752 0.014177446 0.13673528 -0.09680287 -0.042184882 -0.02251566 0.018875124 0.023376022
0.013482449 0.06879721 -0.10215421 0.074731864 -0.0895695 -0.03635627 -0.04841899 -0.11717037
-0.07663559 -0.028090492 0.0053292383 -0.09992048 0.040459886 -0.0055141253 0.110402584 0.04449294
-0.060415264 -0.0035269381 -0.040249284 0.073069654 0.032265216 -0.12527467 0.0979611 0.010142316
0.028626343 0.014739901 -0.07609167 -0.06162254 -0.17752568 -0.051049367 0.06143388 -0.06906709

DGM1.gate_R.0.bias f4 [100]
00000000: 3dac 53bd 9514 9a3d 4711 10be 25aa a53d
00000010: 4c4d e33d f4af 383c 9d81 29bd 640e 913d
00000020: e5c8 eb3d 1014 b03c 94c1 313d e41e 4ebd
00000030: ac67 f13d 4db0 1f3d 5624 c0bc 0a77 653c
00000040: d0ea 9e3b cf6e 22be a90f 87bd 96ee 4c3d
00000050: 188e 2e3d 56e1 9d3d 9a08 6cbc 3957 abbb
00000060: ae21 333d 00b7 c3bd 671a a93d d537 b83b
00000070: f555 5dbd 3ae5 9fbd 731d 84bc 69ec 5b3b
00000080: 3f1d bebd 6e95 47bd 743d 5c3d 10eb 9abd
00000090: b4ff 4ebc 1a31 cfbc e683 0fbd 2a3d b43d
000000a0: 4677 12be e67e 243d 14c8 993d c974 693c
000000b0: b60f 4abe 11d0 e7bb 8109 3cbd a1cf 39bd
000000c0: ff8e b03d 98fb c3bd 1c52 b73c 7206 053d
000000d0: 1974 f63d 9af9 e0bd ebc6 fbbb 3ff6 d2bd
000000e0: c643 12bc 90e1 c3bc 497c 27bd 8ade f33c
000000f0: d867 ebbc 0f4c 3c3d 41f0 813d 3425 9bbc
00000100: 0bff 9f3d 4c28 87bb 6222 a0bc fc9c 9abd
00000110: c0ba 83bd d8be 63bd 2191 3ebd aae1 a5bd
00000120: 18fb 0b3c 5186 633d 46f7 81bd eaa1 a23d
00000130: 0da3 263d f82f a53d 6b67 863d 629e 783d
00000140: 5184 f7bd b4b6 883c edb5 833d b7e1 19be
00000150: c186 883b f0eb 90bc 0c4a 7e3c 8f82 b23c
00000160: c04b 793d 8412 863c 5212 bb3d e2ca 40bc
00000170: 2f13 bd3d ec4b c23d 2639 b2bd eb40 213d
00000180: ba9d d83c 2030 163c 8f65 c13c 3103 56bd
-0.05167793 0.07523457 -0.14069091 0.08089093 0.110987276 0.011272419 -0.041383374 0.07082823
0.11512927 0.021493942 0.0433975 -0.05032243 0.11787352 0.038986493 -0.023454826 0.014005432
0.004849769 -0.15862583 -0.06594784 0.05003222 0.04261598 0.07708995 -0.014406348 -0.0052289036
0.04373329 -0.09556389 0.08256989 0.00562189 -0.054037053 -0.07807393 -0.016127324 0.003355766
-0.09282922 -0.04872649 0.053769544 -0.07564366 -0.012634207 -0.025291968 -0.035037898 0.088007286
-0.14303312 0.040160082 0.07508865 0.014249035 -0.19732556 -0.007074364 -0.0459075 -0.045364026
0.08621024 -0.09569472 0.02237802 0.03247685 0.120338626 -0.10985108 -0.007683625 -0.10300874
-0.008927291 -0.023911268 -0.040890012 0.0297692 -0.02873604 0.045970973 0.06344653 -0.018938638
0.078123175 -0.004124677 -0.019547645 -0.07549474 -0.06432104 -0.055601925 -0.046525124 -0.08099683
0.008543752 0.055548016 -0.06345992 0.07941039 0.04068284 0.0806579 0.06562694 0.06069792
-0.12085784 0.016688682 0.06431184 -0.1502751 0.0041664545 -0.017690629 0.015520584 0.02179077
0.060863256 0.01636625 0.09134354 -0.011767121 0.092321746 0.09487137 -0.087023064 0.03936855
0.026442397 0.009166747 0.023607997 -0.052249137

DGM1.gate_H.0.weight f4 [100, 102]
00000000: 79ec 283c d551 e6bd 434b f4bd b8c2 493d
00000010: c6e6 cabd 1e21 9cbd 3562 243d d30f 133d
00000020: 947f cd3d 2527 2c3d 6171 c5bb e3ce 19be
00000030: 7402 00bd cd31 1b3c 2310 3bbb 0819 b0bc
00000040: 929d abbc 7566 53bd ba2b 173d 3692 6a3b
00000050: ac31 13bd 0440 fd3d 8831 5ebc bbee 12be
00000060: a941 a33d 944f 80bd 2197 c7bd 45cb 873d
00000070: ba88 4fbd b22d e83d 5a5d 71bd d693 0d3e
00000080: 639a 023c 9a06 8f3d c577 c4bd 0547 2c3d
00000090: 1d02 783b 87e4 50bc b5da 99bd 2596 06b9
000000a0: 7f2f 8b3c 060c 0ebd eac2 8c3d ab89 b83c
000000b0: c94e f13c b913 ee3d afdc 21bd ba81 b13d
000000c0: c787 a23b e116 b7bd 5df2 86bd 0384 95bd
000000d0: a3b7 c0bd 7d27 19bd ca2f 2ebd 98f8 0fbd
000000e0: cd9c 05bc ddb2 97bd 8d06 9bbd ea1a 9fbb
000000f0: 0953 0f3d 05f4 0d3d 783b f3bd d92e 19bd
00000100: 8d78 153d 1269 b5bc aa84 203c 9268 bdbc
00000110: 3fe6 03bd 81be fcbb d3ae b6bd 8595 63bd
00000120: feb4 b3bd 2ca7 883c 77c1 783d 53c4 8c3d
00000130: a0f8 563d 2dfa 89bc fc85 d9bd ef98 03be
00000140: d1eb 453d 7788 ee39 5176 13bd 98cc 3e3c
00000150: 9a93 d73c f6bb e2bd bddc 82bc e56c 273c
00000160: 3b29 49bc c8af 443d 7465 e6bd a006 4abc
00000170: e67a 65bd ea1a 87bd 445e afbd 8838 83bd
00000180: 5494 9fbd 5000 aebc 9e85 a1bd 07da 1abc
00000190: 2563 9abd 3725 d63d 3608 40bc d113 c1bd
000001a0: 7b57 df3c f3d3 e23d 4a71 9ebd 6b18 2bbd
000001b0: 04ac 983c 9b0f 02be 13be 94bc 6b05 7b3d
000001c0: f9b0 ad3d f377 943d 9f07 963c 04ef 9abb
000001d0: 8883 a8bd 5813 f1bc f68b b9bd 6915 69bd
000001e0: 2482 0abc 1f7a 3ebe 655b 763c ea53 4f3d
000001f0: 3dde b13d 69a4 51bd def6 643c c14f ee3c
00000200: 6b64 5abd 8ddd 2c3d 0705 323c cf7a 31bb
00000210: 6ead ccbc 7255 c5bd 7b84 bbbd ecf2 d8bd
00000220: 1b80 45bc 238a 463c 92c0 a4ba 0a87 93bd
00000230: e2af 9ebd b713 65bd e1ca 313d c06a 343b
00000240: 88f3 b43d fce1 e23c 6542 77bd a5e8 633d
00000250: cba6 0bbe 081f 473d 2401 903c 7834 bbbd
00000260: d68a bebd b705 06bd b17b 9d3c 6138 83bc
00000270: 2c45 b33b 5abc 7cbc b8a9 023e de16 353d
00000280: 2238 833d e18f c2bd d979 303c b0e6 4a3d
00000290: 9252 1f3d d237 8fbd ac0a 213d 5ba5 4ebd
000002a0: cf86 bbbc a49c d33c 4538 283c bd6f c639
000002b0: a6c0 5dbe c748 c5bd 78b9 c2bc 9b4b 39bd
000002c0: 4884 8dbd 7f41 60bc f3e7 aebb d29b 163d
000002d0: 738a 40bd 69c0 dcbd eb31 0e3d 4a3e 89bd
000002e0: 2185 b1bc 6f4c db3d 071a cfbc 2a86 16bd
000002f0: dd08 1e3d 62ad a7bd 2e9a 16be 01c4 4c3d
00000300: a18d e73b faa0 753c 3658 0fbd 766b 693c
00000310: b07f 36bd 0ab7 5dbd 30a6 5abb ec42 2e3d
00000320: b797 923d 7019 8bbd e13a 19bd a219 c23d
00000330: 305a 3abd 0c54 ad3d 1703 d63d ad94 513d
00000340: 4d4a 6e3d 9948 48bd b919 5abd 37df 05bd
00000350: b3d4 683c 5532 353d 0d2a f739 af4d 063b
00000360: 5948 b7bd 3cd8 f63d c6bb 20bd 7a66 c23d
00000370: 4f2a a1bc 1887 8cbd 719f 89b9 e256 043d
00000380: fe73 723d 4c73 1ebc 298c 90bd 1ac4 853c
00000390: 2acc 4f3d 07b9 ba3d 0610 a5bd 5cab 043e
000003a0: 2370 553d 9b7a 453d a1e2 33bc 926a 663d
000003b0: 0cce 523a 7820 183d 1761 94bc c385 dfbd
000003c0: 6fc2 c13d b7c7 863d 2014 b73d c0db 8cbd
000003d0: 0705 7f3d 243a 6b3d 872c 69bd 5682 dd3d
000003e0: 7edf dabc 5dca 8cbd 0292 c53b b7c0 aab9
000003f0: 6acf e0bd e9a8 41bd 84b9 85bd f34a f43d
0.010310286 -0.11246077 -0.119284175 0.049257964 -0.09907298 -0.07623504 0.04013272 0.035903763
0.10034099 0.04202952 -0.0060254787 -0.15020327 -0.03125234 0.009472323 -0.0028543554 -0.02149631
-0.020949159 -0.051611383 0.036906935 0.0035792715 -0.035936043 0.12365726 -0.013561614 -0.14348881
0.07971508 -0.06265178 -0.097456224 0.066305675 -0.050667502 0.11336841 -0.058926918 0.13825926
0.007971379 0.06983681 -0.09593157 0.042059917 0.0037843056 -0.012749798 -0.07512418 -0.00012835169
0.016990421 -0.034679435 0.068731144 0.022526583 0.029456513 0.116248555 -0.0395171 0.086673215
0.0049600336 -0.08939911 -0.06589196 -0.0730057 -0.09410026 -0.037391175 -0.042526044 -0.035149187
-0.00815506 -0.07407162 -0.07569609 -0.0048555033 0.034991298 0.034656543 -0.11876577 -0.037398193
0.03649192 -0.022144828 0.009797255 -0.023121152 -0.032202 -0.0077131395 -0.08920064 -0.055562515
-0.08774756 0.016681276 0.060731377 0.068733834 0.0524832 -0.016842926 -0.106212586 -0.12851308
0.048320595 0.00045496572 -0.036001507 0.011645459 0.0263155 -0.11071007 -0.015974397 0.010218834
-0.0122778965 0.0480192 -0.112498194 -0.012330681 -0.05602541 -0.0659693 -0.085629016 -0.06407267
-0.07791963 -0.021240383 -0.078868136 -0.009451396 -0.075384416 0.10456317 -0.011720708 -0.09427608
0.027263394 0.11075582 -0.07736452 -0.041771334 0.018636711 -0.12701266 -0.01815704 0.061284464
0.084810205 0.07249441 0.01831418 -0.0047282 -0.082282126 -0.02942817 -0.090598986 -0.056905184
-0.0084538795 -0.18601273 0.015036439 0.050617136 0.08684967 -0.051182184 0.013974873 0.029090764
-0.053318422 0.042203475 0.010865456 -0.0027081256 -0.024985041 -0.09635438 -0.09156128 -0.10593209
-0.0120544685 0.012117895 -0.0012569597 -0.07203491 -0.07748391 -0.055927005 0.04340637 0.0027529448
0.088355124 0.027695648 -0.060366053 0.05564179 -0.13637845 0.048613578 0.017578669 -0.09140867
-0.093038246 -0.032720294 0.01922402 -0.016018094 0.0054708924 -0.015425766 0.12760055 0.04421126
0.06407191 -0.09500099 0.010771238 0.049536407 0.038897105 -0.06993069 0.039316818 -0.050450664
-0.02289143 0.025831528 0.010267322 0.00037848754 -0.21655521 -0.09633022 -0.023770079 -0.04523812
-0.06909996 -0.0136874905 -0.005337709 0.036769696 -0.047007035 -0.10778887 0.034715574 -0.06701334
-0.021669926 0.10707938 -0.025280965 -0.036749043 0.03858267 -0.08187367 -0.14707252 0.04999161
0.007066444 0.014991993 -0.034996234 0.014246812 -0.044555366 -0.054129638 -0.0033363216 0.04254429
0.071578436 -0.06791961 -0.037409667 0.09477545 -0.045496166 0.08463296 0.10449808 0.05116718
0.058176327 -0.04889736 -0.053247187 -0.032683577 0.014210868 0.044237453 0.00047142842 0.002049308
-0.08949346 0.12052962 -0.039241575 0.09492202 -0.019673495 -0.068617046 -0.0002624947 0.03230942
0.05919265 -0.009671044 -0.070579834 0.01632886 0.050731815 0.091173224 -0.08059697 0.12955993
0.052108895 0.04821263 -0.0109793255 0.056253977 0.00080415676 0.03714034 -0.018112702 -0.10914185
0.094609134 0.06581061 0.089393854 -0.068778515 0.062260654 0.057428494 -0.05692723 0.10815875
-0.026717898 -0.06874535 0.0060293684 -0.0003256851 -0.10977061 -0.047280226 -0.06529525 0.11928358

DGM1.gate_H.0.bias f4 [100]
00000000: 2df5 4bbc 6e18 293d 0e38 12be 9291 173d
00000010: 33e3 c73d d630 903d c33b c1bd fb9e 35bd
00000020: 5696 6cbc 1773 ab3d 88c6 52bc 95c9 1fbd
00000030: 5f60 8a3d 318d a9bd a73a 3ebd 4c37 91bc
00000040: e1e5 743c 5829 67ba 1fd4 e33c 3d7e 10bd
00000050: bcbd e53d 3fff 273a f4a3 513b a972 13bc
00000060: 4b06 16bc c78f fc39 c007 38bd bb30 433d
00000070: b2de 3abc b6d6 f1bc bb6a 6c39 15ce 903d
00000080: 2880 1b3d 3b3c aa3d fb7e d6bc 8779 293b
00000090: 27af f6bd 08c1 24bc 91d6 13be 2bac fb3d
000000a0: 82be 5cbd 11f3 43bd 0483 10bc 7ff3 913d
000000b0: 2314 0fbe 62ff 333d 6c2d 6cbd 9498 78bc
000000c0: 4f7d d0bd 88ee c93c 8aa6 0a3d 9d67 3cbc
000000d0: d1a8 12bd 52b5 1abc df4a 413a 40c6 ab3d
000000e0: 1d75 263a 059b c53c ef5d c2bd dfd5 80bd
000000f0: 8efa b93d fe52 883d b715 283e b166 413d
00000100: f06e 463d 2a32 dc3c 99c8 bdbd cc38 b6bc
00000110: 9c16 6b3d 5f84 eabd fb5b 233d 0dde 78bd
00000120: 19a3 d63c e39e 143d 1dbe b03d cb1d a03d
00000130: 86f9 69bd f707 223d 4057 733d fb49 e33d
00000140: 1368 ccbc b6d4 573c da17 7bbc f0f0 98bd
00000150: a4ca 583c c4dc 463c 28c6 c63d ddbb 2fbe
00000160: 3487 2fbd cf59 3fbd 701e 9fbd d231 24bd
00000170: 4036 ab3d 72e0 6ebb e839 55bc db0f 29bd
00000180: 6778 46bd bc91 73bd c069 ae3d 57c6 e03c
-0.012448591 0.041283064 -0.14279196 0.03700406 0.09760132 0.07040565 -0.09435227 -0.04434107
-0.01444014 0.08371561 -0.012864716 -0.039010603 0.067566626 -0.08278883 -0.046442654 -0.017726563
0.0149473855 -0.00088181114 0.027811108 -0.03527664 0.112178296 0.0006408579 0.0031988593 -0.008999505
-0.009156774 0.00048172308 -0.044929266 0.047653895 -0.011405634 -0.029521327 0.00022546474 0.07070557
0.037964016 0.08312269 -0.026183596 0.002585979 -0.120451264 -0.010055788 -0.1443732 0.12288698
-0.05389262 -0.047839228 -0.008820299 0.07126521 -0.13972525 0.043944724 -0.057660505 -0.015173096
-0.10180151 0.024649873 0.03385023 -0.011499313 -0.035805527 -0.009442644 0.00073735224 0.083874226
0.00063498487 0.02412177 -0.09490573 -0.06290793 0.09080993 0.066564545 0.16414534 0.047217075
0.048445642 0.026879389 -0.092667766 -0.02224388 0.05739461 -0.11451029 0.03988264 -0.06075864
0.026200818 0.03628434 0.08630011 0.078181826 -0.05712273 0.039558377 0.05940938 0.11098095
-0.02495197 0.013173273 -0.015325511 -0.0746783 0.013231907 0.012137596 0.09705764 -0.17161508
-0.04285355 -0.046716508 -0.07769477 -0.040086575 0.08359957 -0.0036449698 -0.013014294 -0.041274887
-0.04845467 -0.059465155 0.08516264 0.027438326

DGM2.gate_Z.0.weight f4 [100, 102]
00000000: 23e1 673c 8048 26bd 2168 99bd 8346 a83c
00000010: a511 02be b5b3 edbc 6e8a 8d3d ef25 c53c
00000020: b96e a5bb 69db 21bd b508 adbd ccfe 4c3d
00000030: a157 d5bd f302 2b3d b190 bebd 3d50 f5bc
00000040: b91a d2bd 8118 313a 0cba d63d 0879 05bb
00000050: 5767 893c d1ca b7bd 9054 723c 172d b6bd
00000060: 2b1d 9a3d e97d 173d ff24 da3d f105 e9bb
00000070: 3b45 bcbc 0412 58bd 8a5b 2f3c b09c 81bd
00000080: acb6 e9bd c83a 20be 202c 803d 08e3 daba
00000090: f483 f63d f220 a5bd 8eee f23b d487 093e
000000a0: 2a27 dc3c 1f9a 983d 2ca5 c7bd 2c55 8cbd
000000b0: 6d2e f73a b023 383b 6a2b fabb c45c a23d
000000c0: 9753 2ebd 3bd5 9539 60d2 ddbc 3d88 993d
000000d0: 3532 23bd 7f39 6bbc ba40 2fbc 60dc c23d
000000e0: ecca b33c 884b be3d b286 d73d 6317 ac3c
000000f0: 445b 1ebd bd30 163d 3035 bcbd 49ac 113e
00000100: 025b 2d3d 9978 003d 00b0 04bd 3b4e 0f3e
00000110: 90c0 ccbb 2ff0 51bd c994 f93c bc22 7c3d
00000120: b8eb 8d3d dee9 b3ba bd73 8e3d 644f 043e
00000130: c0e2 14bc 647f 97bd e330 053e d9d9 d33d
00000140: f907 c5bd 61f5 80bc 63a1 38be 1ab5 57bd
00000150: 319b 5dbd f690 893c ff96 053b 5997 c9bc
00000160: 59f5 353d 6c9b 8abd 38e1 d13d 35de 6a3d
00000170: 8c88 2f3c 2751 633e 4916 c1bd 27b1 04be
00000180: 9254 363e 6e45 83bc fe2b d0bd c26d cabd
00000190: ffa2 f93c 63d0 193d fa0e 92bd 15d9 7dbc
000001a0: 5c8b a8bc 6677 733c 2557 28bd ccd9 ccbb
000001b0: 89ee 99bd 0137 ac3d c4c5 833d b802 033b
000001c0: 7cac 253d bc4c 8e3d 9dc0 e8bd cac2 a23d
000001d0: 191f c1bd 46f3 7cbd 7036 31bc a24b b23d
000001e0: d5fb 0f3e 8922 523d 57ff 733d d7bc cd3c
000001f0: 0c47 f33d 9181 ff3c ea1b b53d f0fa 1b3d
00000200: fc60 263d 61bd 6ebd eb08 8a3a b2ce bb3c
00000210: 9613 1a3c e35a 613c dc80 0a3d b32c a8bc
00000220: 6178 5fbd 0dfa 433b 5f1d f1bd ca72 8a3d
00000230: 7990 b9bd 8739 7e3d e7a6 d6bc c887 67bd
00000240: ddac 833d aebb e7bd b8fd 0fbd 5aec 03bb
00000250: 2179 55b7 013f 33bd 120e f83d 9177 60bc
00000260: 4562 babd c308 3c3d f5dc 5f3d eaec 6ebd
00000270: b844 63bc 8283 c43d 0fe7 3dbd 85e3 123c
00000280: fee1 d73d 2e22 21bc 6ef1 e0bd 1730 dfbc
00000290: 9773 abbd 360f 49bd 836b 633d d23c c6bd
000002a0: 5ab3 2abd 057b ef3d 4c70 5fbd 980c adbd
000002b0: e78b 24bc 9ac1 b2bd 235f 413b 2527 9dbc
000002c0: 600a e93c 2a4e d5bc 6b13 3b3b 626a c03d
000002d0: 4c0c 31bd ac7a 993c d462 893d 70ec 33bb
000002e0: 9fd9 7abd 8e3b e53d 26d3 cebc acaa 443d
000002f0: 1d1a d8bc 2bf2 5dbd eac6 0dbe a11b 36bc
00000300: b6d1 f7bd 5a7b 0c3c c179 9fbd ab32 113e
00000310: 209e 803b ca47 9bbd 0617 a83d 016c f0bd
00000320: 5e21 e33c 3302 9f39 e6ff 35bd f077 983d
00000330: 44b7 9cbd 8c1d 0d3e 0a71 ddbc 5868 7b3d
00000340: 10d0 073e ca4d 1e3d bd03 2ebe da41 5dbe
00000350: b38c 5abd 86ea 10bd c76f 8ebd 5c8d bbbd
00000360: 9275 b13d 9201 e53b 4d28 36be 55d5 0a3e
00000370: 3c52 1e3e 8ac7 ce3c fde1 0e3d c327 043d
00000380: e4df 86bd 08f9 353e 8ec6 2fbe 5ac9 cc3d
00000390: b2ed 8ebd 42f3 f2bd 0784 0fbe d50f 3e3e
000003a0: 3dd1 033e f23c c33d 3f70 633b 4a1f 5dbd
000003b0: bbd7 0e3e b89a eb3c e2dc 043e e0b4 e2bd
000003c0: ccd5 20be 74d7 703d 2194 33bc 0b55 2dba
000003d0: 9e56 be3c eb4d 73be 904e a83d eeec 9bbd
000003e0: e075 42be 625c 58bd 0e5b 1f3e 35af 48bd
000003f0: fc9e 483e e499 273e bdcd b03d e29e 5dbd
0.014152798 -0.040596485 -0.07490564 0.020541435 -0.12702043 -0.029016355 0.06911169 0.02406594
-0.0050485996 -0.039515886 -0.08448926 0.05004768 -0.104171045 0.04175086 -0.093049414 -0.029945487
-0.10259003 0.00067556655 0.104847044 -0.002036633 0.01677291 -0.08974231 0.014790669 -0.08895319
0.075250946 0.03698531 0.10651588 -0.007111304 -0.02298223 -0.052751556 0.010702977 -0.06328714
-0.11411795 -0.15647423 0.06258416 -0.0016699741 0.12036887 -0.080629244 0.007413692 0.1343072
0.026874144 0.07451271 -0.09748301 -0.06852183 0.001885844 0.0028097443 -0.00763457 0.0792785
-0.042560186 0.00028578364 -0.027077854 0.074966885 -0.039842803 -0.01435697 -0.010696584 0.095146894
0.021947347 0.0929175 0.10523738 0.021007245 -0.038661256 0.036667574 -0.09189832 0.14225878
0.04232312 0.03136501 -0.03239441 0.13994686 -0.006248541 -0.051254448 0.030466454 0.061556563
0.069297254 -0.0013726314 0.06955669 0.1292091 -0.009087265 -0.07397345 0.1300693 0.103442855
-0.09620661 -0.015742006 -0.18030314 -0.052662946 -0.05410308 0.016792756 0.002038419 -0.024608301
0.044423435 -0.067679256 0.10248035 0.05734082 0.010713708 0.22198926 -0.09428079 -0.12958203
0.17805699 -0.016024318 -0.10164641 -0.09884216 0.03047323 0.03755225 -0.07131763 -0.015493651
-0.020574264 0.01486001 -0.041098733 -0.0062515493 -0.075162 0.08408929 0.06434205 0.0019990634
0.040447697 0.0694823 -0.11364863 0.07947309 -0.094297595 -0.06175544 -0.010816202 0.08705832
0.1406091 0.051302467 0.059569683 0.02511446 0.118787855 0.031189712 0.08843215 0.03808111
0.040619835 -0.058286075 0.0010531222 0.022925708 0.009404084 0.013754579 0.033814296 -0.020529127
-0.05455816 0.002990368 -0.1177318 0.067601755 -0.09060759 0.06206658 -0.026202632 -0.056525975
0.064294554 -0.11315094 -0.035154074 -0.002012989 -1.2723992e-05 -0.043761257 0.12112059 -0.013700382
-0.09100775 0.045906793 0.05465408 -0.058331408 -0.013871364 0.095953956 -0.046362933 0.008965378
0.105411515 -0.009834809 -0.10983549 -0.02724461 -0.083716564 -0.049086772 0.055522453 -0.09679569
-0.04167495 0.11693386 -0.054550454 -0.08449668 -0.010043121 -0.08728333 0.0029506169 -0.019183705
0.02844733 -0.026038248 0.002854551 0.09395291 -0.043224618 0.018735252 0.06708303 -0.002745416
-0.061242696 0.11193 -0.025247168 0.048014328 -0.02637964 -0.054186027 -0.13845411 -0.011114986
-0.12100546 0.008574331 -0.077868946 0.14179485 0.0039251 -0.07582052 0.08207516 -0.1173935
0.027725872 0.00030328482 -0.044433497 0.07444751 -0.07652143 0.13780802 -0.02703144 0.061378807
0.13262963 0.038648404 -0.16993614 -0.21607152 -0.053356837 -0.03537991 -0.069549136 -0.091578215
0.08665003 0.0069887126 -0.17788811 0.13557942 0.15461057 0.025241632 0.034883488 0.032264482
-0.065856725 0.17770779 -0.17165586 0.09999342 -0.069789305 -0.11862804 -0.14015208 0.18560727
0.12872787 0.09533109 0.0034704355 -0.053984918 0.13949482 0.0287603 0.12974885 -0.110696554
-0.15706557 0.058799222 -0.01096061 -0.00066120987 0.023234662 -0.23760192 0.082181096 -0.0761355
-0.18990278 -0.052822478 0.15562078 -0.048995215 0.19591898 0.16367298 0.086329915 -0.0541066
