trained_optimal_value_funct.pth (torch, 506050 bytes, 27 tensors)

input_layer.0.weight f4 [100, 2]
00000000: 532a f43e 7e8d 403e 7aa8 c3be 62aa b33e
00000010: 26e7 ee3e 4df5 33bf 5623 643d 7502 2d3d
00000020: d37d 4fbe ce94 633e b6cb ebbe 1285 8dbe
00000030: f90c 463e b799 a8bd 88ce 003f cb08 b53e
00000040: 3c1d a43e b694 1abf 10af b03e d25f debe
00000050: ccd6 19bf c697 fa3e d6ac f23c 0582 8abe
00000060: f9b9 2f3e 3cf0 c33e 3022 bc3e 6c92 0abf
00000070: 12f8 993e a1c8 2abf 8fd4 8cbd b2e8 963e
00000080: 51a4 49be e107 173f 3912 603e 3b72 2fbe
00000090: 4dda 8d3e 8408 cfbe 88a2 d33e 1807 13be
000000a0: 8b8a e3be 34cf d6be 27d3 6a3e 785a 4a3e
000000b0: 43ae 273f c067 ab3e d516 60be 9928 e7be
000000c0: 67ed 5bbe 05d6 b03e 3d90 b23e 25b7 1cbe
000000d0: f6a5 73be fc42 ab3e 1dda 9bbe 2ebf eb3e
000000e0: b92e d53e 9360 453e 3f7c cf3e 7f82 02bf
000000f0: 5599 a23d a614 a93e 83e6 253f a1ac 0bbf
00000100: 6612 9e3e ae67 0b3f 02f6 bf3d 4097 f63e
00000110: 771c 24be 3d46 26be ccb8 e9be 2a0e 183e
00000120: bb84 c5be e4db 4a3d 2e06 54be d312 98be
00000130: 2978 093e b176 a83d 4ccf bbbe 75dc 1f3f
00000140: 5413 bd3e 7c4e 503e 1643 eabd c311 82bc
00000150: 2580 e3be 8216 da3e c415 cbbe 43f6 e93e
00000160: 7fd8 9abe 62f7 49be b214 3d3d 0e6a e83e
00000170: 3b6c 313e 3c71 96be 8d70 a83e e8f5 c33e
00000180: 4c03 ad3e 4e2c 0ebf 8cdc aa3e fd55 e83e
00000190: 667c aa3e 3330 243e 9927 ef3e b5d6 f33e
000001a0: 54d9 ff3d 720a 383c 43af 37be 26ec fdbe
000001b0: 21b0 fbbd fa04 62bd 3f36 a5bc e664 c7be
000001c0: 9974 d0be 4b11 fcbe 0625 4e3e 85a7 ad3e
000001d0: 471f bebd d3a8 cebe 753f f9bd f142 bd3e
000001e0: 8b4e c43e d933 4e3e 2ff4 143f 1f96 41bf
000001f0: 77cd 86bd 04af 80bd e63a f8bc a888 c73d
00000200: 357b d3be a343 4abe 9b94 bfbe 1c5a 99be
00000210: 356a 9fbe 7730 42be 91ae 88bc 78d6 623d
00000220: 3b5e a13c ab9f 0c3e af58 ec3e e43b 7fbe
00000230: 061d d7bd 48ae 033f 53ca b6be 995d 56be
00000240: b50b fc3d f77a bf3d 099b d5be 5081 bf3e
00000250: e03f 48be fa2d d9be bee4 f6bb 53d7 233e
00000260: 804f 73be 92c9 c63e 4997 ba3e d025 043e
00000270: 42e1 aabe 13fb ccbe afd0 933e 6769 923e
00000280: 3fa4 bdba ecd0 94be 3ef6 72bd e63d 69be
00000290: 9c63 8c3e 86ee 463e 3366 dfbe ab75 92be
000002a0: 9dc6 d1bd ee10 bb3d 142b 17bf ab01 c63e
000002b0: 5e11 cfbe 1e03 0e3e 584f a23e f2a5 2e3e
000002c0: a42a 5fbe 5e4a 0b3d 6654 7bbe ab41 65be
000002d0: e779 c4be e650 ffbe 67e8 b6be 533d 22be
000002e0: 3902 e13e 8b53 e5be 3476 3dbe 3f9b 0cbf
000002f0: f962 053e 3bcc 81be 7979 013f 853c de3e
00000300: 3dde 813d 7314 953c 8988 583e f421 aebd
00000310: 8da9 23be c074 493e 0d95 5ebe cfc3 c5be
0.4768854 0.18803975 -0.38214475 0.3509093 0.46660727 -0.70296174 0.05569776 0.04223867
-0.20262842 0.22224733 -0.46053857 -0.27640587 0.19340886 -0.08232444 0.5031514 0.3535827
0.32053554 -0.60383165 0.34508562 -0.4343248 -0.6009338 0.4894392 0.02962343 -0.27052322
0.17160787 0.38269222 0.36744833 -0.5412967 0.30072075 -0.66712385 -0.0687648 0.29474407
-0.19691588 0.589964 0.21881951 -0.17133419 0.27705613 -0.40436184 0.4133494 -0.14358175
-0.44441637 -0.41954958 0.2293211 0.19761074 0.6550028 0.33477592 -0.2188371 -0.4514816
-0.2147728 0.34538284 0.3487567 -0.15304239 -0.23793778 0.33449543 -0.30439845 0.46044296
0.4163721 0.19275121 0.4052448 -0.5098037 0.07939402 0.33023566 0.6480486 -0.54560286
0.30873412 0.5445508 0.09373094 0.4816227 -0.16026483 -0.16237731 -0.456488 0.14849153
-0.38577828 0.04952611 -0.20705482 -0.29701862 0.13424744 0.082257636 -0.36681592 0.62445766
0.3692881 0.2034244 -0.11438577 -0.01587761 -0.44433704 0.42595297 -0.39665043 0.45695695
-0.30243298 -0.19723275 0.046162315 0.45393413 0.17326443 -0.29383266 0.3289837 0.3827355
0.33791578 -0.55536354 0.3337139 0.45378104 0.33298033 0.16034012 0.46709898 0.47624746
0.12492624 0.011232959 -0.17937951 -0.4959423 -0.12289453 -0.055180527 -0.020167468 -0.38944167
-0.40713957 -0.49231943 0.20131311 0.3391687 -0.092833094 -0.40363178 -0.121703066 0.36965135
0.38341174 0.20136966 0.58185095 -0.7561969 -0.06582158 -0.062833816 -0.030301522 0.09742862
-0.41304937 -0.19752364 -0.37418064 -0.2995156 -0.31135717 -0.189638 -0.016684802 0.055380315
0.019698253 0.13732783 0.4616141 -0.2492519 -0.10503583 0.5143781 -0.35701236 -0.20934142
0.123069204 0.093496256 -0.41719845 0.37403345 -0.19555616 -0.4241789 -0.0075345924 0.16000108
-0.23760796 0.3882566 0.36443546 0.1290505 -0.33374983 -0.40035304 0.2887015 0.2859604
-0.0014468505 -0.29065645 -0.059316866 -0.22777519 0.27419746 0.19426927 -0.4363266 -0.286054
-0.102429606 0.091340885 -0.59050107 0.38673148 -0.40442938 0.13868377 0.3170116 0.1705549
-0.2179361 0.03400647 -0.24543914 -0.22388332 -0.38374254 -0.49866408 -0.35724184 -0.15843706
0.43947008 -0.447903 -0.18502122 -0.54924387 0.13026036 -0.25351128 0.5057598 0.43405548
0.06341217 0.018198228 0.21145834 -0.0850257 -0.15982647 0.19673443 -0.21736546 -0.38625953

input_layer.0.bias f4 [100]
00000000: 3d76 09bf 1a57 18bc be99 acbe e097 79be
00000010: 776a ac3e 7c2a 533f 606d 31bf 8bd8 ff3d
00000020: dde9 4f3d 2f64 6a3e 0743 bbbe 9c80 193e
00000030: 697f 853d f3b0 d5be aed8 103f a9a5 18bf
00000040: 5976 52bf 2c34 0abf 63f6 383d 7445 9f3e
00000050: d44d 643e 9a1e 45bc 83b6 0c3f c995 0a3f
00000060: 132a 4f3f 86e8 443f e53c ae3e 4863 46bf
00000070: 9255 233f 07d6 c7be fe99 c0bc 8e3a 003f
00000080: d91f 94be a1d2 47bf f2f4 35bf 588b 8f3e
00000090: cf6e a23e 8e49 9d3d 4de9 acbe 52ee e9be
000000a0: 1b21 86be a294 343f 73e6 3cbe 7613 f13e
000000b0: 4c7f b5bd f2a1 41bf 28a9 35bf 46f0 b13d
000000c0: c8dd b5be c4e7 57bf 4e46 af3e af57 133f
000000d0: 6629 0d3f 5f21 093f ca43 1c3f 4f8d 2c3f
000000e0: 5db2 453f bacb a13e 8a85 083e e014 ac3e
000000f0: b05c bebe 2639 d03e fa39 42be 549a 24be
00000100: 9446 c43e a127 613f 678c 4dbe b97f 22be
00000110: 1bcb e9bd 06b2 033f 1753 f7be 12cd a73e
00000120: 53d6 2fbf c605 323f f98b 593f 494d 16bf
00000130: 2ef0 2cbf 274f 403f f397 843e 2c2a 313f
00000140: 2ed7 06bf e809 173f 375f 2bbd d279 4d3f
00000150: 00a0 153f 5b64 3d3f 43d3 1fbf 77dd 5cbe
00000160: 4b49 493f e8aa bebe 6a08 8c3f de71 30be
00000170: 2429 bbbe 39b3 4e3f 7dba 84be 595f 1bbe
00000180: a1fb 48be 45f9 2d3f 49d9 61be 8f02 d4be
-0.5369604 -0.00929811 -0.33711046 -0.24374342 0.33674976 0.824867 -0.6930752 0.12492474
0.05076014 0.2288978 -0.36574575 0.14990467 0.06518442 -0.41736564 0.56580627 -0.5962778
-0.82211834 -0.5398586 0.045156848 0.31107676 0.22295314 -0.012031222 0.5496599 0.54134804
0.80923575 0.769173 0.34030834 -0.7749524 0.63802445 -0.39030477 -0.02351093 0.5008935
-0.28930548 -0.7805577 -0.7107688 0.28035998 0.31725165 0.07680045 -0.33771744 -0.45689636
-0.26197132 0.70539296 -0.18447284 0.4708516 -0.088621706 -0.75637734 -0.70961237 0.08688407
-0.35520768 -0.8433802 0.34233326 0.5755567 0.55141294 0.53566545 0.6104094 0.6740312
0.77225286 0.31600744 0.13332191 0.33609676 -0.3718009 0.406686 -0.18967429 -0.16074497
0.38335097 0.87951094 -0.2007309 -0.15869035 -0.114156924 0.5144352 -0.4830558 0.32773644
-0.6868641 0.6954006 0.84979206 -0.5871168 -0.67553985 0.75120777 0.25897178 0.69204974
-0.5267209 0.5899949 -0.04183885 0.8026401 0.58447266 0.73981255 -0.62431735 -0.21568857
0.7862746 -0.37239766 1.0940068 -0.17230937 -0.36554825 0.8074222 -0.2592353 -0.15173091
-0.19627239 0.6795848 -0.22055544 -0.41408202

DGM1.gate_Z.0.weight f4 [100, 102]
00000000: 1baa 96bd ddfa 4b3d 67cd 0bbb f263 c2bd
00000010: 52a3 0f3e 5d3a 1dbd ace7 febd 0f5f 27bd
00000020: 3878 90bd a6d7 bebd 60f4 0d3e 6a9c 043e
00000030: 56b7 64bd 19e4 c93d b124 bbbd acce aebc
00000040: 7df2 5a3d 50c5 87bd 0fc2 9fbd 1813 9d3c
00000050: 3190 283c f2ef 4ebd 0c84 6d3d db23 0b3d
00000060: 573b e2bd 62ec cc3d 6a9d 83bd 46c9 b0bd
00000070: 541a c8bd 825c 19be c68d b5ba 4f43 dc3d
00000080: 5316 67bd 3610 a93d 0495 f2bd ac9a bebd
00000090: 216c f73b de7a 36bd bb14 d73c d231 c1bc
000000a0: a3f9 b43b 24e0 30be 0036 81bd a008 233d
000000b0: 6e55 d4bd 833d de3a c7da cd3d 5a70 aebd
000000c0: b47b bf3d e4e3 443d db46 633d 1b36 f3bd
000000d0: d3d6 0ebe eb82 83bc 1b34 683d a5f8 6c3d
000000e0: ae8b 51bd 1acb 323d 7169 733d 5a72 1a3d
000000f0: 41da 003e f600 973c c457 ffbd 41f8 0d3e
00000100: 7c71 e43d d947 4b3c e865 6cbd 2b3d 9ebc
00000110: d9d2 cebc cc85 1fbd 9da3 edbd c5d5 adbd
00000120: e96e 9cbc 688b 7fbc 6a0f 9b3c 3b36 3ebd
00000130: 29d9 94bb 9e85 88bd 1615 1fbe 7617 fabc
00000140: d092 9a3d a842 063d b292 afbc 14b3 5a3d
00000150: a3ed 8cbd 6542 6bbc 0079 43bd 758b afbd
00000160: 55a0 00bd edf9 d23c 6216 b63d 60d7 a5bc
00000170: 42ac 0b3e 67f0 b9bc 0e00 883d 5591 f13d
00000180: 519b 233e 5512 213a 0ee4 98bd c5ac 82bd
00000190: 0122 84bd 4456 283c c9c2 dabd 18a8 92bd
000001a0: ad8b cbbb 2321 f13b 0673 cebd 098d a0bd
000001b0: 9858 613d 777d c43d b762 b9bd 26be febc
000001c0: 971c 28bc 7e67 d7bc 6564 203d 29a0 a33d
000001d0: 253c f7bd 48e4 92bd cce5 183d 8095 e1bd
000001e0: 97c4 343d 08a8 8d3b ffa8 edbd 67d4 873c
000001f0: 2f24 36bd 606c 37bd ac53 95bd dae4 1cbd
00000200: 1b61 b63d 0b52 703d c873 803d 3576 a93d
00000210: 36da e8bd a534 cabb 1778 793d 1a36 fa3c
00000220: c8bf 91bd 2adc a6bd 6807 61bd b45e 873c
00000230: c894 60bd 2604 d13d 26df c5bc eb69 63bc
00000240: 8eec 59bd cc12 073c 38bd eb3d 5a5f ec3d
00000250: def3 bd3b 5a5e b43c a8df c2bd d349 edbd
00000260: 9f93 82bd b89a 73bd 21e6 f1bd 5eed dcbc
00000270: 7c2f 4a3d 16d7 0a3d 8884 15bd 09d4 513d
00000280: ec7e 89bc 52e7 a5bd 630b 723d 02f3 b83d
00000290: 756e debd bdf1 553d d9a7 913c 79fa 623d
000002a0: f615 74bc d39c 193e 2163 cb3d 7596 2abc
000002b0: d838 f33a 0e52 3d3d 0ae2 84bd 0c86 9c3d
000002c0: 9950 c3bd ea3d 14bd 6857 203e 1e69 183b
000002d0: eba5 a5bc 5f8f 03be 3d1c 043e 5d2a a9bd
000002e0: 0ca5 42bd 4dca 273c 6f88 1d3d f8e0 2d3e
000002f0: c9ad a0bd c4b0 563d 4db0 08bd 37d9 193d
00000300: 169d aabc 5f3d b6bb a757 2e3e a591 5b3d
00000310: fa81 243d 9786 053e 9d7d 87bd 465a acbd
00000320: 4985 0f3d 7a52 e4bd 1137 103d 44a9 9e3c
00000330: a956 bbbd ac44 d23c 725c 8a3d e8b6 c0bd
00000340: 0c6e e1bd 39fb e53d 46cd 2e3d a94e 143a
00000350: a43a 67bd 3dd9 f33d b1ba dcbd 5744 98bd
00000360: 936d dfbd 672e 9ebd 9320 233d 6e2f 1e3d
00000370: 7d9b 8dbd 754e bb3d d247 4f3d 16af 17bd
00000380: bf48 95bd fe2a c03d 5053 89bb 5516 6fbd
00000390: 8823 e73d e03f 2cbd 6e5b f53d 94da 6bbd
000003a0: 5729 5a3d 2f73 f8bd 487f 823d fc9b 81bd
000003b0: 4fe2 e4bc 422a ca39 758c 343d 011d c83c
000003c0: 4aa4 6f3b 2c8c 703d 3e9d a03d 937e b9bd
000003d0: 3bd5 6dbd 9c82 7c3d d38b 693c d0a4 e73d
000003e0: 16bb 783c 5848 09bd 6030 0a3a 11c6 fbbc
000003f0: 654f 8d3b f90b 3d3d e0de a43c 28d5 653d
-0.07356664 0.04979979 -0.0021332146 -0.09491719 0.14027146 -0.038385738 -0.12446532 -0.04086214
-0.0705418 -0.093184754 0.13862753 0.12950292 -0.055838905 0.09857959 -0.09137858 -0.021338783
0.05345391 -0.06629431 -0.078006856 0.019174144 0.010288284 -0.0505218 0.057987258 0.03396974
-0.110464744 0.10006024 -0.06426509 -0.0863214 -0.09770647 -0.14976695 -0.0013851456 0.107550256
-0.056417774 0.08255045 -0.11844829 -0.09306845 0.0075507318 -0.04455077 0.026255002 -0.023583326
0.005522923 -0.17273003 -0.06309128 0.039803147 -0.10367857 0.0016955588 0.10051494 -0.08517523
0.093497664 0.048068896 0.055487495 -0.11875554 -0.13949136 -0.016053637 0.056690317 0.057854313
-0.0511586 0.043650724 0.05942673 0.03770671 0.12583257 0.018433075 -0.12467912 0.13864233
0.11154458 0.012407267 -0.057714373 -0.019316277 -0.025247024 -0.038945958 -0.116034724 -0.08488039
-0.019095855 -0.015597202 0.018928248 -0.046438437 -0.004542489 -0.066661105 -0.15535387 -0.030528765
0.075475335 0.032778412 -0.021432254 0.05339344 -0.06881263 -0.014359091 -0.047722816 -0.08571521
-0.031402905 0.02575394 0.08890988 -0.0202443 0.1363993 -0.02269764 0.066406354 0.11795298
0.15977217 0.0006144394 -0.07465373 -0.063806094 -0.06451798 0.010274474 -0.106816836 -0.071609676
-0.006211719 0.0073586865 -0.10080533 -0.078394 0.05501613 0.09594243 -0.090520315 -0.03109653
-0.010260723 -0.026294466 0.039158244 0.079895325 -0.120720185 -0.071724474 0.037328526 -0.11014843
0.044132795 0.0043230094 -0.11604499 0.016580774 -0.0444681 -0.04478109 -0.0729135 -0.038304187
0.0890524 0.058671992 0.062720835 0.08274499 -0.113697454 -0.0061708265 0.060905542 0.030543376
-0.071166575 -0.08147462 -0.054938704 0.01652465 -0.05482939 0.102058694 -0.024154257 -0.013880233
-0.05320411 0.008244228 0.115107 0.11541624 0.0057968935 0.022017647 -0.09515315 -0.115863465
-0.06375813 -0.059473723 -0.11811472 -0.026968654 0.04936169 0.03389653 -0.036503345 0.051227603
-0.016784154 -0.081007615 0.05909289 0.09030725 -0.10860912 0.052232493 0.017780231 0.05541465
-0.014897814 0.1500123 0.09931017 -0.010411848 0.001855637 0.04622083 -0.06488426 0.07642755
-0.09536857 -0.03619186 0.15658343 0.0023256014 -0.020220717 -0.1284766 0.12901397 -0.08260033
-0.047520682 0.010241103 0.03846019 0.1698035 -0.07845647 0.05241467 -0.03337126 0.037560668
-0.020826858 -0.005561515 0.17025624 0.053605694 0.040163018 0.13039623 -0.06615756 -0.08415656
0.03503922 -0.11148544 0.035208765 0.019367822 -0.091473885 0.02566751 0.06755914 -0.094098866
-0.11007318 0.112295575 0.042676233 0.0005657473 -0.05645241 0.11906669 -0.10777796 -0.0743491
-0.109095715 -0.07723694 0.039825987 0.03861945 -0.06914423 0.09145824 0.050605603 -0.03703221
-0.07289266 0.093832 -0.00419084 -0.058370907 0.11286074 -0.042053103 0.119803295 -0.0575815
0.05326208 -0.121313445 0.06371933 -0.0632858 -0.027939944 0.00038559927 0.044079263 0.024427893
0.003656643 0.05872743 0.078424916 -0.09057345 -0.05806468 0.061647996 0.014254528 0.11310732
0.0151813235 -0.033516258 0.00052714907 -0.030734094 0.004312443 0.046153996 0.020125806 0.056111485

DGM1.gate_Z.0.bias f4 [100]
00000000: d5b6 af3d 73d0 b3bd 89a7 3b3d ba78 373d
00000010: 7436 033e 695b 333e 5036 85bc 1ca0 a63d
00000020: 9aad 873d db0d b43d 2546 9dbd d0c4 903d
00000030: e948 b83c 48e0 cf3d 93d2 1b3d 36fa 36bd
00000040: 8fa5 0f3d 77ba e5bc 34b0 1ebc b912 0e3e
00000050: c618 0abe 6599 ee3d 1612 7c3d f681 ba3c
00000060: 3014 69bd 3dd3 3ebc 0597 ce3d b1f6 b2bd
00000070: 99f9 523d 7d86 56bd 54c2 a43d 9e0b 4e3d
00000080: ee27 b7bd ac5c 8dbd a912 4bbd 54a7 3b3d
00000090: b757 973d 3fc4 11be 997e 3bbd 43a8 5bbd
000000a0: a187 b9bc 4707 39be e3b2 1abd 8c53 bdbd
000000b0: 4d62 d33d 9402 593d 945c f7bc 06a2 a63b
000000c0: 408d c2bc 7514 a8bd d135 e3bd a624 903b
000000d0: c81f f13c 2d3d 82bd b394 3a3d 6ec7 113e
000000e0: 9251 573e 01d5 213d 3963 2fbd abbe a83d
000000f0: 0642 1b3e fcb5 f13d 19ba 6cbd a121 8fbd
00000100: cc9e 2d3e 7750 40bc f288 febc 9afe aabd
00000110: 6954 22bb 7275 2c3d f8b4 df3d ab27 e2bb
00000120: 795d 6d3c f517 2fbd be16 5c3c 7944 14be
00000130: 3d04 f6bc 429a 4a3d 869d 0ebd c3ec aebb
00000140: 5a15 65be fcc4 cbbd a1b6 e83d 5af3 e23d
00000150: 7471 443e 4358 73bd bbfd d73c 211d 40bd
00000160: 0505 12bd 3883 b2bc 7c7c 183e 7fb4 ecbd
00000170: b3d6 19bc e160 95bc 0800 c73d f591 3a3d
00000180: 9863 9b3d bd00 143d b53e c13c 6dc1 0f3e
0.08579794 -0.08779993 0.04581407 0.04479287 0.12813741 0.17515339 -0.01626125 0.08136007
0.06624909 0.08791705 -0.07679395 0.07068789 0.022495704 0.101502 0.038042616 -0.044672213
0.03507 -0.028043015 -0.009685565 0.1387433 -0.13486013 0.116503514 0.061540686 0.022767048
-0.056904018 -0.011647043 0.100873984 -0.08738459 0.051507566 -0.05237435 0.08044878 0.050304048
-0.08943163 -0.069024414 -0.049578343 0.045813873 0.07389777 -0.14235018 -0.04577503 -0.053627264
-0.02264768 -0.18069182 -0.037768256 -0.09244451 0.10321484 0.052980974 -0.030195512 0.0050852327
-0.023748994 -0.08207027 -0.11094249 0.0043989 0.0294341 -0.063593246 0.045551967 0.14236233
0.2102721 0.039509777 -0.042819235 0.08239492 0.15161905 0.11802289 -0.057794664 -0.06988836
0.16955107 -0.011737934 -0.03107116 -0.08349343 -0.002476955 0.042104192 0.10923189 -0.0069017014
0.014487618 -0.042747457 0.013433157 -0.14479245 -0.030031318 0.049463518 -0.034818195 -0.005338283
-0.22371426 -0.09949681 0.11362959 0.11081572 0.19183904 -0.059410345 0.026366105 -0.04690278
-0.03564932 -0.021791086 0.14891237 -0.115578644 -0.009389567 -0.018234672 0.09716803 0.04554935
0.075873554 0.036133517 0.023589471 0.1403863

DGM1.gate_G.0.weight f4 [100, 102]
00000000: 13da fb3d 27b9 d6bc 7e26 aebd 32e7 dfbb
00000010: 56fe bb3c fd39 c6bd cf77 2c3d f3b6 ee3b
00000020: 9924 a9bd b1f3 f53c 535d fd3c 7ae7 573d
00000030: 47ce 0f3d efff 6a3d 0e78 963c eb56 753b
00000040: 65c2 9bbd 39e5 cbbd 4f63 0bbd fdc3 f33c
00000050: 6475 813c 198e 8c3d e7c3 18bd cdf0 5c3d
00000060: 6e88 a33d 56fa ad3d 078f 103e 00f6 ab3d
00000070: f103 e43d e29a 1bbe 672c 8dbd ea00 c5bd
00000080: 0c4e 4a3d 0772 033b 0d49 ee3c 2372 853c
00000090: 5866 b0bd 811c 2dbd 755a 8e3c 2097 8abd
000000a0: a7b8 c83d 2000 8b3d 25e2 b1bd b4bb 7b3d
000000b0: 0454 a93c 41e7 ed3d 0b2b d83c 500b d6bd
000000c0: 47a4 be3c c5cd 583d b1c9 b3bc 5a4a 873c
000000d0: 8b75 c13d 67e1 d53d a524 ea3d 603d 98bd
000000e0: 82b1 b53d 2211 14bd 1ac1 a53c 2ab3 a9bd
000000f0: b564 633d 2d67 05bd b8e6 323d c25b 8c3d
00000100: 1bec 2cbd 8a7c c9bd e49e 1c3d 9b34 ec3d
00000110: ea81 853d c060 c1bd cdbc 02bd 9faa 2f3e
00000120: 3c6c 93bd 2d14 92bd 8701 fb3c 92f6 833d
00000130: 9e1f b53d 6d2e c8bd 9a85 ecbd 2314 febc
00000140: 0bdc 68bd e8ad ed3d 6289 7f3c 3ea5 cc3d
00000150: c628 8bbd 6765 1e3e ffff c63d c0e4 cd3b
00000160: 73f2 0cbe 7b9e 13bd fc9c cfbd f600 23bd
00000170: 419c 21bc fae3 6f3d ea7a 4abd 0b7d 393d
00000180: f3c4 09bc 8bb7 aabc c449 883d 32fb 3d3d
00000190: 626c 07be 8a8e 823d 673f 163c f366 b1bd
000001a0: 34aa 69bc 6b6c 0a3e da33 74bd 44c0 50bc
000001b0: e9ed 82bc d750 ac3d e8b7 883d fd83 6abd
000001c0: 65ba e33d ce5b 0d3d 489a cb3a ea0c ff3d
000001d0: 5ab7 c3bd 08be 273d d191 1a3d 1814 eabc
000001e0: f231 8dbd 9d16 a7bd db51 ac3d 9dc1 1e3d
000001f0: c2b6 67bc f98f 92bc eaa7 e53a 53b7 723d
00000200: 2687 803c 6960 9e3d 6aca 403d 60a0 013a
00000210: ca74 a13d c4d4 02be a0e9 673d 7c70 a3bd
00000220: e3c9 1c3d 5e21 89bd 151a 98bd dacc d63d
00000230: ae4c 9fbc 348e 573d de19 abbb 7755 cabc
00000240: 2dca cabd 0eab bf3d 8dab a53d d81b e33c
00000250: 61ad ff3d ba47 cbbd e538 9ebc 2a31 683c
00000260: 910c e13d c13b 813c 475b dcbd 2db7 d2bd
00000270: 2bbc b73c 82bd 203e 8731 053e 01fd 2b3e
00000280: 5c77 053d e668 aebd 2d83 103e e110 cbbc
00000290: 72cc 25bc 6dd5 c8bb 8752 203d f0b6 3fbc
000002a0: 9c4c 023e a688 193e ba76 2cbd 4861 46bd
000002b0: c7af debb 37f4 9d3d 92c7 1cbe 4205 8a3d
000002c0: d039 a6bd 1b1e 1f3d 6656 213d b6cc 99bd
000002d0: 457e 3dbe 022d cbbd 4044 3c3d 4a54 8bbd
000002e0: fd0a 263c fcaa 0d3e 8f75 abbd 8fd0 a13d
000002f0: 9d81 89bd 035a 29bc fadd ce3d 1c34 013b
00000300: fe90 843d 974a c23c e907 183e aac9 58bc
00000310: 04c8 073d a80e a03d 45da 0c3d 975e 96bd
00000320: 6b8c 95bd dffb 93bd 18d6 26bc 7963 723d
00000330: 98fe a13d 4f10 37bb 0543 f73d 6d7c 0b3e
00000340: d914 6c3a 2b52 003e d86f 3bbd e964 28be
00000350: f291 ddb9 b02f 3e3d 9b21 06be bda8 b8bd
00000360: 377b c1bc a896 f9bd a240 8b3c 2f81 d6bd
00000370: a54d f1bd fc26 bd3d 6a45 613d 328a 09be
00000380: f487 a0bd e229 7e3d 0faf 83bd 26e0 2e3e
00000390: 0197 e03d 2737 3dbd ecb8 1dbc b541 f83d
000003a0: 9444 9a3d 7ab7 063d 5716 e83c d313 d2bc
000003b0: 46ab 183d 636c f1bd 5e99 173e 4d1c b6bc
000003c0: 5237 b6bd cac1 61bd 8446 4cbd 6f3a 0fbe
000003d0: 2f68 f53d 32c0 5c3d 340d 093e 962a 293e
000003e0: 1713 3bbb 09c7 5e3d 8047 1bbe fe7b ba3d
000003f0: cdf8 87bd 072b 603d bb74 edbd 769c 283e
0.12297454 -0.026211334 -0.085034356 -0.0068329806 0.022948425 -0.09679029 0.042106446 0.007284993
-0.082589336 0.030023428 0.03092829 0.052710988 0.03510883 0.057372984 0.018367793 0.003743584
-0.07605437 -0.0995583 -0.034030255 0.02975654 0.015803047 0.068630405 -0.037296202 0.053940583
0.07985006 0.084950134 0.1411706 0.0839653 0.11133564 -0.15195802 -0.06893235 -0.09619315
0.049390838 0.002005698 0.029087568 0.016289776 -0.086132705 -0.04226351 0.017377118 -0.06767106
0.09800845 0.06787133 -0.08685712 0.061458305 0.020669945 0.11616374 0.026387712 -0.104513764
0.023271693 0.052930612 -0.02194676 0.016514946 0.09446248 0.10443383 0.11432771 -0.07433581
0.088717476 -0.03614915 0.02023368 -0.08286126 0.055515964 -0.0325691 0.04367706 0.06853439
-0.042217355 -0.09838207 0.038237467 0.11533471 0.0651892 -0.09442282 -0.031918336 0.1715493
-0.071983784 -0.071327545 0.030640377 0.06443514 0.08843921 -0.0977448 -0.1154892 -0.031015461
-0.056850474 0.116054356 0.015596719 0.09992455 -0.06794886 0.1546837 0.09716796 0.0062833726
-0.13764362 -0.03603981 -0.10137364 -0.03979584 -0.009863914 0.058567025 -0.049433626 0.045285266
-0.008408773 -0.020839473 0.06654695 0.046382137 -0.13224939 0.063748434 0.00917039 -0.08662214
-0.014261771 0.1351792 -0.059619762 -0.012741152 -0.015982585 0.084138565 0.06675702 -0.05725478
0.11119536 0.03451138 0.001553365 0.12453635 -0.09556456 0.040952712 0.037736718 -0.028574035
-0.06894292 -0.0815861 0.0841405 0.038758863 -0.014142694 -0.017890917 0.0017521356 0.059256863
0.015689444 0.077332325 0.047068037 0.0004944857 0.07883604 -0.12776476 0.056619287 -0.07980439
0.03827847 -0.066958174 -0.0742685 0.10488291 -0.019445743 0.05262585 -0.0052215895 -0.024698956
-0.09901843 0.09358798 0.08089361 0.027723238 0.12484241 -0.0992579 -0.019314239 0.014171878
0.10988725 0.015775563 -0.10759597 -0.10288844 0.022428593 0.15697291 0.13007174 0.16795732
0.032584533 -0.085161015 0.1411254 -0.024788322 -0.010119544 -0.006128958 0.039141204 -0.011701331
0.12724537 0.14993533 -0.042105414 -0.04843262 -0.0067958566 0.07712596 -0.15310505 0.06739284
-0.081164956 0.03884707 0.039389037 -0.07509749 -0.18505199 -0.09920694 0.045963526 -0.06803186
0.010134456 0.13834757 -0.08372032 0.079011075 -0.06714175 -0.010336402 0.101009324 0.0019714897
0.064729676 0.023717208 0.14846767 -0.013231674 0.033149734 0.078152955 0.034387846 -0.0734226
-0.07302173 -0.07225775 -0.01018288 0.059176896 0.07909888 -0.0027933305 0.1207333 0.13621683
0.0009005792 0.12531345 -0.04576096 -0.16444744 -0.00042261143 0.046432197 -0.13098757 -0.09016559
-0.023618324 -0.121869385 0.016998593 -0.104738586 -0.11782388 0.09235951 0.05499784 -0.13431624
-0.07838431 0.06205166 -0.06429874 0.17077693 0.10966302 -0.046195175 -0.009626608 0.121219076
0.075326115 0.03288982 0.028330965 -0.025644219 0.037272714 -0.11788251 0.14804599 -0.022230292
-0.0889727 -0.055116452 -0.049871936 -0.13987134 0.11982762 0.05389423 0.13383943 0.16520151
-0.0028545314 0.054389033 -0.15163994 0.09105681 -0.06639252 0.054728534 -0.1159453 0.16465935

DGM1.gate_G.0.bias f4 [100]
00000000: a7a7 c13d 39f9 cd3d c5eb d33d 1241 a53d
00000010: fda8 9e3d 40a2 8d3e 09ac 793d 5fdb c93d
00000020: 6482 ad3d 3c60 423d fca1 1b3b f8be 503d
00000030: 222e b03d ae2a 143e 4735 cc3c 64b9 553e
00000040: b665 253e db42 cb3d 7d0d e03d e9bf 103e
00000050: cb77 cc3d 52e0 823d 5fc5 3b3e fdfd 533d
00000060: 46e4 813d bdd9 f13d f6eb 5d3d 1d39 9c3c
00000070: 46e4 8bbd 13eb 0c3e 54b1 7c3d 6fa2 cabd
00000080: 3f1e 633b ddf5 06bd 6a8c f43d f484 393e
00000090: 61e8 a03d 333b d93c 9990 063d f9b0 353d
000000a0: e59c 0bbd 032f b33d 9a1b 493e 2fde ccbd
000000b0: 1073 ae3c 0e75 fc3d a2e1 2cbc 3475 e63d
000000c0: aec5 463e cf27 2b3e 7402 64bd 65fd 013e
000000d0: cc18 013a 7749 5ebc d648 29bc e1f4 113e
000000e0: 1b92 213e 87be 02bd d4f5 ae3b 0115 323d
000000f0: 6d75 90bd c31c ee3d 68d8 1e3e 9422 553d
00000100: b907 263d 3973 ca3d 26f3 233e bebd 323e
00000110: 1e81 363e 1dfb 0f3e 5237 293d 80b7 a83d
00000120: d22b 263e 9059 b53d b3be cabb 1761 833d
00000130: 7445 403e 438f 3b3e 4ec5 d93d 77d5 16bd
00000140: ee17 3b3d d019 ab3d d0ec 373c 6163 b43d
00000150: d120 3e3e 35f3 893d 93a4 233e 7cb9 0e3e
00000160: 998c 893d 0646 253e b36b 533d 3629 8bbd
00000170: 862b 7a3d c4fb 0d3e b38c 513d 6071 1f3e
00000180: eb33 603e 9cbf 813e 7c0c 883d a48b df3d
0.09455805 0.10057301 0.10347704 0.08069052 0.07747076 0.2766285 0.06095508 0.09856295
0.08472136 0.047455058 0.0023747673 0.050963372 0.08602549 0.14469406 0.024927748 0.20871502
0.16152081 0.09924861 0.10940073 0.14135708 0.09983786 0.06390442 0.1833701 0.051755894
0.06342368 0.118091084 0.054180108 0.019070202 -0.06830649 0.13761549 0.06169255 -0.09894263
0.003465548 -0.032949317 0.11940844 0.18117124 0.07856823 0.026517486 0.032852743 0.044358227
-0.034085173 0.08749201 0.19639435 -0.10003316 0.0212951 0.12327014 -0.010551842 0.112528235
0.19411346 0.16714405 -0.055666402 0.12694319 0.00049246545 -0.01356732 -0.010332307 0.1425357
0.15778391 -0.031919982 0.0053393636 0.043477062 -0.07053647 0.116265796 0.1551224 0.05203493
0.04053471 0.09885258 0.16010723 0.17455193 0.17822692 0.14060636 0.041312523 0.08238125
0.16227654 0.08854973 -0.006187284 0.06415003 0.18776494 0.18316369 0.10633336 -0.03682467
0.045677118 0.08354533 0.011225894 0.088080175 0.18567206 0.06735841 0.15980749 0.13937944
0.0671627 0.16139993 0.05161638 -0.0679497 0.061076663 0.13865572 0.05115957 0.15570593
0.21894805 0.253415 0.06643006 0.10915306

DGM1.gate_R.0.weight f4 [100, 102]
00000000: eb5b 333d ee22 a23d a78f 25be 4856 433c
00000010: 24d5 8ebd 5db4 0bbe bb06 843d 920a 2e3e
00000020: a2fb af3c 61f9 ca3c bf08 c53b 9973 d4bd
00000030: 01be 293e 0e49 ad3c 338a 7e3c b485 483c
00000040: 0569 39bd 76ad 02be c224 6dbd 7c3e 963b
00000050: 63d6 cdbd 6abd dcbd afea 7d3c 96d4 c83b
00000060: 405a d8bd f885 fb3d a597 03bc 4d42 933c
00000070: a084 6cbd 3ed1 f23d f944 96bb 502f b1bd
00000080: 3c1c 64bd edd3 2dbe bc92 f0bd 1113 b8bc
00000090: 06f9 0f3d 5c36 87bb 5a24 2c3e c7a0 02bd
000000a0: d4f8 25be 3e7d 103c 1593 fbbd c031 4ebd
000000b0: 446a e13d 790a d43d c0b4 f7bc 867c 89bd
000000c0: 0d90 ffbd 7f34 eabd 1e92 dbbd 0d9c 6fbc
000000d0: 7b45 e2bd d9cc 483c 9d2e 9bbd df58 873d
000000e0: 533f aabc d315 853d 3c66 b43d 32bb 58bd
000000f0: b4f2 113d 286e 6fbc 6cec 08be 0c01 d13c
00000100: 2251 55bd ee82 273e 6ef5 ac3c 73cc 713d
00000110: daa6 3c3b c62b 6d3d 04a8 82bc 6131 9abd
00000120: 9d19 d9bc bb3b 9abb cef7 b3bd 8cd8 563c
00000130: f0a5 873a 408b 2c3d b988 163e 1ca3 2bbd
00000140: 7071 a33c 0bd9 e83c d65f edbc ec3e 833b
00000150: 4c17 8e3c f8db df3d 3775 10bc aa9d b73d
00000160: fc50 423c af45 afbd db45 a6bc 1dde 6a3d
00000170: b870 82bc fda6 dd3d 01f5 f7bc 1940 7ebb
00000180: c2df 49bd 5cdf d4bd 317b e7bd 6fb9 dfbd
00000190: d4c8 d03d 3ad1 e4bc 5a18 2dbe 6a0b 24bc
000001a0: c096 8e3d 42d4 68bd 3d55 213d 4c0f 19be
000001b0: 21f1 69bd 9b62 87bc aabf 57bb 1e0e bb3b
000001c0: 4681 e53d e426 f43d f147 3fbd 11d1 ab3d
000001d0: 6a75 25be 437e d83c 98aa 2f3e 83f8 46bd
000001e0: 72f9 abbb a51e 83bc 351d a3bb 4dd8 3abd
000001f0: 1cf9 83bc 831d 4c3d 5ff5 34be c235 b03c
00000200: 1b66 b8bd 8297 f13c 29cf c4bd 285a aebb
00000210: 1b57 ccbb 2582 653d a024 b8bd 7bdd 5fbd
00000220: 1339 643c d4a5 0cbe 2881 3dbc 4a9a d43c
00000230: 8e08 c43d 74f9 6a3d 11c4 e9bd ca86 2abe
00000240: aa60 f63c b8bd f4bd 4f16 bdbc b5b2 733c
00000250: b692 4a3d ec9a 813c b044 f93d 6bde b6bd
00000260: 7bfc 293e 16b7 a7bd 5278 81bd 29f0 0ebd
00000270: 5dbd 3f3c 3454 f23d 1246 98bc e792 1c3e
00000280: 005a 113e d0a6 d23c abeb 93bc a216 1ebe
00000290: 5dc8 443c b493 c1bc ae98 723c c049 273d
000002a0: 00d9 a03d 8dcd ddba fcf7 1d3e 9d4f 183e
000002b0: 8c5c 46bd 96af 35bd 804a cfbd 85c4 853d
000002c0: f1f1 bebd 0764 f13b 1f2c f1bc 1c99 203c
000002d0: 4373 0ebe 267f acbd b97d eb3d fd59 b0bd
000002e0: 9ca3 813d a6d9 8d3d 39bb 3bbd a7b4 f33c
000002f0: db76 113b 6b9d cfbd 8059 8dbd 106f c6bb
00000300: 84c5 cfbc 8dc9 973d e1f5 2f3c 2589 91bb
00000310: 1cf5 7d3d 0f0c b73d ea8d 353e 0339 1ebe
00000320: 74f0 183d b533 313d 6720 84bd 0169 aa3d
00000330: bc10 babc c052 1b3b 58fd a63d ddff d73a
00000340: 9e88 483c 04c3 61bd 00ed aebd 2a78 be3d
00000350: 26e5 be3d 150f 8ebc 1711 fe3b 5420 003e
00000360: 960e 4a3c d054 0d3d 4ecb 13be 9117 2b3e
00000370: 6160 c13c 7cd2 bcbd 9ddf 3cbe 4a27 1e3e
00000380: 1073 9c3a ecec c7ba 91fd ccbc 7517 003d
00000390: 1aa3 2b3d 16cc 513d 6c4e 8abd c7d6 bd3d
000003a0: 61f0 08bd aa19 0fbe 3255 b5bd c122 b73d
000003b0: 8a39 d5bc 7e98 0c3d d353 11be 79f5 1dbe
000003c0: a459 403d bed9 3c3d 3a17 6a3d c399 983d
000003d0: 4e61 b33d fa89 b5bd efbd a03b 9f62 e1bc
000003e0: b3b1 12bd c1e7 1ebe 9ad3 4bbd 4a1c 2ebd
000003f0: fbfd b03c a678 06be bf9a a23d 8173 adbd
0.04378883 0.079168186 -0.1616808 0.0119224265 -0.06974247 -0.13643022 0.06446596 0.1699622
0.021482293 0.024777116 0.0060130055 -0.10373611 0.16576387 0.021153 0.015535879 0.012238909
-0.04526617 -0.12761483 -0.057896383 0.0045850854 -0.10050657 -0.10778315 0.015497847 0.006128858
-0.10564089 0.12281412 -0.00803176 0.01797595 -0.05774367 0.11856316 -0.004585859 -0.08651602
-0.05569099 -0.16975375 -0.11746737 -0.02247003 0.035149597 -0.004126353 0.16810742 -0.03189161
-0.16208202 0.008818923 -0.12283913 -0.050340414 0.11006597 0.1035356 -0.030237556 -0.06713204
-0.124786474 -0.11435794 -0.10721229 -0.014624608 -0.110484086 0.012255871 -0.0757725 0.06608748
-0.020782148 0.06498303 0.08808562 -0.0529129 0.03563185 -0.014613666 -0.13371438 0.025513195
-0.052079327 0.1635854 0.021113124 0.05903287 0.0028785975 0.057903074 -0.015949257 -0.075289495
-0.026501471 -0.0047068275 -0.08787499 0.013113152 0.0010349136 0.042124987 0.14700593 -0.0419036
0.019951552 0.028423807 -0.028976362 0.0040053036 0.017345093 0.109306276 -0.008817009 0.08965619
0.0118601285 -0.08558213 -0.020296982 0.05734073 -0.01592289 0.10822866 -0.030268194 -0.003879553
-0.049285658 -0.10394165 -0.11302794 -0.109240405 0.10194555 -0.027931798 -0.1690382 -0.010012487
0.06962347 -0.05684305 0.03938793 -0.14947242 -0.057114724 -0.016526511 -0.0032920637 0.00570847
0.112062976 0.1192148 -0.046699468 0.083894856 -0.16158071 0.026427394 0.1715492 -0.048576843
-0.005248242 -0.016005823 -0.004977847 -0.045616437 -0.016109996 0.049832832 -0.17671727 0.021510009
-0.0900385 0.02949119 -0.09609825 -0.005320806 -0.0062359697 0.05603232 -0.08991361 -0.05465458
0.013929623 -0.13735133 -0.011566438 0.025952477 0.09571944 0.057366803 -0.1141435 -0.1665298
0.03007539 -0.119502485 -0.023081927 0.01487415 0.04945632 0.015820943 0.12171304 -0.089291416
0.1660022 -0.08189218 -0.063217774 -0.034897003 0.011702863 0.11832467 -0.0185881 0.15290414
0.14194489 0.025714308 -0.018056711 -0.15438321 0.012010661 -0.02363 0.0148069095 0.040841818
0.078538895 -0.0016922221 0.1542663 0.1487412 -0.048428103 -0.044356905 -0.101216316 0.06531624
-0.093234904 0.0073666605 -0.029439984 0.009802129 -0.13911156 -0.08422689 0.11498589 -0.08610914
0.06330034 0.06926279 -0.045832846 0.029749228 0.0022196088 -0.10137447 -0.069018364 -0.00605572
-0.025362737 0.0741149 0.010739774 -0.0044413977 0.062001333 0.08937847 0.17729917 -0.15451436
0.03733869 0.043262202 -0.06451493 0.08320809 -0.022713058 0.0023700446 0.0815379 0.0016479451
0.012239603 -0.055117622 -0.08541298 0.09300263 0.0932105 -0.017341176 0.007753502 0.12512332
0.012332579 0.03450471 -0.14433023 0.16708209 0.023605527 -0.09219834 -0.18444677 0.15444675
0.0011936147 -0.0015253103 -0.025023254 0.03127237 0.041903593 0.051220022 -0.06753239 0.09269481
-0.03343237 -0.13974634 -0.0885414 0.08942176 -0.026028413 0.034325115 -0.14192133 -0.15425672
0.046960488 0.046106093 0.057151057 0.07451203 0.08758794 -0.088642076 0.0049054543 -0.027512847
-0.035814 -0.15518095 -0.049762346 -0.042507447 0.021605482 -0.13131961 0.07939672 -0.08469296

DGM1.gate_R.0.bias f4 [100]
00000000: ce76 f4bd e681 a4bd 42e7 ab3b d26a 0bbe
00000010: e7a3 81bd 0ab8 a0bd 7fd7 f93c 3d82 b0bd
00000020: ea19 e0ba ae10 d0bd 873d 7abd 5b32 493c
00000030: cb0b 30bd 9bd5 d13d 91a0 e23d 0193 e7bb
00000040: 5e15 0cbe 97bb 04bd 45a0 46bb 1281 453d
00000050: 999d 75bc aa1d d43c 28f2 cbbc 8b31 983b
00000060: 8311 91bd 45f9 a1bd d4bc 2bbd 713c e53d
00000070: efe8 ec3c e7ca f539 9211 1fbc 0f8a 3a3d
00000080: ed03 6b3d c79c d23d 5868 8d3d d22d 9c3c
00000090: dffc ae3c 44fc 24bc 3640 733d c403 4cbe
000000a0: b831 1c3d 2bf9 8dbd d213 30bd e91f 8cbd
000000b0: 2087 093e b9d2 073e ece9 1abe 5474 d6bd
000000c0: 7270 05be ae29 a63d 31ff 7ebd 2375 c53d
000000d0: dc3a c33d 3dcc 1c3d 061f 00bd c7c6 05be
000000e0: b4ff 47bd f000 2fbd 5b74 1abd f841 a2bd
000000f0: c167 d9bb 4143 c5bc e3c5 a9bd afa5 d73d
00000100: 079a cc3d 5f0e 533e f840 51bc 8c12 353e
00000110: 773d f13c 3fe4 b53d 4270 f23b af48 05bd
00000120: e242 b03d e4c0 2e3d b6e2 88bd 7ac5 82bd
00000130: 12d8 973d 8036 2cbd f623 dc3c 226a 503d
00000140: deae 93bd e2d4 20bc aae1 0c3e 7570 0dbd
00000150: 4a38 f7bd fd0d a03d 8af7 02bd be3f 53bd
00000160: e360 d0bd 4c68 423d 0200 e83d 2dcc 40bd
00000170: 68a2 583d a0e4 c839 96aa 003d bafb adbc
00000180: 0474 fdbd f9e5 603d 5921 27bd f707 4a3d
-0.11936723 -0.08032589 0.005246074 -0.13614967 -0.0633009 -0.07847603 0.030498264 -0.08618591
-0.0017097567 -0.101594314 -0.061093833 0.012280072 -0.042979997 0.1024582 0.11065782 -0.007067085
-0.13680026 -0.032405462 -0.003030793 0.048218794 -0.0149911875 0.025893051 -0.024895743 0.004644578
-0.07083418 -0.079088725 -0.041928127 0.11193169 0.028919665 0.00046881216 -0.009708779 0.04554182
0.05737679 0.10283809 0.069046676 0.019064818 0.021360813 -0.01006991 0.05938741 -0.19923311
0.038133353 -0.06932291 -0.042987652 -0.06842024 0.13430452 0.13263978 -0.15128297 -0.104714066
-0.13031176 0.081134185 -0.06225509 0.09641483 0.09532711 0.038280714 -0.031279586 -0.13064109
-0.048827842 -0.042725503 -0.03770862 -0.07922739 -0.006634683 -0.02407992 -0.08289697 0.105296485
0.09990316 0.20610951 -0.012771837 0.17682856 0.029448254 0.08881425 0.007398636 -0.03254002
0.08606507 0.042664424 -0.06683867 -0.06385322 0.07414259 -0.042044163 0.026872616 0.050882466
-0.07211088 -0.00981638 0.13757959 -0.034531076 -0.12071283 0.07815168 -0.031974353 -0.05157446
-0.1017473 0.047462747 0.113281265 -0.047069717 0.052889258 0.00038317312 0.031412683 -0.021238197
-0.12375644 0.05490682 -0.040803287 0.049324002

DGM1.gate_H.0.weight f4 [100, 102]
00000000: b588 9abd 41a0 9fbb e3ed 86bd e516 133e
00000010: 7840 613d 6953 80bd 3ce4 a0bd 2820 bb3c
00000020: 7951 5b3d 2e16 513d 7a8a fa3d 13ef ddbd
00000030: 2ca3 e63c 9072 40bd b1c5 3ebd df07 9d3a
00000040: c14a d3bd 6206 183d 5fa6 f23d ec1c 093d
00000050: 0e37 8fbd a83f c6bd 4431 823d 914a ac3c
00000060: eaf2 62bd fec4 c73d 406a fb3b 566f debd
00000070: 648f c5bc c614 36bd 0344 b43d 2314 2c3d
00000080: cdcc d83d 29ae 9d3d e26b 873d a794 123e
00000090: 2cf7 c7bd 2e0f d63d 81f0 4f3c 68ab 673d
000000a0: d8c2 79bd 6325 853d 6ee0 e0bd b511 a73b
000000b0: 27e9 53bd f97f 82bc 2502 f5bd af91 f9bd
000000c0: ade0 38bd a604 6a3d 180c 873d 74a8 bcbb
000000d0: 596f 86bd 3348 85bd 242a 1fbd 4193 90bd
000000e0: f37f 523d 9a51 01bd 9d0a 783d 2b5b cf3d
000000f0: ac9d 9bbd b91c a9bd 735c 4b3d 88c5 67bd
00000100: 0b3e efbb 77b7 9ebd 80bb e1bd 161d 8b3c
00000110: 0013 1abd 3aa9 5c3c 264c 86bd 97c3 43bd
00000120: ba62 b83d 6783 f43d 3608 203c dc62 fe3d
00000130: 1cf4 9e3d 07f9 763d 05f2 54bd 2e9b 503d
00000140: 4ca8 12bd 907c 923c 3ccb 90bd f479 e83d
00000150: f17c 92bd 22d5 323d fc5c a33d 1136 9b3d
00000160: ac00 0c3d cb8b c23d 1235 d4bd 2ff8 8cbd
00000170: 1259 23bd 318f 013c b80c a23c fd0d 86bd
00000180: 235d 663d 2655 fa3d 2131 13bb 7e33 f3bd
00000190: 88ff 523c 261d b4bd 350e 2abd fb70 73bd
000001a0: 7d67 bebd 9fe0 62bc d815 b1bc 7bd2 5e3d
000001b0: ee7c a83c 95e1 53be 24e3 a5bc 1997 c8bd
000001c0: fb6c 3bbd 5ba2 e1bd b095 923c f689 ac3d
000001d0: cc62 d3bd 66a2 683d a286 14bc a433 e8bd
000001e0: 118b 5d3d fb9e eb3c d873 fa3d 4196 0fbe
000001f0: bd0b 99bd 4e3f 8e3d 8a3a b63d 032b 1f3c
00000200: a57a 403d 9c56 a1bd 0f9f a6bc 41c3 8fbd
00000210: f26a ad3d 2556 413d 26c4 763d b11a 85bc
00000220: 8ee3 d5bc 2732 043d a258 963d 1926 c93d
00000230: b682 acbd 263a bfbd 45d1 dabd 524e fdbc
00000240: cb65 62bd 548c 14be 9dae 8c3d 33a6 20be
00000250: 62d3 a1bd 0d24 c93c 7a42 0cbe eac3 d2bd
00000260: adbe a5bd 4b0b 3bbc 5f1e 813c c236 873b
00000270: 638e aa3c 7a2a 14be 930f 70bc 361a 6b3c
00000280: 4442 03be f988 cb3d d858 d43b d176 45bd
00000290: 6ae7 09bd 6e0c c33d b113 d03c f06b 003c
000002a0: b0ad 473d 8bb4 f83b e31a 00bc 2df1 063e
000002b0: c1ad c83d d92a 54bd 2a3f e43d a1b4 e5bd
000002c0: 7251 8d3d 2f39 253c 6b51 3b3d e569 40bd
000002d0: 8926 2c3d 5a0e 11bb f130 263d acdb e3bd
000002e0: bfcf 943c ca83 6d3d f02a ba3d 92ed 783d
000002f0: d120 93bd 2c4c 26bd e0bf 483b 7f46 893d
00000300: 330c 4dbd 0783 393d f46d a93d f9cd 91bc
00000310: 9612 dabc 96c7 09be 09e4 22bd 2552 623d
00000320: 79e4 453c 2d3e 1bbe f8d6 cfbc 952f e1bd
00000330: da9f 28bc 11d6 a03a 0174 883d b9bb 92bd
00000340: e987 bd3d e1a7 af3d 56bd 8dbd 1752 de3c
00000350: bd85 81bd 846a 12bd 0f09 133d bf0c 133d
00000360: 25c6 dd3d fb8c e53d 42d7 00be 2dc3 a43c
00000370: a4b8 293d 052f bdbd 8692 953d 1cb7 8dbb
00000380: a879 d33c 29cc ad3c 175a 163c fda8 fe3b
00000390: bb4b 503d e685 3b3c b7e4 693d ad19 f9bd
000003a0: c0e9 45bd a86a 9d3d 853a f7bd a914 e7bd
000003b0: ce03 f4bc 1cf1 edbd 550b f43d f936 c6bd
000003c0: de0e b3bc 6c80 273d 8ab9 e63b 05b3 17bd
000003d0: 27b6 0a3c c14b 703d 6d8a 653d 821f 213d
000003e0: da1a cebc 6a60 eb3c d2db 4bbb c9f8 7c3d
000003f0: 7c17 22bd 3a0a daba 6a37 e13d 6c66 babc
-0.07545606 -0.0048713987 -0.06588342 0.14364202 0.054993123 -0.06265909 -0.07856032 0.022842482
0.053544495 0.051046543 0.122334436 -0.108366154 0.028153978 -0.046984255 -0.046575252 0.0011980495
-0.103169926 0.037115462 0.11848139 0.033474848 -0.06992923 -0.0968011 0.06357053 0.02103165
-0.055407442 0.0975437 0.007672578 -0.108610794 -0.024116226 -0.044453405 0.08802035 0.04201139
0.10585938 0.07699234 0.06612374 0.14314519 -0.09763941 0.10452114 0.012691618 0.05655995
-0.060976833 0.065012716 -0.109803066 0.0050985464 -0.051736023 -0.015930163 -0.119633 -0.1218599
-0.045136143 0.05713334 0.065941036 -0.005757386 -0.06564207 -0.065079115 -0.038858548 -0.070593365
0.051391553 -0.031571962 0.060556997 0.10124811 -0.07598433 -0.082574315 0.049648713 -0.056584865
-0.0073010973 -0.07749837 -0.11022091 0.016981643 -0.037615776 0.013468081 -0.06557493 -0.04779395
0.090032056 0.119391255 0.009767583 0.124212 0.07761404 0.060296085 -0.05198862 0.05092924
-0.03580503 0.017881662 -0.07070014 0.11351386 -0.07152737 0.04366029 0.0797672 0.07578672
0.03418033 0.0949932 -0.10361685 -0.06883275 -0.039879866 0.007907675 0.019781455 -0.06545637
0.056241166 0.12223272 -0.0022459703 -0.11875056 0.012878306 -0.08794622 -0.041517455 -0.05943392
-0.092970826 -0.013847499 -0.021616861 0.05439995 0.020567384 -0.20691521 -0.02024991 -0.097944446
-0.04575823 -0.11017295 0.017893642 0.084247515 -0.103215784 0.0567955 -0.009065302 -0.11337975
0.054087702 0.028762331 0.12229127 -0.14022161 -0.07472942 0.06945668 0.08897884 0.009714845
0.046991963 -0.078778476 -0.020339517 -0.070196636 0.08467664 0.047201294 0.060245655 -0.016248079
-0.026109483 0.03227439 0.07341124 0.0982172 -0.08423369 -0.09337263 -0.10684446 -0.030921135
-0.05527286 -0.14506656 0.06869242 -0.156884 -0.07901646 0.024553323 -0.13697234 -0.10291274
-0.08093009 -0.011416267 0.015761552 0.0041264007 0.020819848 -0.14469329 -0.014652151 0.014349511
-0.12818247 0.09938235 0.0064803176 -0.048209015 -0.03366796 0.09523855 0.025400015 0.007838234
0.048749626 0.007589882 -0.00781891 0.13177939 0.09798766 -0.051798675 0.1114486 -0.11216093
0.069003 0.010084434 0.045731943 -0.04697599 0.042028937 -0.0022133798 0.040574018 -0.111258835
0.018165467 0.057987012 0.09090221 0.06077344 -0.071839936 -0.040599987 0.0030631945 0.06702899
-0.050060462 0.045290973 0.08272925 -0.01779841 -0.02662019 -0.13455042 -0.039768253 0.05525412
0.012078398 -0.15160437 -0.02537106 -0.10995404 -0.010292018 0.0012270828 0.06662751 -0.071647115
0.092544384 0.08576942 -0.069208786 0.027138753 -0.06324337 -0.035746112 0.03589731 0.035900827
0.10828809 0.112085305 -0.12582114 0.020112598 0.041435853 -0.09237484 0.07303338 -0.004324807
0.025814846 0.021215515 0.0091767525 0.00777161 0.050853472 0.011445498 0.057102885 -0.121631004
-0.048318624 0.07686359 -0.120717086 -0.112832375 -0.02978697 -0.116182536 0.11916224 -0.09678454
-0.021857675 0.040893957 0.007041161 -0.03703596 0.00846628 0.058665995 0.056040216 0.03933669
-0.025159288 0.028732497 -0.0031106365 0.061760698 -0.039573178 -0.0016635128 0.109968975 -0.022753917

DGM1.gate_H.0.bias f4 [100]
00000000: 90ad 203c 18f5 78bd 7f65 a03c aecf dcbc
00000010: c01a 603c 41c0 d1bc 74c4 31bd 1726 84bd
00000020: f110 f7bd 6b1a 63bd 4973 a1bd 4c79 9fbd
00000030: 2f9a 273d 348b 5d3d 71ff fd3d ba7a 7b3d
00000040: da97 223d 0019 c93d ba20 043d 195e 34bd
00000050: 4413 a03c 4efb 8d3d a1f1 da3d fdc6 a4bd
00000060: 38de 3bbd 01c1 913c 90e7 8bbd fed5 d43d
00000070: dfa8 43bc e502 fdbb e23f a0bd d326 6bbb
00000080: 9d6d 55bd 1e3a 0fbe fb05 da3d 86f9 8e3c
00000090: 1c53 93bd 1356 ad3d a20f 1cbd c52c 413d
000000a0: 055a 95bd 5f22 cbbd e86e 0abd 8768 ecbd
000000b0: 2376 9b3d 03f0 ea3c 0e45 5dbc 2282 fcbc
000000c0: 590e 9a3d d01f 613b c884 dabd 348f b93c
000000d0: db41 ab3d ba2b 95bd 76d7 643c 2278 c6bd
000000e0: e811 25bd 47b2 fbbc 627a 76bc 61e3 babc
000000f0: 418c 483e 4c79 c53c f80c 5dbc ab4f 99bc
00000100: 73db b0bd 419e 69bb 44d3 093d 379b 43b9
00000110: a87e 67bd 6823 8fbd febd a13d 02f3 9dbd
00000120: 7af7 a4bb 2147 973d 3794 0b3d be00 e0bd
00000130: d2da 483c 3962 86bd fbd2 2b3d f97b cf3b
00000140: ff74 ad3c 7336 753c a7df a4bd 53e1 063e
00000150: 7fe3 a13c ae2d 193b e35d d03c 5c99 b0bc
00000160: c80f 793d 04ef f1b7 8b41 bcbd f067 5a3d
00000170: a0cc 82bb b60f 283a afd3 fbbc 41c6 c7bd
00000180: 85fb e83d d671 c83d 0537 b03c 207d 693d
0.0098070055 -0.060780615 0.019579647 -0.026954498 0.013678253 -0.02560437 -0.043400243 -0.064525776
-0.12063778 -0.055445116 -0.07883317 -0.077868074 0.040918525 0.054087833 0.12402237 0.061396338
0.0396956 0.098192215 0.032257773 -0.04403505 0.019540437 0.06932698 0.10690618 -0.080457665
-0.04586622 0.017792227 -0.068312764 0.10392378 -0.0119421175 -0.0077212923 -0.07824685 -0.0035881295
-0.05210649 -0.13987014 0.10645672 0.017452966 -0.07193586 0.08463683 -0.038100846 0.047161836
-0.072925605 -0.09918665 -0.033797175 -0.115433745 0.07590892 0.0286789 -0.013505233 -0.03082377
0.07522268 0.0034351237 -0.10669857 0.022651292 0.0836217 -0.07283731 0.0139673855 -0.09690882
-0.04030028 -0.030724658 -0.015043827 -0.0228135 0.19584753 0.02410569 -0.0134918615 -0.018714746
-0.086356066 -0.0035647305 0.033648744 -0.00018654471 -0.056517273 -0.06989175 0.07897566 -0.07712366
-0.0050343843 0.07386614 0.034076896 -0.109376416 0.012259202 -0.06561703 0.041949254 0.0063319174
0.021173952 0.014966595 -0.08050471 0.13171892 0.019761799 0.0023373174 0.025435394 -0.021557502
0.060806066 -2.884074e-05 -0.09192189 0.05332178 -0.0039916784 0.00064110325 -0.030740587 -0.09754611
0.113760985 0.097873375 0.02151061 0.057004094

DGM2.gate_Z.0.weight f4 [100, 102]
00000000: 9f33 833d 8192 c63c 200b 33be fe14 38be
00000010: 885e b43d c828 03be 75fb 24bd f77a 403d
00000020: 87cf fa3d 53d2 1a3b 15fd b6bd 3a37 ccbb
00000030: 5199 aabd a909 ca3d 445c 8e3d e7de 52bd
00000040: 76a6 a4bd 473a 663d cd84 303d 4e80 2e3e
00000050: 80a9 b1bd 4b04 183e 922a d23c 7ef7 a33d
00000060: 068e 383d c6c7 81bd 801f abbd e2c1 4e3d
00000070: 4a78 fc3d 284a c2bb 07a9 1fbe f29b 083d
00000080: 5d9c e73d 1b06 4dbd 6164 2ebc a484 a9bd
00000090: 040e fd3d 4fa1 963c 3a8d 8b3d 8a93 173e
000000a0: c045 003d e258 03bd 79ac 1abc b3fb 8e3d
000000b0: 4be1 a63a 2048 bcbd 263e 5e3c 8ccb 463d
000000c0: 2d1d 523c e936 f33d 1945 9bbc fce2 0fbd
000000d0: eac8 493d 78ab e0bc c8f5 87bd d380 c6bd
000000e0: a3da eebc d0da 823c cd41 90bb 5ad6 363d
000000f0: ea22 db3d f365 cd3d 9c97 f63d 952d 7fbd
00000100: d47d af3c 3a70 9cbd 7b4d f4bc 3c32 aebd
00000110: 9706 3c3e 75bc 993d 0f97 873d 1c42 20be
00000120: 20af 163d 7a01 66bd 3313 e73d 39f9 fbbd
00000130: 4c46 acbd 1077 1a3d d585 adbc 9dff 35bd
00000140: c0ee fd3d 7099 c33c 19b7 a23d bdb3 58bd
00000150: 922b 16bd 6a40 4dbd 506c 78bd 28c7 cabd
00000160: 20ef ce3c 9bfb 29be 45e5 fa3c 6a5d 063c
00000170: 06cf 9b3c 9280 3fbc 99cb 9bbd dc51 babd
00000180: c74c a63c 2e0b 5a3d ab65 a03d cfc2 adbd
00000190: cb70 4b3d 3425 48bd 0bb7 18bd be91 bdbd
000001a0: 606a 783d 9e0f c53d 28bc 123e 23d2 19be
000001b0: 009e 0e3e a3a9 e9bd 4b32 063e 3c07 1fbe
000001c0: 42b5 61bb fb0d 9abc 7dc7 903d 8749 c0bd
000001d0: 2794 23be 113d 383d 88cc 8fbd 7fce 093d
000001e0: e6c6 dc3d ea6c ccbd 60a1 b93d 5660 e23c
000001f0: 1dcc 0fbd 86fb 0b3e c193 37be 8d61 963c
00000200: d58a e13b 5f23 81bd 22ef 1dbd 9eed a83c
00000210: c48b 0a3e 3bf2 f7bc 99e5 e1bd f472 923c
00000220: b742 0f3e cce4 f7bc dbc3 83bd f9d1 1cbe
00000230: 6e54 cdbd 7d2d 32bd 9b7a de3b 3ef2 3c3e
00000240: c019 133c 5cbd f6bb 9fd4 c3bc 200c a5bc
00000250: 284b 1dbe ceaa 05be c910 86bb 4e7e aebd
00000260: b2ed 66bd 7254 3b3d 5027 45bc 7232 23be
00000270: 3d05 99bd 4b47 c0bc f07d c6bc 1639 373a
00000280: 75b9 46bd 6f73 d6bd ebbc b53c c0e9 25bd
00000290: 515e 933d 5f38 3c3d c904 2c3e 4651 0cbd
000002a0: 20a5 353e 3d58 923c af1a 30be 0b58 873d
000002b0: 417c b03c fc67 3f3d 4d52 a0bd 00bd 553e
000002c0: 50b2 0dbe 8204 f3bc 9699 0fbd f973 8b3d
000002d0: b62a 4dbe 0f19 923d 9fa1 bcbd 922c 86bc
000002e0: 0bf8 2dbe 77da 30be f723 083d f242 623e
000002f0: ad73 17be 535a 97bd 87e6 23bd 0aec db3d
00000300: 5f26 de3d 51c8 a53d e79e 0e3e a12c 00be
00000310: 22f5 6c3c d0d2 63bc db59 eb3d 8bf3 a13d
00000320: e0ed fe3d f39e 033e dfc8 bebd 54e4 913d
00000330: 28d9 7ebd a70e 20ba 2cd1 18bd d996 563d
00000340: 412b 00bc 0571 a2bd b81e 65bd 2816 b5bc
00000350: 6067 dbbd 86ee 9dbd c2dd d13b 2d2a c2bb
00000360: 567e 17bd afce c1bb 3253 54bd 021c b2bd
00000370: 4ccf 6c3d e46d 6bbd 3457 8ebd 88d4 133d
00000380: 56c2 cdbd e0d0 2fbd 81d9 683d 6adc da3d
00000390: 441e 9e3d 8acb 533d 23b7 b43d 1c7c 17bc
000003a0: 0ad7 32bd 13f3 86bc 8a47 80bd de44 5b3d
000003b0: 3ea7 a13d 4438 98bd adcf 1ebe 9ed8 2dba
000003c0: c31d d7bc 3b2d 0e3d 88f5 7ebc 82aa f63d
000003d0: 3ffd 07bc f309 25bd 194a 44bc 25e8 d73c
000003e0: d0ad 39bd a444 e33c 75cb 013e 9338 e03d
000003f0: f4a5 4cbb a31d 573d d9c7 743d 8dab 1cbe
0.0640633 0.02423978 -0.17484713 -0.17976758 0.08807093 -0.12808526 -0.04027887 0.04699227
0.12246614 0.0023623898 -0.0893499 -0.0062321695 -0.08330024 0.09865124 0.06951192 -0.051482107
-0.080395624 0.05620792 0.0430954 0.17041132 -0.08674908 0.14845388 0.025655065 0.0800619
0.04505732 -0.06336932 -0.083556175 0.05047787 0.12327631 -0.0059292503 -0.15591823 0.033351846
0.11309121 -0.05005465 -0.010644049 -0.08277252 0.12356189 0.018387465 0.06814046 0.14802375
0.03131652 -0.032067187 -0.009440535 0.069816016 0.0012731937 -0.09193444 0.013564622 0.04853396
0.012824339 0.11875708 -0.018953847 -0.03512858 0.049263872 -0.027425513 -0.06638676 -0.0969254
-0.029156988 0.015973479 -0.0044023753 0.044638015 0.10700019 0.10029211 0.12040636 -0.06229933
0.021422304 -0.07638593 -0.029822102 -0.08505675 0.18361889 0.075066485 0.06620609 -0.15650219
0.036788106 -0.056153752 0.11282959 -0.12303395 -0.084118456 0.037711203 -0.02118198 -0.044433225
0.123990536 0.023876876 0.07945079 -0.052905787 -0.036662646 -0.05011026 -0.06065017 -0.09901267
0.025260508 -0.16599886 0.030626902 0.008200983 0.019019615 -0.011688368 -0.076071925 -0.09097645
0.020300282 0.053233318 0.078318916 -0.084844224 0.049668115 -0.048863605 -0.03728394 -0.09256314
0.060648322 0.09622119 0.14329588 -0.15021567 0.1392746 -0.11409309 0.13105123 -0.15530103
-0.0034440313 -0.018805495 0.07069299 -0.09389024 -0.15974484 0.044980112 -0.07021433 0.033644196
0.10780124 -0.09981711 0.09063983 0.027633827 -0.035106767 0.13670167 -0.17927457 0.018357063
0.006883005 -0.063055746 -0.038558133 0.020621117 0.13529879 -0.030266872 -0.110301204 0.01787708
0.13990293 -0.030260466 -0.06433841 -0.15314473 -0.10025869 -0.043500412 0.006789518 0.18451783
0.008978307 -0.0075298976 -0.023905097 -0.020147383 -0.15360701 -0.13053438 -0.0040913564 -0.085201845
-0.056379028 0.04573483 -0.012033299 -0.15937212 -0.07471702 -0.023471495 -0.024229974 0.00069894025
-0.04851671 -0.10471236 0.02218481 -0.040506124 0.07195724 0.045952197 0.167987 -0.034257196
0.17738771 0.01786434 -0.17197679 0.0660859 0.021543624 0.046730027 -0.07828198 0.20872879
-0.13837552 -0.029665235 -0.03505858 0.068092294 -0.20035824 0.07133686 -0.09210514 -0.016378675
-0.16989152 -0.17270838 0.033237424 0.2209585 -0.1479022 -0.07390275 -0.04001477 0.1073838
0.108471625 0.08094848 0.13927804 -0.12517025 0.014462741 -0.013905242 0.11491748 0.0790778
0.12447715 0.12853603 -0.09315657 0.07123628 -0.062218815 -0.0006105699 -0.037308857 0.052389953
-0.007822813 -0.07931713 -0.0559375 -0.022105291 -0.107130766 -0.0771151 0.0064046094 -0.005925438
-0.036985718 -0.005914531 -0.051837154 -0.08696748 0.05781488 -0.057477847 -0.069502264 0.036091357
-0.10046832 -0.042923808 0.056848053 0.10686572 0.077206165 0.05170778 0.08823993 -0.009245899
-0.04366211 -0.016473329 -0.06263645 0.053532474 0.07893227 -0.07432607 -0.1550891 -0.0006631705
-0.026259309 0.034711104 -0.015561469 0.120442405 -0.008300125 -0.04029269 -0.011980557 0.026355812
-0.045331776 0.027742691 0.12675269 0.10948291 -0.0031226845 0.0525185 0.059760902 -0.15299816
