trained_optimal_value_funct.pth (torch, 506050 bytes, 27 tensors)

input_layer.0.weight f4 [100, 2]
0	0xbf09bed6	-0.5380682
1	0x3d469bbb	0.04848836
2	0x3f222b58	0.6334739
3	0x3f0a173f	0.5394172
4	0xbe559867	-0.20858918
5	0x3d11bc51	0.035579983
6	0x3dcf43cd	0.10120354
7	0x3e35538a	0.17707649
8	0xbf0bd448	-0.5462079
9	0x3e5ee4fd	0.2176704
10	0x3eade46e	0.3396334
11	0x3eae31e8	0.3402245
12	0x3eef23c6	0.4670698
13	0xbb51a778	-0.0031990688
14	0x3ea33e2e	0.31883377
15	0x3ed3cc0c	0.41366613
16	0x3dcd1658	0.10014027
17	0xbee3df88	-0.44506478
18	0xbedc0538	-0.42972732
19	0xbd708322	-0.058718808
20	0x3f0d5d75	0.5522073
21	0x3db4056d	0.087900974
22	0x3ce1efb3	0.027580118
23	0x3ec53c20	0.38522434
24	0x3e2704da	0.16310444
25	0xbf0233a3	-0.5086004
26	0x3f22176b	0.63316983
27	0x3ea278d6	0.31732816
28	0xbed86615	-0.42265382
29	0xbebbc7b6	-0.36675805
30	0x3ed9ce90	0.42540407
31	0x3efafcd9	0.49021032
32	0x3ee9608d	0.45581475
33	0x3ef9c439	0.48782519
34	0x3aeed4b5	0.0018221351
35	0xbdf7d406	-0.12100987
36	0xbdd83caf	-0.105584495
37	0xbf1e27c3	-0.6177942
38	0x3df00323	0.11719348
39	0x3ebacbe1	0.36483672
40	0xbb98949f	-0.004656389
41	0x3e0d2d7c	0.13786882
42	0xbe9c6181	-0.3054314
43	0x3e350b13	0.17680006
44	0xbdd70dae	-0.10500656
45	0x3e86ebdc	0.2635182
46	0xbbd49ce5	-0.00648843
47	0xbde7873b	-0.1130509
48	0x3e16c7db	0.14724676
49	0xbed5c8fa	-0.41754895
50	0xbf07fe01	-0.53121954
51	0xbe5bede4	-0.21477467
52	0xbef0a159	-0.46998098
53	0xbd3f5933	-0.046715926
54	0xbd770eca	-0.06031684
55	0x3ea9188c	0.3302654
56	0xbf2ab9bb	-0.6668965
57	0xbee5f741	-0.44915202
58	0xbeeafc39	-0.45895556
59	0x3e88b8d1	0.26703504
60	0x3f198352	0.59966004
61	0x3ece6053	0.40307865
62	0x3e762218	0.24036443
63	0xbef365cb	-0.475386
64	0xbef511b6	-0.47865075
65	0x3ee668b5	0.4500176
66	0xbe914a81	-0.28377154
67	0x3e87a5dc	0.26493728
68	0xbec0822e	-0.3759932
69	0x3eac878b	0.3369716
70	0x3e65d9fd	0.22446437
71	0x3e9adf8a	0.30248672
72	0x3dacf004	0.08444217
73	0xbe3d4424	-0.18483025
74	0x3ed3c883	0.41363916
75	0x3ef40464	0.476596
76	0x3eac6c58	0.3367641
77	0x3e1e9ebd	0.15490241
78	0x3d07fbff	0.033199307
79	0x3ed34c34	0.41269076
80	0xbe09ae25	-0.13445337
81	0x3db54be4	0.088523656
82	0x3f12b4ff	0.5730743
83	0x3ee73b6f	0.45162532
84	0x3df9c6e4	0.121961385
85	0x3f1ec87f	0.6202468
86	0x3e7d53b1	0.24738957
87	0x3e4a485d	0.19754167
88	0x3eb23811	0.348084
89	0x3da35f83	0.07977202
90	0x3e2f565e	0.1712279
91	0x3e872b68	0.26400304
92	0xbe9d3c98	-0.30710292
93	0x3d7a6dee	0.061139993
94	0x3cdf4ee7	0.027259303
95	0xbd868352	-0.06568016
96	0xbe285528	-0.16438735
97	0x3dee18c9	0.11625821
98	0xbf2a3a3e	-0.6649512
99	0xbe9e819f	-0.30958268
100	0xbef4df9b	-0.47826847
101	0xbdb4b014	-0.08822647
102	0x3dea5ed3	0.114438675
103	0x3f11b649	0.5691877
104	0x3cc823fb	0.02443122
105	0xbf20b63b	-0.6277806
106	0x3f11b99a	0.5692383
107	0xbe1489db	-0.14505713
108	0x3f0c92b4	0.5491135
109	0x3eae6f2f	0.340692
110	0x3f04ff1f	0.51951784
111	0xbe726bee	-0.23673984
112	0xbe701ff8	-0.23449695
113	0x3e4b1020	0.1983037
114	0xbdbd04f4	-0.0922946
115	0xbecf01af	-0.40430972
116	0xbd82f3e2	-0.06394173
117	0xbe677d62	-0.22606423
118	0x3f1c50c5	0.61060745
119	0xbe06251e	-0.13100097
120	0x3e8c455f	0.27396676
121	0x3e7d9371	0.24763276
122	0x3ee81ab8	0.45332885
123	0xbeb2d1d5	-0.34925714
124	0x3ecb4f81	0.39709094
125	0xbd1cc2c7	-0.03827169
126	0xbf1cb389	-0.6121145
127	0x3e846fef	0.2586665
128	0x3eabf015	0.33581606
129	0x3e47a02f	0.19494699
130	0x3ebfd83b	0.37469658
131	0x3cac3d71	0.021025391
132	0x3e9be621	0.30449012
133	0xbf039e1f	-0.5141315
134	0xbf16e210	-0.58938694
135	0xbefb9b8d	-0.49142113
136	0x3f17cf08	0.5930028
137	0x3e1904b0	0.14943194
138	0xbe4edac8	-0.20200646
139	0x3e959eff	0.29222867
140	0xbf134644	-0.5752909
141	0xbf214df4	-0.6300957
142	0xbf06b787	-0.5262379
143	0x3e0888ea	0.13333479
144	0xbed7b3fe	-0.4212951
145	0xbd466381	-0.048434738
146	0x3c0ae3fa	0.008477205
147	0x3e2471cd	0.16059037
148	0xbe73f00f	-0.23822044
149	0x3dc34d1a	0.0953619
150	0x3e8339a3	0.2562991
151	0xbe6b4e98	-0.229792
152	0xbe2f2218	-0.1710285
153	0xbeca6c32	-0.3953567
154	0x3da71e60	0.081600904
155	0x3f27fa30	0.6561613
156	0xbc96f715	-0.018428365
157	0xbdfa3160	-0.12216449
158	0x3f00f732	0.5037719
159	0xbe5c8a1c	-0.2153706
160	0xbe87c176	-0.26514786
161	0x3eb87448	0.36026216
162	0x3e61014e	0.21973154
163	0xbe019ce8	-0.12657511
164	0xbeec97d9	-0.462096
165	0x3f037bc5	0.5136073
166	0x3eb2041b	0.34768757
167	0xbebf8622	-0.37407023
168	0xbbda561d	-0.0066630975
169	0xbe7b9136	-0.24567112
170	0x3f24489c	0.64173293
171	0x3e75b2a9	0.23993935
172	0xbe3633ea	-0.17793241
173	0xbed611c7	-0.41810438
174	0x3eee9eab	0.4660543
175	0xbf1396c3	-0.5765192
176	0x3eadf7cc	0.33978117
177	0xbe365039	-0.1780404
178	0x3e21bd80	0.15794945
179	0x3d57d1c0	0.052690268
180	0x3ee4e619	0.447068
181	0x3f1c9f56	0.6118063
182	0xbcfbcca3	-0.030737227
183	0x3e9ae109	0.30249813
184	0xbed8e0fc	-0.4235915
185	0xbe313490	-0.17305207
186	0xbe1f0675	-0.15529807
187	0x3e9c6ce0	0.30551815
188	0x3f07f446	0.53107107
189	0x3dfd7d4c	0.12377414
190	0xbe5dfd78	-0.21678722
191	0x3ec7347e	0.38907236
192	0x3ea69e8e	0.32542843
193	0xbd4aab35	-0.049479682
194	0x3d83acf9	0.06429476
195	0xbf1e910b	-0.6194007
196	0xbeee143f	-0.46499822
197	0x3f10b78d	0.56530076
198	0xbe29fcae	-0.16600296
199	0x3f1f1c62	0.62152684

input_layer.0.bias f4 [100]
0	0x3e5d9b62	0.21641305
1	0xbe648be3	-0.22318988
2	0xbf106353	-0.56401557
3	0xbf0dcdda	-0.5539223
4	0x3f290621	0.66024977
5	0xbe364460	-0.1779952
6	0x3e3ed8de	0.18637416
7	0x3e771eab	0.24132793
8	0xbf2212a1	-0.63309675
9	0xbeaa6803	-0.3328248
10	0xbd032cb5	-0.032025058
11	0x3eff31b2	0.49842602
12	0x3f1e8b48	0.61931276
13	0x3f1cb99f	0.61220735
14	0xbef07309	-0.46962765
15	0x3f0beccc	0.546582
16	0xbdcca1f8	-0.099918306
17	0xbec37cf9	-0.38181284
18	0x3e8f040c	0.27932775
19	0x3eba8ec5	0.3643705
20	0x3ea86258	0.3288753
21	0x3f0b72f8	0.54472303
22	0x3eb11cb8	0.34592223
23	0xbf0bd4cf	-0.54621595
24	0xbf387d25	-0.72065955
25	0x3ec2c144	0.38038075
26	0x3efa9b66	0.48946685
27	0x3f28afd7	0.6589331
28	0x3e5f5d0d	0.2181284
29	0x3f2fa154	0.6860554
30	0xbe4b0118	-0.19824636
31	0x3ee6d38f	0.4508328
32	0xbe6d7443	-0.23188882
33	0xbd9b21ee	-0.07574831
34	0x3e4a58e5	0.19760473
35	0xbe00e2e2	-0.12586549
36	0xbe011d5b	-0.12608854
37	0x3dda84a7	0.10669833
38	0xbf0afba0	-0.542902
39	0x3ee9f956	0.4569804
40	0x3e564d63	0.20927958
41	0xbedc231f	-0.42995545
42	0xbf302705	-0.6880954
43	0x3f0a106c	0.5393131
44	0x3f1ef464	0.6209166
45	0xbef4ed4c	-0.47837293
46	0x3f07919d	0.52956563
47	0x3e377863	0.17917018
48	0x3f3cf0d3	0.7380497
49	0x3e88bbe3	0.26705846
50	0x3e64970e	0.22323248
51	0x3e576672	0.21035174
52	0x3d4f540e	0.05061727
53	0xbf29d539	-0.66340977
54	0x3ee628e7	0.4495308
55	0x3ed14a5d	0.40877047
56	0x3f3c1dbd	0.73482877
57	0x3e8d154b	0.27555308
58	0x3f0c2e47	0.54758114
59	0x3e4d1cc4	0.20030504
60	0xbf08f1de	-0.5349406
61	0x3dd42150	0.10357916
62	0x3ed16fe2	0.40905672
63	0x3be3cbd1	0.006951787
64	0x3efba9d2	0.49153
65	0xbf05ab67	-0.52214664
66	0xbf3d2a04	-0.73892236
67	0xbe71d9de	-0.23618266
68	0x3e5e861e	0.21730849
69	0x3f287c49	0.65814644
70	0xbf2f227f	-0.6841201
71	0xbe84caaf	-0.25935885
72	0xbebb5069	-0.36584786
73	0x3dd52fbc	0.10409495
74	0xbf3b8504	-0.7324984
75	0x3e9155f6	0.28385895
76	0x3dafa70f	0.08576786
77	0xbdbe9d46	-0.09307341
78	0xbee4f6de	-0.44719595
79	0x3ee8483f	0.4536762
80	0xbf006745	-0.50157577
81	0xbe6d64bc	-0.23182958
82	0xbf18645e	-0.5952815
83	0x3f0f7517	0.5603804
84	0xbe5e6680	-0.21718788
85	0x3f08d639	0.5345188
86	0x3dca6aef	0.09883677
87	0x3e237714	0.15963393
88	0x3f108f43	0.564686
89	0x3e9f284e	0.31085438
90	0x3f3a0b4b	0.7267348
91	0xbdcfae94	-0.1014072
92	0x3da6754c	0.08127841
93	0x3d00e094	0.031464174
94	0x3f24f137	0.64430565
95	0xbedf48bc	-0.4361018
96	0x3e09a5dc	0.13442177
97	0x3f082d23	0.53193873
98	0xbec273ff	-0.37979123
99	0x3f39f13a	0.7263371

DGM1.gate_Z.0.weight f4 [100, 102]
0	0xbdde1ffb	-0.108459435
1	0x3c87b316	0.016564887
2	0xbdaf4da7	-0.08559733
3	0xbab932ad	-0.0014129482
4	0x3db1b2e3	0.08676698
5	0xbcce431f	-0.02517849
6	0xbccfc812	-0.025363956
7	0x3dd6ec22	0.104942575
8	0xbdaa282b	-0.08308443
9	0xbd8af8e1	-0.06785751
10	0xbca120fa	-0.019669045
11	0xbbabf581	-0.005247772
12	0x3d902962	0.07039143
13	0x3c6a4046	0.014297551
14	0xbdabc5b7	-0.083873205
15	0xbd94c038	-0.07263225
16	0x3bb66f43	0.0055674626
17	0x3d9ec508	0.077524245
18	0x3da671bd	0.081271626
19	0xbc2350a7	-0.0099679595
20	0x3d45e7ec	0.04831688
21	0xbcd8063b	-0.026370158
22	0xbda2a3f6	-0.07941429
23	0xbd6ac256	-0.05731424
24	0xbdd8bbf3	-0.105827235
25	0x3cfaabe7	0.030599548
26	0xbc713e8d	-0.014724386
27	0xbde52714	-0.11189094
28	0xbdce3093	-0.100678585
29	0xbd92709b	-0.07150384
30	0x3d990d18	0.074732006
31	0xbb8cf8f7	-0.00430214
32	0xbb58e159	-0.0033093302
33	0x3d99e7de	0.07514928
34	0x3d8814ef	0.06644618
35	0x3db46878	0.08808988
36	0xbbf1e14b	-0.0073815933
37	0x3db0dc09	0.086357184
38	0xbd565ec6	-0.052336477
39	0xbce3fec5	-0.027831445
40	0x393d77f0	0.00018069125
41	0xbdd3ae04	-0.10335925
42	0x3da853e5	0.082191266
43	0x3dd63cd9	0.104608245
44	0x3d342a31	0.04398555
45	0xbd90457e	-0.070445046
46	0x3da5c26e	0.08093725
47	0x3d027b90	0.03185612
48	0xbbca831e	-0.006180181
49	0x3c81a58c	0.01582601
50	0x3ba4e233	0.005031848
51	0x3d515996	0.051110826
52	0x3d6574ec	0.05601971
53	0x3d3f1b74	0.04665704
54	0xbdbb38c9	-0.0914169
55	0xbda24c9f	-0.079247706
56	0x3d263129	0.040574227
57	0x3d777367	0.06041279
58	0xbdd2342b	-0.102638565
59	0xbd637289	-0.05552915
60	0x3d87e6f2	0.06635846
61	0x3d30ddcd	0.043180276
62	0x3dc32a27	0.09529524
63	0x3d9a96db	0.07548305
64	0x3d285bcb	0.041103166
65	0xbcdce837	-0.026966197
66	0x3d803d3e	0.06261681
67	0x3d96f711	0.07371343
68	0x3badb60a	0.0053012418
69	0x3d0d3a24	0.034479275
70	0x3d74aac9	0.059733186
71	0x3d8e4145	0.06946043
72	0x3db491f9	0.088169046
73	0x3d091d0d	0.03347497
74	0x3d8683a3	0.065680765
75	0x3dce027d	0.10059068
76	0x3ddd520c	0.10806665
77	0xbd87fa08	-0.066394866
78	0xbcb58cc4	-0.022161849
79	0xbdaa8c43	-0.08327534
80	0x3c19e855	0.009393771
81	0x3d9e4e45	0.077297725
82	0x3dc767d4	0.097366005
83	0xbcff90fe	-0.031197067
84	0xbd1afe64	-0.037840262
85	0x3bfddb15	0.007747064
86	0x3d62f12d	0.055405784
87	0x3c7b2382	0.01532829
88	0xbdadfb89	-0.08495242
89	0xbcae3fed	-0.021270717
90	0xbb9b913d	-0.0047475384
91	0xbdc39407	-0.09549718
92	0xbdc11271	-0.094273455
93	0x3d77276e	0.060340337
94	0x3d5092ed	0.05092137
95	0xbdad6477	-0.08466428
96	0xbd03a7d4	-0.032142475
97	0x3c87ec4e	0.016592171
98	0x3dbd6984	0.09248641
99	0x3da774cc	0.08176574
100	0x3c73ff99	0.014892482
101	0xbdc18eb2	-0.09451045
102	0x3d3ee452	0.046604462
103	0x3d715e44	0.05892779
104	0xbd2526b6	-0.04032012
105	0x3d74d068	0.059769064
106	0xbc342ffb	-0.010997768
107	0x3db16380	0.08661556
108	0xbd0e2186	-0.03469994
109	0x3d019343	0.03163458
110	0xbc507d8c	-0.012725245
111	0xbd407b01	-0.046992306
112	0xbdaa4e4c	-0.08315715
113	0x3d9d358b	0.07676228
114	0x3d7f7cbc	0.062374815
115	0x3c7da2d7	0.015480719
116	0x3a00c880	0.00049126893
117	0x3cea9e20	0.028639853
118	0xbcad8e40	-0.021185994
119	0x3d5e70c5	0.054306764
120	0x3d207054	0.039169624
121	0x3d1dd579	0.03853366
122	0xbd70e183	-0.058808815
123	0x3db621c0	0.08893156
124	0xbd913224	-0.07089642
125	0x3d3c5624	0.045980588
126	0xbc4cbe77	-0.012496582
127	0xbda2b75f	-0.079451315
128	0x3d7f9f97	0.062408056
129	0xbd5bec08	-0.053691894
130	0xbdbe3bca	-0.092887476
131	0x3db4fd32	0.08837356
132	0xbdab6306	-0.083684966
133	0xbcd4104d	-0.025886679
134	0x3d63d215	0.05562027
135	0x3d664c1e	0.056224935
136	0xbc96f3ba	-0.018426765
137	0x3bf8a9ec	0.0075886156
138	0x3ba25713	0.0049542277
139	0xbd8645c6	-0.06556277
140	0xbc9684fe	-0.018373962
141	0x3d9b5ae3	0.07585695
142	0xbd8c7174	-0.06857577
143	0x3d8583d9	0.065192886
144	0xbcea2bc8	-0.02858533
145	0x3d34b2d0	0.04411584
146	0x3da253b6	0.07926123
147	0x3d929008	0.07156378
148	0xbdae17d7	-0.08500641
149	0x3d7327cb	0.05936412
150	0xbbd22a43	-0.0064137294
151	0xbd306f9c	-0.04307519
152	0xbcf56c4c	-0.029958867
153	0x3cc8d146	0.024513852
154	0xbd9a4a03	-0.07533648
155	0xbcdd471e	-0.02701145
156	0xbccdc7d8	-0.025119707
157	0xbd6da595	-0.05801924
158	0x3d7353fb	0.059406262
159	0x3d1f28bc	0.038857207
160	0xbda8c605	-0.08240894
161	0xbcc18c50	-0.023626477
162	0x3ba732fa	0.0051025124
163	0x3d2603a9	0.040530834
164	0x3d8da9f5	0.06917182
165	0xbd5c31e0	-0.053758502
166	0x3a83432a	0.0010014523
167	0x3cc4f149	0.024040835
168	0xbc888c32	-0.016668413
169	0xbca4ef2a	-0.020133574
170	0xbd1abec2	-0.037779577
171	0x3d5119b2	0.051049896
172	0x3df2928b	0.11844357
173	0x3b1febcd	0.0024402023
174	0xbd374ade	-0.044749133
175	0x3d8e980a	0.06962593
176	0xbdb326b4	-0.087476164
177	0x3df58a2e	0.11989246
178	0xbd220fc7	-0.039565828
179	0x3c210b56	0.009829363
180	0xbdb55e01	-0.088558204
181	0x3ce604af	0.028078405
182	0x3cbc5cb7	0.022993429
183	0x3dd07db3	0.10180225
184	0x3da8c83b	0.08241316
185	0xbd06077c	-0.03272198
186	0xbd102fd1	-0.03520185
187	0xbd7ae42e	-0.061252765
188	0xbda1e6d3	-0.07905354
189	0xbce5f84d	-0.0280725
190	0x3c3054af	0.010762378
191	0x3d24461d	0.040105928
192	0xbd4a7069	-0.04942361
193	0x3d9a68ec	0.075395435
194	0x3d00f39d	0.031482328
195	0x3dfb286b	0.122635685
196	0x3d134cf0	0.035962045
197	0x3c58c738	0.013231091
198	0x3dc99187	0.0984221
199	0xbc79a67f	-0.01523745
200	0x3da2b580	0.07944775
201	0x3cd2898b	0.025700351
202	0xbcff3386	-0.031152498
203	0x3c811849	0.01575865
204	0xbdb537d0	-0.08848536
205	0x3d1b8195	0.037965376
206	0xbd13b5db	-0.036062103
207	0xbc9c34cb	-0.019068142
208	0x3cbb0681	0.02283025
209	0xbd2f31ce	-0.042772107
210	0x3dd68135	0.10473863
211	0xbdd12815	-0.10212723
212	0xbb68881e	-0.0035481523
213	0x3d5ee8ab	0.05442111
214	0xbcde8176	-0.027161341
215	0xbce08168	-0.027405456
216	0xbc63a7b1	-0.013894961
217	0x3d759472	0.05995602
218	0x3beff146	0.007322463
219	0x3cf32ed4	0.029685415
220	0x3c540aef	0.01294206
221	0xbcac812e	-0.021057691
222	0x3d06dda0	0.0329262
223	0xbd4475cd	-0.047963906
224	0x3dc19624	0.09452465
225	0xbb80c6b4	-0.0039299373
226	0xbd7d083a	-0.061775424
227	0xbce28b23	-0.027654236
228	0xbc7dca60	-0.0154901445
229	0xba79f3c2	-0.0009534919
230	0xbd7d80e0	-0.061890483
231	0xbd91aa37	-0.07112544
232	0xbd2f262f	-0.042761024
233	0x3deb14ed	0.11478601
234	0x3db03bcb	0.086051546
235	0x3d9db2d3	0.07700124
236	0xbd8d5751	-0.0690142
237	0xbd3d23a1	-0.046176556
238	0x3d80b584	0.06284621
239	0x3cffed2b	0.03124102
240	0xbd4c4633	-0.049871635
241	0xbc918f4d	-0.017768526
242	0x3d2ab225	0.041673798
243	0xbca55f0e	-0.020186927
244	0xbda03fd7	-0.078246765
245	0x3dba9d56	0.09112041
246	0x3ccc7717	0.02495913
247	0x3a2c0b75	0.00065629865
248	0xbbaf11f8	-0.005342718
249	0x3dd1fc5d	0.102532126
250	0x3d9621b0	0.07330644
251	0x3cd04969	0.02542563
252	0x3cae5f80	0.021285772
253	0xbbb6ac5c	-0.005574746
254	0xbd279bfd	-0.040920246
255	0x3c84e1d4	0.016220964

DGM1.gate_Z.0.bias f4 [100]
0	0xbdac71fd	-0.08420179
1	0xbd6266af	-0.055273708
2	0xbd499466	-0.04921379
3	0x3ced01ca	0.028931517
4	0xbd9387f3	-0.07203665
5	0x3c80f90a	0.015743751
6	0xbcf8b6c2	-0.030360583
7	0x3d3d9a1c	0.04628955
8	0xbc93fb35	-0.01806412
9	0x3d46aa00	0.04850197
10	0xbdc4153b	-0.09574362
11	0xbda0084a	-0.07814081
12	0x3cfc0caa	0.030767757
13	0xbcf07282	-0.029351477
14	0x3c5504c6	0.013001626
15	0xbdeca8db	-0.11555644
16	0xb7ab8982	-2.044882e-05
17	0x3d3b9bb7	0.045802798
18	0x3d8a5e26	0.06756239
19	0xbdc099d5	-0.09404341
20	0xbd5bfc6a	-0.053707518
21	0x3ddeb715	0.10874764
22	0xbbb13fe3	-0.005409227
23	0x3dd62fa8	0.104583085
24	0x3d43a46e	0.047764234
25	0xbd4c182a	-0.049827732
26	0xbcbc56a8	-0.02299054
27	0x3dad91f5	0.08475105
28	0x3dcd2115	0.100160755
29	0x3d955053	0.07290711
30	0x3c268ca1	0.0101653645
31	0x3d32c7ae	0.04364746
32	0xbdd9e829	-0.10639984
33	0x3ce6149a	0.028085995
34	0x3d081df1	0.03323168
35	0x3c6537f7	0.013990394
36	0xbdc2e241	-0.09515811
37	0xbd8ea38c	-0.06964788
38	0xbd0596b6	-0.032614432
39	0x3d9d01ff	0.07666396
40	0xbd7ac837	-0.061226096
41	0xbcd93c52	-0.02651802
42	0xbb1bfee3	-0.0023803047
43	0xbdce2496	-0.10065572
44	0xbd9141de	-0.07092641
45	0xba732e74	-0.00092766364
46	0xbd95ac09	-0.07308204
47	0x3d189b56	0.037257515
48	0x3dcfc6f8	0.10145372
49	0xbcfd2660	-0.030902088
50	0x3d7e3531	0.062062446
51	0x3d881f2a	0.06646569
52	0x3ce600c0	0.02807653
53	0xbdc3f5af	-0.09568345
54	0x3de7ce3e	0.113186345
55	0xbd959545	-0.073038615
56	0xbdc3f5d3	-0.095683716
57	0x3d470967	0.04859295
58	0x3d1153f4	0.035480455
59	0xbd963cc8	-0.07335812
60	0xbc94d735	-0.018169025
61	0x3d11706a	0.035507597
62	0xbdd9290c	-0.10603532
63	0x3d85bfb6	0.065307066
64	0x3db859ba	0.09001489
65	0x3d3b9d0c	0.04580407
66	0xbd0bd8ad	-0.034142185
67	0x3b244046	0.0025062724
68	0x3d87b84b	0.06626948
69	0x3cd0d14f	0.025490431
70	0xbd397000	-0.045272827
71	0x37de9f1e	2.6538557e-05
72	0x3d870880	0.06593418
73	0xbd6246df	-0.05524337
74	0xbda53f22	-0.08068682
75	0x3da0dd33	0.078546904
76	0xbd802c79	-0.062584825
77	0x3d6fd7fd	0.05855559
78	0xbbf61e04	-0.0075109024
79	0xbdbba3a2	-0.0916207
80	0x3d7cb933	0.061700057
81	0x3da0374f	0.07823049
82	0x3ce0e22f	0.027451603
83	0x3cb003dd	0.021486217
84	0xbc4d95bd	-0.012547907
85	0xbddbdffe	-0.107360825
86	0x3cb7b9ce	0.022427466
87	0xbd4f1b56	-0.05056318
88	0xbd279a57	-0.040918674
89	0xbcaa538b	-0.02079179
90	0xbd263311	-0.040576044
91	0xbc0c51c9	-0.008564421
92	0xbce9ad1d	-0.02852493
93	0x3daa72b3	0.083226584
94	0xbc765b09	-0.015036353
95	0x3da46217	0.08026522
96	0x3dece659	0.11567373
97	0xbd8ac16a	-0.06775172
98	0xbdcef79f	-0.10105824
99	0xbd0d0266	-0.034426115

DGM1.gate_G.0.weight f4 [100, 102]
0	0xbc94f572	-0.018183444
1	0x3d876cf7	0.0661258
2	0xbcf28371	-0.029603692
3	0xbd48a75b	-0.048987728
4	0x3d5d4fb2	0.05403108
5	0xbcfe57d1	-0.031047734
6	0xb9ae9bbe	-0.00033303903
7	0xbd5c289b	-0.053749662
8	0xbd1dc027	-0.03851333
9	0x3d85e6de	0.06538175
10	0xbdcb5792	-0.09928812
11	0xbd5a7ede	-0.053343646
12	0x3d8538fa	0.06505008
13	0x3dee31b0	0.11630571
14	0xbd413708	-0.047171623
15	0x3dc72a89	0.0972491
16	0xbd107049	-0.035263333
17	0xbd4cddfb	-0.050016385
18	0xbd4e56f6	-0.0503759
19	0xbd08dd2d	-0.033414055
20	0xbdc1e19b	-0.09466859
21	0x3df65c9e	0.12029384
22	0xbc72a9f8	-0.0148110315
23	0x3d6cffc0	0.05786109
24	0xbd4dc405	-0.050235767
25	0xbd49d480	-0.04927492
26	0x3cefd4b7	0.029276235
27	0x3d192d03	0.037396442
28	0x3d78d9f8	0.060754746
29	0x3da2b3ae	0.079444274
30	0xbdeaafe6	-0.11459331
31	0xbcbcad7e	-0.023031946
32	0xbd539bf6	-0.051662408
33	0xbd9493fe	-0.0725479
34	0x3bfe1894	0.007754395
35	0xbdb5e474	-0.088814646
36	0x3dc2f16f	0.09518706
37	0x3dc3ce3d	0.09560821
38	0xbcde077b	-0.027103176
39	0xbd54fba9	-0.051997814
40	0xbd6ce3ce	-0.05783444
41	0xbd2d686f	-0.042335924
42	0xbd8c94e2	-0.06864335
43	0xbd124e2f	-0.035719093
44	0x3d445b64	0.04793872
45	0x3d15c3f6	0.036563836
46	0xbd39af62	-0.045333274
47	0xbd17790f	-0.036980685
48	0xbd2b327a	-0.041796185
49	0xbdac4fcf	-0.0841366
50	0xbd1dcbc9	-0.038524423
51	0xbddf979d	-0.1091759
52	0xbdbf789c	-0.09349176
53	0x3d1ff392	0.039050646
54	0xbdb835a3	-0.089946054
55	0xbd30536a	-0.0430483
56	0x3de17f2f	0.110105865
57	0xbcb39b4c	-0.021924637
58	0xbc6f9031	-0.01462178
59	0x3d08af84	0.03337051
60	0x3d77b944	0.060479417
61	0xbb7bb251	-0.0038405845
62	0x3d4d998a	0.050195254
63	0xbcf37bdf	-0.029722152
64	0x3ca60b9e	0.020269211
65	0xbd8d14f2	-0.068887606
66	0xbbf82509	-0.0075727743
67	0x3cf0455c	0.029329948
68	0xbcf0803d	-0.029358024
69	0xbc107f44	-0.008819405
70	0x3d7d0c5e	0.061779372
71	0xbc231c1b	-0.009955431
72	0x3d0ea215	0.034822542
73	0xbbd4d197	-0.0064947116
74	0xbd00dd6d	-0.031461168
75	0x3c602ac4	0.013682071
76	0x3d8fbd5f	0.070185415
77	0x3c021c08	0.0079412535
78	0x3b8103d2	0.003937223
79	0x3d1a2a04	0.037637725
80	0x3d87f9ad	0.06639419
81	0xbd8490f9	-0.06472964
82	0x3cfc6cf3	0.03081367
83	0xbd9737cc	-0.07383689
84	0x3d0322dc	0.032015666
85	0x3dd91bc9	0.10601003
86	0x3d878051	0.06616271
87	0x3dd9bdb6	0.106318876
88	0xbdbf37ea	-0.09336837
89	0x3da94754	0.08265558
90	0xbc3154e5	-0.010823463
91	0xbc61284c	-0.013742518
92	0x3dab169a	0.0835392
93	0xbc0552fa	-0.008137459
94	0xbdc5d86c	-0.0966042
95	0x3c2450e4	0.010029051
96	0xbcd7e58c	-0.026354574
97	0xbdbd4750	-0.092421174
98	0x3d45b25d	0.048265804
99	0x3c34f5d2	0.011044936
100	0xbdc61b0f	-0.0967313
101	0xbd7c177e	-0.06154584
102	0xbd802ad0	-0.06258166
103	0x3cdb42cb	0.026765248
104	0xbd8a8102	-0.067628875
105	0x3b98cf7f	0.0046634073
106	0xbd4adf18	-0.049529165
107	0xbc333034	-0.0109367855
108	0x3d6226ac	0.05521266
109	0xbd2461c3	-0.040132295
110	0x3ce6271c	0.02809482
111	0x3cb07bf3	0.021543479
112	0xbced8d54	-0.028998055
113	0x3c1eaf18	0.0096853
114	0x3d5d048d	0.053959418
115	0x3a1ffc88	0.0006102999
116	0x3da1a8c8	0.078935206
117	0xbca41bd2	-0.020032797
118	0x3d5ed498	0.054401964
119	0xbcefb1d1	-0.029259594
120	0x3dd641c4	0.104617625
121	0x3d756786	0.05991318
122	0x3dcd5a53	0.100269936
123	0x3d86c64a	0.065807894
124	0x3d9fa567	0.0779522
125	0xbd7a53b6	-0.06111499
126	0x3cb47ea2	0.02203304
127	0x3d953d66	0.072871014
128	0x3d6ce47b	0.057835083
129	0x3cd0918a	0.025460023
130	0x3da0118b	0.07815846
131	0x3d4e052a	0.050297894
132	0xbdc1ec80	-0.09468937
133	0xbd8fdf20	-0.070249796
134	0xbd529ac9	-0.051417146
135	0x3ded5560	0.115885496
136	0x3d6a57c2	0.0572126
137	0xbba9137a	-0.0051597925
138	0x3d9cc259	0.076542564
139	0xbda3a6e5	-0.07990817
140	0xbcf81102	-0.030281547
141	0xbd813c0f	-0.063102834
142	0x3d3144c2	0.043278463
143	0x3c7425f0	0.014901623
144	0xbcfaf577	-0.030634625
145	0x3da0a542	0.078440204
146	0x3baf9cac	0.005359253
147	0xbbbe114e	-0.0058004027
148	0x3dd0824a	0.10181101
149	0x3da339a5	0.07969979
150	0x3d559309	0.052142177
151	0xbc1d77dd	-0.009611097
152	0xbd35f988	-0.044427425
153	0xbcd9ccbf	-0.026586888
154	0xbda44470	-0.08020866
155	0x3c4ebe83	0.012618664
156	0x3c7d3556	0.015454611
157	0xbd325c92	-0.043545313
158	0xbcf82a98	-0.030293748
159	0x3db074f0	0.08616054
160	0xbd7f4fc5	-0.062331934
161	0x3d9a7ff6	0.07543938
162	0x3dc3216c	0.09527859
163	0xbdb40428	-0.08789855
164	0x3d586239	0.052828047
165	0x3d89d008	0.06729132
166	0xbce4cc8c	-0.027929567
167	0x3d973831	0.073837645
168	0xbd805db1	-0.0626787
169	0xbca2ee54	-0.019889034
170	0x3d59d992	0.053186007
171	0x3d1c832d	0.038211036
172	0xbd847ab5	-0.06468717
173	0x3b34a2f8	0.0027562957
174	0xbd8179f9	-0.063220926
175	0x3ca03da0	0.019560635
176	0x3d4bae49	0.04972676
177	0x3cbf97c1	0.023387792
178	0x3aaae963	0.0013039525
179	0x3cd81bf5	0.026380518
180	0xbc7e2c2a	-0.015513459
181	0x3d2d2561	0.042271975
182	0xbd8fbed4	-0.070188195
183	0x3d7e340a	0.062061347
184	0x3d877399	0.066138454
185	0x3d540861	0.051765803
186	0xbdd40cb1	-0.10353983
187	0x3dd03335	0.10166017
188	0x3ac50e29	0.0015034127
189	0x3d151f96	0.036407076
190	0x3d6f6a4a	0.058450975
191	0x3d3ddb2d	0.0463516
192	0x3d105d4f	0.035245236
193	0x3d756524	0.05991091
194	0x3c8b3d3a	0.016996969
195	0x3db9a13f	0.090639584
196	0x3d5bfef3	0.053709935
197	0xbc2a470a	-0.010392914
198	0x3d4e0b3d	0.050303686
199	0xbd642e83	-0.05570842
200	0x3b2010bf	0.0024424044
201	0xbd02b3ab	-0.031909626
202	0xbdc527ce	-0.09626733
203	0xbc32f218	-0.010921977
204	0xbd08cdda	-0.03339944
205	0xbb5c3ce2	-0.0033605625
206	0xbd25f3d9	-0.040515754
207	0xbd276ffe	-0.04087829
208	0x3c5b0b34	0.01336937
209	0xbcf13405	-0.02944375
210	0x3ca2631f	0.019822655
211	0xbd512242	-0.05105806
212	0x3ca88a21	0.020573677
213	0x3da93e3c	0.082638234
214	0x3ccad423	0.024759358
215	0xbd91daf0	-0.07121837
216	0x3c2cff6a	0.010558942
217	0x3d0eb68b	0.034842055
218	0xbc40448d	-0.011735094
219	0xbdc624b5	-0.0967497
220	0x3c8399a6	0.016064476
221	0xbd9c04c8	-0.076180995
222	0x3dc5f103	0.0966511
223	0xbd3b6110	-0.045746863
224	0x3d83f8da	0.06443949
225	0xbd4754f4	-0.048665002
226	0x3d0f859b	0.035039525
227	0x39fad4f4	0.00047842378
228	0x3d87163b	0.06596037
229	0x3d8c5d52	0.06853737
230	0xbdf2278d	-0.1182395
231	0xbdac6c9d	-0.08419154
232	0xbc7844b8	-0.015153103
233	0xba94443f	-0.0011311843
234	0x3dc39b70	0.09551132
235	0xbd9d21f8	-0.07672495
236	0xbd132c8b	-0.03593115
237	0x3d939f91	0.07208169
238	0xbd80e588	-0.062937796
239	0x3dc1e564	0.09467581
240	0xbd6a2e87	-0.05717328
241	0x3cddcd45	0.02707542
242	0x3c326c5f	0.0108900955
243	0xbd4f98cd	-0.05068283
244	0x3d31f661	0.043447856
245	0x3d0222b3	0.031771373
246	0x3d6a34d0	0.057179272
247	0xbc49d404	-0.012318615
248	0x3be83456	0.007086317
249	0x3c827af7	0.015927775
250	0x3d7d8d65	0.061902422
251	0xbdf8852c	-0.121347755
252	0x3cf9fc8e	0.030515935
253	0x3d9387e8	0.072036564
254	0x3e185fcd	0.14880295
255	0x3cf2f568	0.029658034

DGM1.gate_G.0.bias f4 [100]
0	0x3cf06263	0.02934379
1	0xbdb818d7	-0.08989113
2	0xbd7ba45e	-0.06143605
3	0x3d995c7b	0.074883424
4	0x3aa7af9e	0.0012793427
5	0xbc70c597	-0.014695547
6	0xbd00c413	-0.03143699
7	0x3daa95b6	0.08329336
8	0x3c241438	0.010014586
9	0xbd4ce277	-0.05002066
10	0x3dd442a6	0.10364275
11	0x3da9514b	0.082674585
12	0xbc7ff86e	-0.015623195
13	0xbd61fd9c	-0.0551735
14	0x3d25f286	0.04051449
15	0x3df3d0a4	0.119050294
16	0x3dc3ba49	0.095570154
17	0x3c1a43cc	0.009415578
18	0x3d9132f5	0.070897974
19	0xbd4fda6f	-0.050745424
20	0xbd854cd1	-0.06508792
21	0xbba9eb84	-0.0051855464
22	0xbd658690	-0.056036532
23	0xbd8427d0	-0.06452906
24	0xbc9e66cf	-0.019336132
25	0xbd1a90ed	-0.03773587
26	0x3da64241	0.08118106
27	0xbd4cac84	-0.04996921
28	0xbceab0e8	-0.028648809
29	0x3d946ac4	0.072469264
30	0x3c698126	0.014251983
31	0xbd96766a	-0.073468044
32	0xbdb92dc0	-0.09041929
33	0x3de9a609	0.11408622
34	0xbcfc3cb4	-0.030790664
35	0x3d9b15fc	0.075725526
36	0xbd8d5377	-0.06900685
37	0xbdd14e64	-0.1022003
38	0x3cfec488	0.031099573
39	0x3cee658e	0.02910116
40	0xbc911df0	-0.01771447
41	0x3daf391f	0.08555817
42	0xbda9db50	-0.08293784
43	0xbd8138c3	-0.063096546
44	0x3d8426d8	0.06452721
45	0xbde71e23	-0.11285045
46	0x3c9eb389	0.019372718
47	0xbb273d01	-0.002551854
48	0x3d756076	0.059906445
49	0xbd5e2cf9	-0.054242108
50	0xbd4b5e2c	-0.049650356
51	0x3d7a799f	0.061151143
52	0x3da64537	0.081186704
53	0x3d16d63a	0.036825396
54	0x3de35bed	0.11101518
55	0xbc5f24ae	-0.013619585
56	0x3d1965c0	0.037450552
57	0x3ca04d18	0.019568011
58	0x3cd3ff90	0.025878698
59	0x3d258cc1	0.040417437
60	0x3de2929c	0.1106312
61	0x3d039956	0.032128654
62	0x3cba2052	0.02272049
63	0x3c99049f	0.018678961
64	0xbd26c57e	-0.040715687
65	0x3b073415	0.0020630409
66	0x3d8dab31	0.06917418
67	0x3d2d5279	0.04231498
68	0xbcb2a5c2	-0.021807555
69	0xbd5f6f4e	-0.054549508
70	0xbd98589c	-0.07438776
71	0x3d9db3dd	0.07700322
72	0x3dac68f9	0.084184594
73	0xbcc05b59	-0.023481058
74	0xbd4fc498	-0.050724596
75	0x3c1f91e0	0.009739369
76	0x3b476cf3	0.003042993
77	0x3b69b9fb	0.0035663832
78	0x3ccec4ee	0.025240388
79	0xbc8ee6b8	-0.017444
80	0xbd8caa20	-0.06868386
81	0x3cb49c86	0.022047292
82	0xbc0cc179	-0.008591049
83	0xb8f98e15	-0.0001189971
84	0x3d8e551a	0.069498256
85	0x3d8969e2	0.06709649
86	0x3c65868c	0.014009129
87	0x3d055077	0.03254744
88	0xbdda9142	-0.10672237
89	0x3db869c5	0.09004549
90	0xbd41c6de	-0.047308795
91	0x3ddecbb2	0.108786955
92	0x3dd67ca5	0.10472993
93	0xbb46eb93	-0.0030352816
94	0x3dce5865	0.10075454
95	0xbc9aadb7	-0.018881662
96	0x3d40b315	0.047045786
97	0x3d8c3cae	0.06847511
98	0xbda8fe4c	-0.08251628
99	0x3d07586e	0.033043317

DGM1.gate_R.0.weight f4 [100, 102]
0	0xbd8e139a	-0.069373325
1	0xbdb2a87d	-0.08723543
2	0x3d72de96	0.059294306
3	0x3d2730dc	0.04081808
4	0xbd2a2a83	-0.04154445
5	0xbdc095c8	-0.094035685
6	0xbd935e28	-0.07195693
7	0x3d57ac1c	0.05265437
8	0xbd7984af	-0.060917553
9	0x3cc46902	0.023975853
10	0xbd024660	-0.031805396
11	0xbce75969	-0.028240876
12	0xbda24bc1	-0.07924605
13	0xbd786b37	-0.060649123
14	0xbd6caf4a	-0.057784356
15	0x3dacb9de	0.08433889
16	0xbd3af84c	-0.04564695
17	0x3c5ae96e	0.013361318
18	0xbd98236e	-0.07428633
19	0xbb83cce4	-0.0040222276
20	0x3d74bd82	0.05975104
21	0x3dd72d63	0.10506704
22	0xbd949cbe	-0.07256459
23	0xbdc661c8	-0.09686619
24	0xbcb83a68	-0.022488788
25	0x3d9cdcd2	0.07659306
26	0xbd52c2f1	-0.05145544
27	0x3cdbcf48	0.026832238
28	0xbdaf8e09	-0.08572013
29	0x3dfe1c75	0.124077715
30	0x3d5c5cf6	0.053799592
31	0xbd5573bf	-0.052112337
32	0x3d1bf4b7	0.038075175
33	0xbccc6bcc	-0.024953745
34	0xbdc649cc	-0.096820444
35	0x3b475cb9	0.0030420257
36	0xbdb2617f	-0.08710002
37	0x3c2f560e	0.010701669
38	0xbd8a0a4d	-0.06740246
39	0x3dc2b6fd	0.095075585
40	0x3d86c130	0.06579816
41	0x3c80065f	0.015628038
42	0xbcb243f5	-0.02176092
43	0xbd2f7458	-0.042835563
44	0x3d0209ed	0.031747747
45	0x3ce9f918	0.02856116
46	0x3c96ce1f	0.018408833
47	0x3d9258fe	0.0714588
48	0xbdc3b600	-0.09556198
49	0x3d86bdf6	0.06579201
50	0x3db3c87b	0.08778473
51	0xbc64d0d2	-0.013965802
52	0xbda303f8	-0.07959741
53	0x3ad44729	0.0016195524
54	0xbded85ca	-0.11597784
55	0x3d3feecc	0.046858594
56	0xb981e07b	-0.00024772048
57	0x3da1a532	0.07892837
58	0x3dd0d04e	0.10195981
59	0x3d9032f4	0.070409685
60	0xbd5b4090	-0.05352837
61	0x3bee167f	0.0072658653
62	0x3bb85c07	0.005626205
63	0xbcc94165	-0.024567315
64	0xbd068abd	-0.032847155
65	0x3cc4bd9b	0.024016192
66	0xbbf36e01	-0.007428885
67	0x3d536dc2	0.051618345
68	0xbd866cff	-0.06563758
69	0x3d68771b	0.056754213
70	0xbdab812f	-0.08374249
71	0x3d68d685	0.056845207
72	0xbd2ea12f	-0.042634185
73	0xbdc96793	-0.09834208
74	0xbd6ec3ad	-0.05829208
75	0xbc27dcce	-0.010245515
76	0x3da5d025	0.08096341
77	0xba68a86f	-0.0008875196
78	0xbdc777d5	-0.09739653
79	0xbd9e0846	-0.07716422
80	0xbdca2624	-0.09870556
81	0x3c323b4b	0.010878394
82	0x3d55f695	0.052237112
83	0x3db493c4	0.088172466
84	0x3c543f72	0.01295458
85	0xbcee9148	-0.02912201
86	0x3d388f1d	0.04505836
87	0x3dbca885	0.0921183
88	0xbdc9b47d	-0.098488785
89	0x3da641d7	0.08118027
90	0xbbd7ab91	-0.0065817316
91	0xbda44935	-0.08021776
92	0x3dc71067	0.097199254
93	0x3d65ec06	0.056133293
94	0x3d6c0b64	0.05762805
95	0x3d69ac3f	0.057049032
96	0xbc53a870	-0.012918577
97	0x3d003164	0.031297103
98	0x3d4ad449	0.049518857
99	0xbdcb9704	-0.09940913
100	0x3d5ee126	0.054413937
101	0xbd09ea65	-0.0336708
102	0x3d3be019	0.045868013
103	0xbc34d7b6	-0.011037758
104	0xbd4dd92e	-0.050255947
105	0xbc904e26	-0.01761539
106	0xbdcf3e9b	-0.10119363
107	0x3ccc9475	0.024973134
108	0x3cb900ca	0.022583384
109	0x3d22d5f5	0.039754827
110	0x3b1c0b80	0.0023810565
111	0x3d188903	0.03724004
112	0x3d2677eb	0.040641706
113	0x3c096627	0.008386171
114	0x3d83b2d8	0.06430596
115	0x3d0aa06c	0.033844396
116	0xb7c05a92	-2.2930359e-05
117	0x3cb5a9c1	0.022175672
118	0x3d929641	0.07157565
119	0x3d6061da	0.05478082
120	0xbd393161	-0.045213107
121	0xbde4cae2	-0.11171509
122	0x3dcfebd3	0.10152402
123	0x3d7ffecb	0.06249885
124	0xbcaf3428	-0.021387175
125	0x3dc0e724	0.094190866
126	0x3d346762	0.044043906
127	0xbd4bc9a4	-0.049752846
128	0x3c1dea90	0.009638444
129	0xbd1901ac	-0.03735511
130	0xbd88d498	-0.06681174
131	0x3d76d513	0.060261797
132	0xbd9d3ed7	-0.076780014
133	0x3c92701e	0.017875727
134	0xbccead37	-0.02522908
135	0x3ccda1a6	0.025101494
136	0x3d0a512e	0.033768825
137	0xbd97f95b	-0.07420608
138	0xbdc9790f	-0.09837543
139	0xbd24d202	-0.04023934
140	0xbd37cdf9	-0.044874165
141	0xbdd4e618	-0.103954494
142	0xbda9eba1	-0.08296896
143	0x3d747b3a	0.05968783
144	0x3d8a9f50	0.06768668
145	0xbdbe7b17	-0.09300821
146	0xbdb98014	-0.09057632
147	0xbc88793c	-0.016659372
148	0xbca9c792	-0.020725045
149	0x3d7f9faa	0.062408127
150	0xbca92585	-0.020647774
151	0xbdbba761	-0.09162784
152	0x3d8d9952	0.06914009
153	0xbd4b5d34	-0.049649432
154	0x3d81a37f	0.063300125
155	0x3d4c060c	0.049810454
156	0x3dcf21d8	0.10113877
157	0xbd3b55c1	-0.04573608
158	0xbdc21928	-0.094774544
159	0xbdb17298	-0.08664435
160	0x3dc2322d	0.094822265
161	0x3c69d15f	0.014271109
162	0x3d8d0ab9	0.06886811
163	0x3d321499	0.043476675
164	0x3d92b7b7	0.07163947
165	0x3c36bc40	0.011153281
166	0xbd80a348	-0.062811434
167	0xbd60baf2	-0.054865785
168	0x3d6740ef	0.05645841
169	0x3d69a1d2	0.05703909
170	0x3cb37c94	0.02190999
171	0x3db888f2	0.09010495
172	0xbd370e65	-0.044691462
173	0x3dba0631	0.09083212
174	0x3bc430fd	0.005987285
175	0xbaa937c2	-0.0012910294
176	0x3d8be4ea	0.06830771
177	0x3d9d9f21	0.07696367
178	0xbdbc0aed	-0.091817714
179	0x3dc2f522	0.095194116
180	0xbd31b455	-0.04338487
181	0x3cb47fa0	0.022033513
182	0xbde46ec4	-0.11153939
183	0xbd1e517b	-0.038651925
184	0xbd00cac9	-0.03144339
185	0xbd47e999	-0.04880676
186	0xbbd86e4c	-0.0066049453
187	0xbd4b0bfb	-0.049571972
188	0xbc3e571f	-0.011617451
189	0x3c971907	0.018444551
190	0x3cc76bb9	0.024343358
191	0xbd42d3b5	-0.04756518
192	0xbdbf2be5	-0.09334544
193	0xbdb52e79	-0.088467546
194	0x3ca65f40	0.02030909
195	0xbc2e45aa	-0.010636726
196	0xbcfc7057	-0.030815287
197	0x3d68115a	0.056657173
198	0x3d68aa61	0.05680311
199	0x3da19e30	0.078915
200	0x3d2348ce	0.039864354
201	0x3d62a3dc	0.05533205
202	0xbdb0e2d8	-0.08637017
203	0xbcbf19ec	-0.02332779
204	0xbd294e55	-0.04133447
205	0xbd27d72d	-0.040976692
206	0x3c3add4c	0.0114053
207	0x3d91c152	0.07116951
208	0xbdb20910	-0.08693135
209	0x3cfb0686	0.030642759
210	0xbcc48ea8	-0.023993805
211	0x3da97cb5	0.08275739
212	0xbca01558	-0.019541427
213	0x3dc36ed0	0.0954262
214	0xbcbf0f36	-0.023322683
215	0x3cc7dd31	0.024397464
216	0x3c09103e	0.008365689
217	0xbc726202	-0.014793875
218	0xbbaee917	-0.005337845
219	0x3d9996ed	0.0749949
220	0x3c899537	0.016794784
221	0x3da4cc14	0.08046737
222	0xbb967280	-0.004591286
223	0x3d9cbded	0.07653413
224	0xbd00cc23	-0.03144468
225	0x3dcfb76c	0.10142407
226	0xbd50c593	-0.05096967
227	0xbdab29ea	-0.08357604
228	0xbd9986ad	-0.074963905
229	0x3d15b65c	0.036550865
230	0xbce75ea6	-0.028243374
231	0x3c5fff56	0.013671717
232	0x3ccfa762	0.025348369
233	0x3d91919e	0.071078524
234	0x3d156dcd	0.036481667
235	0xbd994308	-0.07483488
236	0x3da73f6e	0.08166395
237	0xbd4962dd	-0.04916655
238	0xbd359c09	-0.04433826
239	0x3d91c59a	0.07117768
240	0x3d3728c8	0.044716626
241	0x3d8c35b4	0.068461806
242	0xbca46361	-0.020066919
243	0x3dcd055c	0.10010788
244	0x3ca5aec2	0.020224933
245	0xbd35b931	-0.044366065
246	0xbdaed690	-0.08537018
247	0x3d55b95e	0.052178733
248	0x3dc4417e	0.09582804
249	0xbaddf8c7	-0.0016935103
250	0x3db39dff	0.0877037
251	0xbc39f642	-0.011350216
252	0x3d339753	0.043845486
253	0xbdd1b3ae	-0.10239349
254	0xbd908360	-0.07056308
255	0x3ca44ea4	0.02005703

DGM1.gate_R.0.bias f4 [100]
0	0xbbdf7ad2	-0.0068200612
1	0x3d158aed	0.036509443
2	0x3d586e0f	0.052839335
3	0x3da6033b	0.08106085
4	0x3d7391bf	0.059465166
5	0xbcb3240d	-0.021867776
6	0xbd08b400	-0.033374786
7	0xbb85d7c9	-0.0040845615
8	0xbd82ce6e	-0.063870296
9	0x3bdea546	0.0067946045
10	0xbda07746	-0.078352496
11	0x3c418263	0.011810872
12	0xbdc1866d	-0.09449468
13	0xbdb8d648	-0.09025246
14	0xbc718ce7	-0.014743066
15	0xbdc61c33	-0.09673347
16	0x3d5edb8e	0.054408602
17	0x3d248bfc	0.040172562
18	0xbbbca540	-0.005757004
19	0x3e04339c	0.12910312
20	0xbd50a0e3	-0.050934684
21	0xbd5ed50d	-0.0544024
22	0x3d21f2d2	0.039538212
23	0x3c5510fc	0.013004538
24	0xbd39589c	-0.04525052
25	0x3db95478	0.09049314
26	0xbdb34d01	-0.08754922
27	0x3d958c4a	0.07302149
28	0xbdd80102	-0.10547067
29	0xbdaa7107	-0.083223395
30	0x3d94d032	0.072662726
31	0xbd099249	-0.033586774
32	0x3d1f21c0	0.038850546
33	0x3df09e1c	0.11748907
34	0xbd813d55	-0.06310526
35	0x3dc46e07	0.095912986
36	0x3d9cfb37	0.07665103
37	0xbd95e22a	-0.07318528
38	0x3d84d53d	0.064859845
39	0xbdad9737	-0.084761076
40	0xbd8dcb25	-0.06923512
41	0x3d93926b	0.072056614
42	0xbde7d25d	-0.113194205
43	0x3dade2d2	0.08490528
44	0xbbbe5bbb	-0.005809275
45	0xbd542e9b	-0.05180226
46	0x3d0c677f	0.03427839
47	0xbd97c605	-0.07410816
48	0x3da6e581	0.08149243
49	0x3d68ed16	0.056866728
50	0xbdb7a80d	-0.089676
51	0x3c79723f	0.015224992
52	0x3e0861d7	0.13318573
53	0xbd935af4	-0.07195082
54	0x3d88d089	0.066804
55	0x3d92cf77	0.07168477
56	0xbda51d0d	-0.080621816
57	0x3d0306e0	0.03198898
58	0xbcfc98d2	-0.03083459
59	0xbdb29af3	-0.087209605
60	0xbc4a3fb8	-0.012344293
61	0x3d9c9ca7	0.076470666
62	0xbd0416fd	-0.032248486
63	0x3d96116d	0.073275425
64	0xbbcba12b	-0.006214281
65	0xbdd30e60	-0.10305476
66	0xbca777fd	-0.020442957
67	0x3d8b2df7	0.067958765
68	0xbd1ba0d3	-0.03799517
69	0x3c49ed2f	0.012324615
70	0x3b82130a	0.003969555
71	0x3c466977	0.012110106
72	0xbd8837de	-0.06651281
73	0xbd779ea9	-0.060454044
74	0xbd7d0e59	-0.06178126
75	0x3d819c51	0.06328643
76	0x3d25ea52	0.04050667
77	0xbdc6d635	-0.097088255
78	0x3d65483b	0.055977087
79	0x3d82aa18	0.06380099
80	0xbdb9681a	-0.09053059
81	0xbcef9fb1	-0.029250951
82	0x3c52d144	0.012867276
83	0x3dbdf36a	0.09274943
84	0x3c02bdf9	0.007979863
85	0xbdbc776f	-0.09202468
86	0x3dd0c5d1	0.101939805
87	0x3c152ea4	0.009105358
88	0x3caefd27	0.021360947
89	0xbd24dab4	-0.040247634
90	0xbd9b2dad	-0.07577071
91	0x3da8d161	0.08243061
92	0x3da15ba7	0.078788094
93	0x3da6bba6	0.0814126
94	0x3bcdef78	0.0062846504
95	0x3d016b84	0.031596676
96	0x3be619e7	0.007022131
97	0x3a397001	0.000707388
98	0x3da61bee	0.08110796
99	0x3bebad62	0.0071922997

DGM1.gate_H.0.weight f4 [100, 102]
0	0xbd68c8fb	-0.056832295
1	0xbdb5ecf1	-0.088830836
2	0x3d88c02d	0.066772796
3	0x3dc42e06	0.09579091
4	0x396f932b	0.0002284764
5	0x3db9498c	0.09047231
6	0xbc2a2ad1	-0.010386185
7	0xbc4ae71e	-0.012384204
8	0x3c28e84b	0.010309289
9	0x3cc747a2	0.02432615
10	0xbd35ca08	-0.044382125
11	0x3d008a6f	0.03138202
12	0xbd9275f7	-0.07151406
13	0xbd8ff18e	-0.07028495
14	0x3d10bd78	0.03533694
15	0x3d5d4dbe	0.05402922
16	0xbd6a43ab	-0.05719344
17	0xbdca7309	-0.098852225
18	0xbcbcd92e	-0.023052778
19	0xbd12737a	-0.03575466
20	0xbc3fdf35	-0.011710932
21	0x3dcc778e	0.09983741
22	0x3d20e8c7	0.039284494
23	0xbdc68af6	-0.096944734
24	0x3c887704	0.016658314
25	0x3d155ea1	0.0364672
26	0x3d37b004	0.044845596
27	0xbdcbbb45	-0.09947828
28	0xbcf4e9cc	-0.02989664
29	0x3d7315c0	0.059346914
30	0x3dd3571a	0.10319348
31	0x3d774b1f	0.060374375
32	0xbd0700eb	-0.03295986
33	0x3c967a19	0.018368768
34	0x3c9e4cee	0.019323792
35	0xbcd6c1ec	-0.026215516
36	0x3d81f6e4	0.06345919
37	0x3d3676e3	0.044546973
38	0xbd2076c2	-0.039175756
39	0xbdb45bb3	-0.08806553
40	0x3d422257	0.04739603
41	0x3dc45732	0.09586944
42	0xbcd134d3	-0.025537884
43	0x3d9bdb01	0.07610131
44	0xbd4f09f1	-0.05054659
45	0x3cc22dec	0.023703538
46	0x3d17a2cc	0.03702049
47	0xbd1f3aa2	-0.038874276
48	0x3d9f4460	0.07776713
49	0xbdbb256a	-0.091379955
50	0x3ced7366	0.02898569
51	0x3c4aa7e1	0.012369127
52	0x3dd32389	0.10309512
53	0xbd1f12fc	-0.038836464
54	0x3c7c1111	0.015384928
55	0xbc065d47	-0.00820095
56	0xbd8a5fae	-0.06756531
57	0xbc446b45	-0.011988466
58	0x3dc33510	0.09531605
59	0x3d2f158b	0.042745154
60	0xbcfed185	-0.031105766
61	0xbba1ffd9	-0.0049438295
62	0xbd4bd790	-0.049766123
63	0xbd2782d5	-0.040896256
64	0xbd791b20	-0.060816884
65	0xbd6dc74b	-0.05805139
66	0x3c2ce7b2	0.010553287
67	0x3d96b2d5	0.07358328
68	0xbda1683c	-0.07881209
69	0xbd0dbcbf	-0.03460383
70	0x3d40ca87	0.047068145
71	0xbbaea16d	-0.005329302
72	0xba75368b	-0.0009354136
73	0xbceef205	-0.029168138
74	0x3d9f76b2	0.07786311
75	0x3c86669f	0.016406355
76	0xbd42d113	-0.04756267
77	0xbd153039	-0.03642294
78	0x3d4ec52e	0.050481014
79	0x3d06ca1b	0.032907587
80	0xbda5e6a5	-0.081006326
81	0x3c5d6333	0.0135124205
82	0x3db621c7	0.08893161
83	0xbcf47e6e	-0.029845443
84	0x3d71bfaa	0.059020676
85	0x3d630efa	0.055434205
86	0x3d9ab486	0.07553963
87	0x3dbaa0a8	0.09112674
88	0xbd947f3b	-0.0725083
89	0xbc95525a	-0.018227745
90	0x3dc3186b	0.09526142
91	0xbd148062	-0.036255248
92	0xbb96b46d	-0.004599145
93	0x3cd7a3a5	0.026323149
94	0x3d45174c	0.04811792
95	0xbcccfc2b	-0.025022587
96	0x3c1cd672	0.009572612
97	0x3c15e6d8	0.009149276
98	0xbd88c164	-0.06677511
99	0x3dcba369	0.099432774
100	0xbbd31824	-0.006442087
101	0x3d75a0a4	0.059967652
102	0x3d769ac4	0.06020619
103	0x3d1e94ca	0.038716115
104	0x3d3b1c8b	0.045681518
105	0xbda273f0	-0.079322696
106	0x3d699c22	0.057033665
107	0xbc6beac7	-0.014399237
108	0xbca3b503	-0.019983774
109	0xbc0c9fa4	-0.008582983
110	0xbddb2d1f	-0.107019655
111	0xbc8d3bd8	-0.01724045
112	0x3d7828d2	0.060585804
113	0xbb8cd22a	-0.0042975144
114	0xbd5a6af1	-0.053324644
115	0x3d4b598e	0.049645953
116	0xbd93fe46	-0.07226233
117	0xbd525f0d	-0.05136018
118	0x3c20d19c	0.0098156
119	0xbd9fad9a	-0.07796784
120	0xbdb7d723	-0.08976581
121	0xbd8142ea	-0.06311591
122	0x3dc5b401	0.09653474
123	0xbdb7d39b	-0.089759074
124	0x3d8758c3	0.06608727
125	0xbbef2659	-0.0072982726
126	0xbd0179b4	-0.031610206
127	0x3da840c9	0.08215482
128	0xbdce7210	-0.100803494
129	0x3c78b1b4	0.0151790865
130	0xbdec0518	-0.11524409
131	0xbd9e23ac	-0.077216476
132	0x3d93cbea	0.07216628
133	0x3db5f66b	0.08884891
134	0x3bcdfbc5	0.006286117
135	0xbd6b9e84	-0.05752422
136	0x3d344580	0.044011593
137	0xbd209fad	-0.03921478
138	0x3d48596d	0.048913408
139	0x3d1990d3	0.03749163
140	0x3d70ef6b	0.058822077
141	0xbd8bbecc	-0.06823501
142	0x3dba0812	0.090835705
143	0xbdad5199	-0.08462829
144	0xbd04b97a	-0.032403447
145	0xbda6d0ec	-0.081453174
146	0xbda6040e	-0.08106242
147	0x3b8b26ed	0.0042465837
148	0xbd5e6f6c	-0.05430548
149	0xbd91078b	-0.07081517
150	0x3d78eff0	0.060775697
151	0x3d892e42	0.06698276
152	0x3cb9a2aa	0.022660572
153	0x3ce887d3	0.028385079
154	0x3d532d58	0.051556915
155	0x3d2210c2	0.039566763
156	0x3d0d13b5	0.034442622
157	0x3b038e4b	0.0020073827
158	0x3c813fef	0.015777556
159	0x3c99eb3d	0.018788928
160	0x3d72e46e	0.05929988
161	0x3dc6d11f	0.097078554
162	0x3d2ae915	0.04172619
163	0xbcb7fdeb	-0.022459945
164	0xbd94d76d	-0.07267652
165	0xbd79bc8c	-0.060970828
166	0x3b3addd2	0.0028513563
167	0x3d0f96c9	0.03505591
168	0x3afaa53f	0.0019122734
169	0x3dc1844e	0.09449063
170	0x3d279262	0.040911086
171	0xbdda2048	-0.106506884
172	0xbd10b8e3	-0.03533257
173	0x3d032d17	0.032025423
174	0xbd6d40b8	-0.05792305
175	0xbd33ca51	-0.043894116
176	0xbd264577	-0.04059359
177	0xbcc53bb2	-0.024076317
178	0xbd056180	-0.032563686
179	0xbc93f97b	-0.018063297
180	0xbdc79c53	-0.09746613
181	0x3d63b514	0.05559261
182	0xbd512ecd	-0.051070023
183	0xbda618ec	-0.08110222
184	0x3b638605	0.0034717333
185	0x3d40d08b	0.047073882
186	0x3bb9ab12	0.005666145
187	0xbcf6b770	-0.030116767
188	0xbc307241	-0.010769428
189	0x3aeebf1c	0.0018214914
190	0xbd326b62	-0.04355944
191	0xbdab51eb	-0.08365234
192	0xbd912ba0	-0.07088399
193	0x3dd2ec11	0.10298932
194	0xbc7d304e	-0.015453411
195	0x3cce5b08	0.025189891
196	0xbd96cf27	-0.0736373
197	0xbd65aa2e	-0.0560705
198	0xbd8026dc	-0.06257412
199	0xbcca82ba	-0.024720538
200	0xbd5759e5	-0.052575964
201	0xbcb2c117	-0.021820588
202	0x3dd298a2	0.10283019
203	0x3d9103fe	0.070808396
204	0x3d6118ab	0.054955166
205	0x3ced10fc	0.028938763
206	0xbcb3896e	-0.021916118
207	0x3bd0b408	0.0063691176
208	0xbd793dd1	-0.06084997
209	0x3d36a06e	0.04458659
210	0xbd1818f9	-0.03713319
211	0x3d97a485	0.074044265
212	0xbdb64923	-0.089006685
213	0x3c747072	0.014919387
214	0xbc0ccf8e	-0.008594407
215	0xba9ed732	-0.0012118577
216	0xbdc586ff	-0.09644889
217	0xbd906c4b	-0.07051905
218	0xbd0ebd54	-0.034848526
219	0xbd9f8d07	-0.07790571
220	0x3d672b3a	0.05643771
221	0xbd86e0f0	-0.06585872
222	0x3dd1ea25	0.10249738
223	0xbdcf9361	-0.10135532
224	0xbd48ed4e	-0.049054436
225	0xb8a169c0	-7.696776e-05
226	0x3d24116c	0.040055677
227	0x3cd3bfe7	0.025848342
228	0x3d36bd9e	0.044614427
229	0x3d729837	0.059227195
230	0x3d67c3ed	0.056583334
231	0x3d5777bb	0.05260442
232	0xbc880d07	-0.016607774
233	0xbd2fd6a8	-0.04292932
234	0xbdabfcdc	-0.083978385
235	0x3d760cb8	0.060070723
236	0xbd75970c	-0.059958503
237	0x3d059981	0.032617096
238	0xbd7eefa5	-0.06224026
239	0x3dcbaf5a	0.09945555
240	0xbd8db372	-0.06918992
241	0x3d6277ff	0.05529022
242	0xbc8c2e11	-0.01711181
243	0xbb943ac7	-0.0045236084
244	0x3c832564	0.01600904
245	0x3da8163f	0.08207368
246	0xbd7d421c	-0.061830625
247	0x3d1638ed	0.036675382
248	0xbd9dc079	-0.07702727
249	0xbd1f3f10	-0.0388785
250	0x3c77330e	0.015087856
251	0x3d81be48	0.063351214
252	0x3d8a9e8f	0.06768524
253	0x3d9775cb	0.07395514
254	0xbc968585	-0.018374214
255	0x3dd6d9bd	0.10490749

DGM1.gate_H.0.bias f4 [100]
0	0xbd3d8a7d	-0.04627465
1	0x3dab2174	0.0835599
2	0xbc7393e7	-0.014866806
3	0x3d7cc9a6	0.061715744
4	0x3d27d4f5	0.040974576
5	0xbdc1422e	-0.09436451
6	0x3d129207	0.035783794
7	0xbd6a7dde	-0.057248943
8	0x3db204ad	0.08692298
9	0x3ddc90f2	0.107698336
10	0xbca93cb7	-0.020658834
11	0x3dae2a58	0.0850417
12	0xbd7670b7	-0.060166087
13	0x3cbd6a1c	0.023121886
14	0x3d651296	0.055925928
15	0xbcb61dd2	-0.022231016
16	0xbd44046a	-0.047855772
17	0x3d1be760	0.038062453
18	0xbc9987fb	-0.018741598
19	0xbd8ec247	-0.06970649
20	0x3ca3b64d	0.019984389
21	0x3db14a70	0.08656776
22	0x3deebd4c	0.11657199
23	0x3b82d0fb	0.0039921976
24	0xbda030cd	-0.07821808
25	0xbcd1df2b	-0.02561911
26	0x3d3651be	0.04451155
27	0x3d5bdc36	0.053676806
28	0x3d0a9bf7	0.033840146
29	0xbd3ba476	-0.04581114
30	0x3da80169	0.08203394
31	0x3d7b7e68	0.061399847
32	0x3db0e905	0.08638195
33	0xbca4ad5d	-0.020102197
34	0x3d8e736b	0.06955608
35	0xbd10beb3	-0.035338115
36	0xbd69f698	-0.057119936
37	0x3dabbd74	0.08385745
38	0xbd801fb3	-0.06256046
39	0xbda30519	-0.07959957
40	0xbd0e9037	-0.034805503
41	0xbd19a0d6	-0.0375069
42	0x3dfcc687	0.123425536
43	0xbd08a281	-0.0333581
44	0x3cc99ec1	0.024611833
45	0x3c3e1055	0.011600574
46	0xbcc1ee02	-0.023673061
47	0x3d3d7c26	0.046260975
48	0xbc3daf65	-0.011577462
49	0xbdd5b1c8	-0.104343
50	0xbd80b06b	-0.06283649
51	0x3c8eb1c9	0.017418759
52	0xbd0d62a6	-0.034517907
53	0x3d3295c9	0.043599878
54	0x3db20dd1	0.086940415
55	0xbdaf553e	-0.085611805
56	0x3cd7c4ff	0.026339052
57	0x3c7f3e80	0.015578866
58	0xbc6393ac	-0.013890188
59	0x3d8408ea	0.06447013
60	0xbd97c954	-0.07411447
61	0x3cc287ba	0.02374636
62	0xbd3f0d3c	-0.04664348
63	0x3d37d3bd	0.044879664
64	0xbd343cee	-0.04400342
65	0x3d9f4b5a	0.07778044
66	0xbdd5d076	-0.104401514
67	0xbdd53d32	-0.10412063
68	0x3da4b8b8	0.08043045
69	0xbd9635d8	-0.07334489
70	0x3d3b96d9	0.045798156
71	0xbdcbc342	-0.09949352
72	0x3d3033ea	0.04301826
73	0x3cbec433	0.023286914
74	0x3d68c449	0.056827817
75	0x3dd29a18	0.10283297
76	0xbdbca71e	-0.092115626
77	0xbdb0002b	-0.08593782
78	0x3cdde4c0	0.027086616
79	0x3db1b172	0.08676423
80	0x3d19667f	0.037451264
81	0x3d5c1373	0.053729486
82	0xbd544600	-0.05182457
83	0x3cc189b7	0.023625238
84	0x3db06aaf	0.08614098
85	0xbdc16b20	-0.094442606
86	0xbde58341	-0.11206675
87	0xbdcec863	-0.100968145
88	0xbc32231d	-0.0108726295
89	0xbcf06e66	-0.029349517
90	0x3d8b96c3	0.06815865
91	0x3d6a2c78	0.057171315
92	0xbd235276	-0.039873563
93	0x3dc408cf	0.095719926
94	0x3c90b391	0.017663749
95	0x3d8413cd	0.06449089
96	0xbcfd35e1	-0.03090948
97	0x3da37824	0.079818994
98	0x3d44313a	0.04789851
99	0x3d916bc4	0.07100633
